archs/basicSR_models/weights/PMRIDd3-denoise.pth (torch, 53024 bytes, 91 tensors)

conv0.conv.weight f4 [8, 3, 3, 3]
0	0xbe45de30	-0.19323039
1	0x3cf5ed46	0.030020367
2	0x3d3c78f8	0.046013802
3	0xbd840892	-0.06446947
4	0xbe8e23f2	-0.277618
5	0xbe03954b	-0.1284992
6	0x3e449065	0.19195707
7	0x3d196f60	0.03745973
8	0x3ddb4cef	0.10708033
9	0xbe5c6dd0	-0.21526265
10	0x3de2aac0	0.11067724
11	0x3e567aaa	0.2094523
12	0x3dee5825	0.11637906
13	0x3e070226	0.13184413
14	0xbd5f39f8	-0.054498643
15	0x3f1062b5	0.56400615
16	0x3c6051ca	0.013691375
17	0x3d76976f	0.060203012
18	0x3e3567d8	0.17715394
19	0x3cfbc6e5	0.030734489
20	0xbe533e19	-0.20629157
21	0x3e151745	0.14559658
22	0xbe783922	-0.24240544
23	0x3e08af36	0.13348088
24	0xbe1b7221	-0.15180255
25	0x3e13e1f6	0.14441666
26	0xbde9339c	-0.11386797
27	0xbe998e29	-0.29991272
28	0xbf1f16f8	-0.6214442
29	0xb9658454	-0.00021888438
30	0xbc657940	-0.014005959
31	0x3e1246d9	0.14284839
32	0x3f0fbbea	0.5614611
33	0x3da34e64	0.07973936
34	0xbc6fb069	-0.014629462
35	0x3da8329f	0.0821278
36	0x3e657e7a	0.22411528
37	0x3db68165	0.08911399
38	0xbc83c93d	-0.016087169
39	0x3ea6906f	0.3253207
40	0xbcfe9348	-0.031076089
41	0xbedbe754	-0.42949927
42	0xbd7f7cd3	-0.0623749
43	0xbcc3071e	-0.023807105
44	0x3bd5d9cf	0.006526209
45	0x3e093a6a	0.1340119
46	0x3e3833ab	0.1798846
47	0x3d0a96d1	0.033835236
48	0x3d8bfb85	0.06835083
49	0x3e6faf65	0.23406751
50	0xbf019e1d	-0.50631887
51	0x3dbdc324	0.09265736
52	0xbba5985e	-0.005053564
53	0xbd0625f1	-0.032751027
54	0xbdc3e258	-0.09564656
55	0x3ec84fbe	0.39123338
56	0xbe020131	-0.12695767
57	0x3d8591d4	0.06521955
58	0x3e05b0f6	0.13055786
59	0x3cdb217c	0.026749365
60	0xbf193573	-0.5984718
61	0xbea83456	-0.3285243
62	0x3ea12ff9	0.31481913
63	0xbe48d4fe	-0.196125
64	0x3e016975	0.12637885
65	0xbc83eb81	-0.016103508
66	0x3e919af1	0.28438523
67	0xbd0276eb	-0.03185169
68	0xbe85d1a3	-0.26136503
69	0x3dd0d2c8	0.10196453
70	0x3dd95adb	0.106130324
71	0x3dba48f2	0.090959445
72	0xbe10394a	-0.14084354
73	0x3e5935fd	0.21212001
74	0xbe6e24fc	-0.23256296
75	0x3e27ab32	0.163739
76	0xbdfb6202	-0.12274553
77	0x3d9e4b2e	0.07729183
78	0x3d819d1e	0.06328796
79	0xbd1dfe31	-0.038572494
80	0xbcaab80f	-0.02083972
81	0x3c96cf77	0.018409474
82	0x3dfe4a61	0.124165304
83	0x3d517042	0.051132448
84	0x3e2f7898	0.17135847
85	0xbdac0d6a	-0.08400996
86	0x3d8c2b26	0.068441674
87	0x3d1068ea	0.035256304
88	0xbcba58a3	-0.022747343
89	0xbe74ab7b	-0.2389354
90	0xbe187dcd	-0.14891739
91	0x3e7b8c56	0.24565253
92	0x3e5b4a42	0.21415046
93	0x3da41116	0.080110714
94	0xbedcce94	-0.43126357
95	0x3e728420	0.23683214
96	0x3d8e34d0	0.06943667
97	0x3df96b63	0.121786855
98	0xbd9401f1	-0.07226933
99	0xbbb70447	-0.0055852267
100	0xbd9ea036	-0.077454016
101	0x3d5b4ed9	0.05354199
102	0x3e12f35e	0.1435065
103	0x3c4e8f61	0.012607426
104	0xbec52c95	-0.38510576
105	0x3de94d94	0.1139175
106	0x3e0de632	0.13857344
107	0xbdc22855	-0.09480349
108	0xbe8df743	-0.27727708
109	0x3f0b74eb	0.5447528
110	0x3d8c6323	0.06854846
111	0xbcb1faf7	-0.021726115
112	0xbefbaeb8	-0.49156737
113	0xbd9e4fc4	-0.07730058
114	0xbce8d4b4	-0.028421737
115	0xbde78e92	-0.1130649
116	0xbe1eec7d	-0.155199
117	0x3e4e4579	0.20143689
118	0xbed6f6fe	-0.41985315
119	0xbda9dbf7	-0.08293908
120	0x3f0cd350	0.5500994
121	0x3ebb78df	0.36615655
122	0x3e9d02c0	0.3066616
123	0x3cea040c	0.028566383
124	0x3d79434f	0.060855206
125	0xbc3a4eed	-0.011371356
126	0x3d9f2da6	0.077723786
127	0x3e1f8b34	0.15580446
128	0xbd2f904f	-0.042862233
129	0x3dd15ab2	0.10222377
130	0xbf078e19	-0.529512
131	0x3ded932f	0.11600339
132	0x3dec9b03	0.11553004
133	0xbe4be520	-0.19911623
134	0x3dfbc71e	0.12293838
135	0xbe127abc	-0.14304632
136	0xba8ea2c8	-0.0010882253
137	0x3d0adeb7	0.033903804
138	0x3c6be70d	0.0143983485
139	0x3e9e0699	0.3086441
140	0xbdb91f7d	-0.09039209
141	0xbe31db91	-0.17368914
142	0x3c7e83e7	0.015534378
143	0xbdd05879	-0.10173125
144	0xbe9d677e	-0.3074302
145	0x3e3b8bef	0.18315099
146	0x3ec9dd31	0.39426568
147	0x3e0322c6	0.12806234
148	0x3f2c4f10	0.6730814
149	0x3db84ceb	0.08999046
150	0xbe8ff85e	-0.28119177
151	0x3e226529	0.15858902
152	0xbb2752ab	-0.0025531452
153	0x3e792978	0.24332225
154	0x3b39c67b	0.0028347063
155	0xbe4f685a	-0.2025465
156	0xbe0b8874	-0.13626271
157	0x3d571680	0.052511692
158	0xbd316ec7	-0.043318536
159	0x3d1573e1	0.036487464
160	0xbda5c8dc	-0.080949515
161	0x3e02ef1b	0.12786524
162	0xbe077f48	-0.13232148
163	0x3f1fffd0	0.62499714
164	0xbe44562a	-0.19173494
165	0xbdb4574c	-0.08805713
166	0xbef1ae4f	-0.472033
167	0xbe428abd	-0.18998237
168	0x3d976daf	0.07393967
169	0x3e64c6ed	0.22341509
170	0x3da0e98d	0.07857046
171	0x3d1c2fef	0.03813165
172	0xbf3d8676	-0.74033296
173	0x3e93046c	0.2871431
174	0x3e73825a	0.23780194
175	0x3e03ebca	0.12882915
176	0x3d107070	0.03526348
177	0x3d3b3079	0.045700524
178	0xbe49a7f5	-0.19692977
179	0xbd419d80	-0.047269344
180	0x3dfe1e9f	0.12408184
181	0xbe06433b	-0.13111584
182	0x3dc5dd8f	0.096613996
183	0x3ead96ec	0.33904207
184	0x3f8cc286	1.0996864
185	0x3d90e62e	0.07075153
186	0xbb896221	-0.004192606
187	0x3d7731cf	0.060350236
188	0x3c9978dc	0.018734388
189	0xbdbf7b71	-0.093497165
190	0x3deddf4c	0.11614856
191	0x3ea0800d	0.31347695
192	0xbe4c82fc	-0.19971842
193	0xbec45e66	-0.3835327
194	0x3e97a8a4	0.2962085
195	0xbe0f0562	-0.13966897
196	0xbe14301c	-0.14471477
197	0x3e2ff30d	0.1718256
198	0xbd8d4601	-0.06898118
199	0xbcecd729	-0.02891119
200	0xbe7267b0	-0.23672366
201	0xbd7dc0cb	-0.06195144
202	0x3daf5f1c	0.085630625
203	0x3da6b308	0.08139616
204	0x3dc5f3c2	0.09665634
205	0x3df9beaf	0.12194573
206	0x3d9f494a	0.07777651
207	0x3d78481d	0.060615648
208	0xbdc65ade	-0.096853
209	0x3cec4e9c	0.028846078
210	0x3de77eec	0.11303505
211	0x3d63a688	0.05557874
212	0xbebe7281	-0.37196735
213	0xbc8d1f2b	-0.017226776
214	0x3e8d845f	0.27640054
215	0x3e1e8d71	0.15483643

conv0.conv.bias f4 [8]
0	0x3e1e14ae	0.15437576
1	0x3e599514	0.21248275
2	0xbc99956a	-0.018748004
3	0x3e3d37dd	0.18478341
4	0x3ea85b12	0.3288198
5	0x3e1c6291	0.15271975
6	0x3e215ebc	0.15758795
7	0x3e55e87b	0.20889466

enc2.0.conv1.depthwise.weight f4 [8, 1, 5, 5]
0	0x3c8e46ca	0.01736774
1	0x3d5c2fc2	0.053756483
2	0x3e816187	0.2526972
3	0x3e0e04a5	0.13868959
4	0xbe126909	-0.1429788
5	0x3ef2bc2f	0.47409198
6	0x3e99dfa5	0.3005344
7	0x3ea415e5	0.32047954
8	0x3eb69fa8	0.35668683
9	0x3e0fbfc7	0.14038001
10	0xbc916e02	-0.017752651
11	0xbda4e327	-0.08051138
12	0x3e85aa43	0.26106462
13	0x3ebc1e2f	0.36741778
14	0x3e48da39	0.19614495
15	0x3e52b597	0.20577084
16	0xbd3063aa	-0.043063797
17	0x3f1ce740	0.6129036
18	0x3f0f3264	0.55936265
19	0x3e99c48d	0.3003277
20	0x3e1975fe	0.14986417
21	0x3e69917e	0.22809407
22	0x3f2169a7	0.6305184
23	0x3ed3069e	0.41215986
24	0x3e22d1c8	0.15900338
25	0xbecd4709	-0.40093258
26	0xbe925f36	-0.28588265
27	0xbde2edc0	-0.110805035
28	0xbe7aada3	-0.244803
29	0xbe536c7a	-0.2064685
30	0xbe65a65d	-0.22426744
31	0xbe687a76	-0.22702965
32	0xbc304404	-0.010758404
33	0xbdf3f877	-0.11912625
34	0xbe72938c	-0.23689097
35	0xbd3349d4	-0.04377158
36	0xbe95cc66	-0.29257506
37	0xbe83ad2e	-0.25718063
38	0xbdaf1806	-0.08549504
39	0xbe004da3	-0.12529616
40	0xbef351a0	-0.47523212
41	0xbf0a5d45	-0.5404857
42	0xbf135698	-0.57554007
43	0xbe9d543c	-0.30728328
44	0xbeca9014	-0.39563048
45	0xbe8c1c34	-0.27365267
46	0xbe2fd05c	-0.17169327
47	0xbe7155ae	-0.2356784
48	0xbdd60ec5	-0.10452036
49	0xbf002724	-0.50059724
50	0x3ddc99ae	0.107714996
51	0x3e8d2ef3	0.27574882
52	0x3e8ad652	0.27116638
53	0x3c4ddd1f	0.012564926
54	0xbe171210	-0.14752984
55	0x3e9ba41f	0.30398652
56	0x3f04c7ac	0.51867175
57	0x3e9c7850	0.3056054
58	0xbe138080	-0.14404488
59	0xbe1d50fb	-0.15362923
60	0xbd8e7037	-0.06954997
61	0x3cebe08c	0.028793596
62	0x3c23ff7f	0.0100096455
63	0xbecf5890	-0.40497255
64	0xbe9480fb	-0.29004654
65	0xbe889801	-0.2667847
66	0xbec7af18	-0.39000773
67	0xbecdb88b	-0.40179858
68	0xbf369a6a	-0.7132937
69	0xbef6e649	-0.4822257
70	0xbe621508	-0.22078335
71	0xbe9ed517	-0.3102195
72	0xbe3bd2cf	-0.18342136
73	0xbe8d9726	-0.2765438
74	0xbe4abb74	-0.1979807
75	0xbc9e88b6	-0.019352298
76	0x3dd86310	0.1056577
77	0x3d63d742	0.055625208
78	0xbbad5c7f	-0.0052905674
79	0x3e3a7d36	0.18211827
80	0x3e349143	0.17633538
81	0x3e9ba94b	0.30402598
82	0x3ec30034	0.38086092
83	0x3e6e7923	0.23288397
84	0x3e2a2faa	0.16619745
85	0x3ca86b93	0.020559108
86	0xbb65277c	-0.0034966161
87	0x3e941852	0.28924805
88	0x3dd7cd66	0.105372235
89	0x3e177a58	0.14792764
90	0x3e8f4886	0.27985018
91	0x3e7ec81e	0.24881026
92	0x3ec12e16	0.37730473
93	0x3d2097f0	0.0392074
94	0x3e9bd17c	0.3043326
95	0x3e44bd24	0.19212776
96	0x3d9cb2ce	0.07651292
97	0x3e51fd31	0.20506741
98	0xbc323736	-0.010877421
99	0x3d89cf74	0.06729022
100	0xbd0e1e7b	-0.034697037
101	0x3e10e485	0.14149673
102	0x3c7b519e	0.015339283
103	0xbdfdb373	-0.12387743
104	0xbdb49f65	-0.088194646
105	0x3e08f550	0.1337483
106	0x3f02781d	0.5096453
107	0x3e9783f6	0.29592866
108	0x3e13ed88	0.1444608
109	0x3bae01f2	0.0053102905
110	0x3de0b673	0.109722994
111	0x3eb0d0bc	0.34534252
112	0x3eefef4a	0.4686225
113	0x3e723b5e	0.2365546
114	0x3d37fbb1	0.044917766
115	0x3e8290d9	0.25501135
116	0x3e2af70f	0.16695808
117	0x3e398eb0	0.18120837
118	0x3d713eb9	0.058897708
119	0x3da00f0b	0.07815369
120	0x3ea30df7	0.31846592
121	0x3e7dd90b	0.24789827
122	0x3e29ae73	0.16570453
123	0x3d9c5d9d	0.07635043
124	0x3dc5c0af	0.09655892
125	0x3e094d34	0.13408357
126	0xbec6ed31	-0.38852838
127	0xbeec363b	-0.46135125
128	0xbf0e8618	-0.5567336
129	0xbe94fe46	-0.29100245
130	0x3e44036c	0.1914193
131	0x3d376111	0.044770304
132	0xbb49d1a4	-0.0030795122
133	0x3c285af1	0.010275588
134	0xbe1f3c7c	-0.15550417
135	0xbd18f064	-0.03733863
136	0x3e842ee2	0.2581702
137	0x3e0b585b	0.13607924
138	0xbd94f62d	-0.07273517
139	0xbe3824dc	-0.1798281
140	0x3e9af434	0.30264437
141	0x3e7df6dc	0.248012
142	0x3d348936	0.044076167
143	0x3dd1324e	0.10214673
144	0xbce199a0	-0.027539074
145	0xbdae5621	-0.085125215
146	0xbd16434d	-0.036685277
147	0x3dbf80bc	0.09350726
148	0x3dc6b017	0.09701555
149	0x3e97483d	0.295473
150	0x3d9201b5	0.07129232
151	0xbd82a5da	-0.0637929
152	0xbd699f4f	-0.057036694
153	0x3d2df39f	0.042468663
154	0x3cb117ce	0.021617796
155	0x3e387675	0.18013938
156	0xbdd75d89	-0.10515887
157	0xbe0b0f93	-0.1358016
158	0x3df46030	0.11932409
159	0x3d9b3efa	0.07580371
160	0xbe050216	-0.12989077
161	0xbed5638b	-0.41677508
162	0xbec579bc	-0.38569438
163	0xbd85de53	-0.065365456
164	0x3ba00ab6	0.0048840893
165	0xbea9e298	-0.3318069
166	0xbf043fa0	-0.51659584
167	0xbed1d1d2	-0.40980393
168	0xbe1cecfe	-0.1532478
169	0xbcaa2689	-0.020770328
170	0xbe10f6a3	-0.14156584
171	0xbe6e9acc	-0.23301238
172	0xbe3bfdac	-0.18358487
173	0xbd406655	-0.04697259
174	0x3e51e8dd	0.20498987
175	0xbcc30d4b	-0.02381005
176	0x3ceeba42	0.029141549
177	0xbe909905	-0.28241745
178	0xbeabcbf4	-0.3355404
179	0xbe443334	-0.19160157
180	0x3e76a302	0.2408562
181	0x3e3c6170	0.18396544
182	0xbe2feb1f	-0.17179535
183	0x3ccb3c66	0.024809074
184	0xbe1922bb	-0.14954655
185	0x3dcad679	0.09904189
186	0x3e0263fc	0.12733454
187	0x3d84b971	0.06480683
188	0x3e0ebc75	0.13939078
189	0xbcf6ccb3	-0.030126905
190	0xbe1c9dc5	-0.1529456
191	0x3ce57fc9	0.028015034
192	0xbcab0aef	-0.020879237
193	0xbf0d5d4f	-0.552205
194	0xbdffba5a	-0.124867156
195	0xbe99fa1c	-0.3007363
196	0x3d305206	0.043046974
197	0xbe43ef2d	-0.19134207
198	0xbea12a42	-0.31477553
199	0xbed1d8ac	-0.4098562

enc2.0.conv1.pointwise.weight f4 [2, 8, 1, 1]
0	0xbed07dd9	-0.40721014
1	0xbd4bee66	-0.0497879
2	0xbddd2bf4	-0.10799399
3	0xbdd89e57	-0.10577076
4	0x3e9d6903	0.3074418
5	0xbe74f86a	-0.23922887
6	0xbf058537	-0.52156395
7	0xbf258940	-0.6466255
8	0x3eb12c4b	0.34604105
9	0xbf0881f4	-0.5332329
10	0xbf30adab	-0.69014996
11	0xbf0f6674	-0.56015706
12	0xbebe03ba	-0.37112218
13	0x3cecf60d	0.02892592
14	0x3e1a5314	0.15070754
15	0x3ec782d3	0.38966998

enc2.0.conv1.pointwise.bias f4 [2]
0	0xbd4c83b9	-0.049930308
1	0x3e655ad6	0.22397932

enc2.0.conv2.depthwise.weight f4 [2, 1, 5, 5]
0	0x3e516448	0.2044841
1	0x3d42ad95	0.047528822
2	0xbe87d7d1	-0.26531842
3	0xbeaeeedb	-0.34166607
4	0xbe1a21e9	-0.15051998
5	0x3e5900d5	0.21191724
6	0x3ec551e0	0.38539028
7	0xbe687692	-0.22701481
8	0xbefa5ce6	-0.48899
9	0xbe84a594	-0.25907576
10	0x3dce9728	0.100874245
11	0x3ed85d87	0.42258856
12	0xbea5bb61	-0.3236952
13	0xbedccdd1	-0.43125775
14	0xbe77647c	-0.24159425
15	0x3d5af626	0.0534574
16	0x3e391d2a	0.18077531
17	0x3ea677a0	0.32513142
18	0x3dc80fcc	0.09768638
19	0x3ea54292	0.32277352
20	0x3dd07f44	0.10180524
21	0x3e2875a8	0.16451132
22	0x3e244f88	0.16045964
23	0x3e51b641	0.2047968
24	0x3e11854b	0.14211003
25	0x3b443310	0.0029937662
26	0x3c41f74c	0.011838745
27	0x3e5de698	0.21669996
28	0xbc50528a	-0.012714991
29	0x39b470a2	0.00034416193
30	0xbd7f86f7	-0.062384572
31	0x3e37bf9b	0.17944185
32	0x3e9fc960	0.31208324
33	0x3e7a833e	0.24464127
34	0x3cbacb71	0.022802087
35	0x3c26f55e	0.010190336
36	0x3e3bde2e	0.18346474
37	0xbc00f8c7	-0.007871813
38	0xbd56ba31	-0.05242366
39	0xbd2834be	-0.041065924
40	0xbc9918bf	-0.018688558
41	0x3dbafac3	0.0912986
42	0xbe917a43	-0.2841359
43	0xbef4e212	-0.47828728
44	0xbd4f95a5	-0.05067982
45	0x3cdad780	0.026714087
46	0xbce66d60	-0.028128326
47	0x3c87dabd	0.016583795
48	0xbe3d304b	-0.18475454
49	0xbe007e33	-0.12548141

enc2.0.conv2.pointwise.weight f4 [8, 2, 1, 1]
0	0x3e1e5b16	0.15464434
1	0xbe9473f9	-0.2899473
2	0xbe7358c1	-0.23764326
3	0x3dab9915	0.083788075
4	0xbec0ce6e	-0.37657493
5	0xbf8c61b0	-1.0967312
6	0x3e38a195	0.18030389
7	0xbe4709c2	-0.19437316
8	0x3d39f016	0.04539498
9	0x3e418f91	0.18902422
10	0xbe4c5151	-0.19952895
11	0x3da8c58d	0.08240805
12	0xbe051354	-0.12995654
13	0xbfc5aec8	-1.5443964
14	0x3d4a8993	0.049447607
15	0xbd582194	-0.052766398

enc2.0.conv2.pointwise.bias f4 [8]
0	0xbea1bbdf	-0.31588647
1	0x3e19462d	0.14968176
2	0x3edd621a	0.43238908
3	0x3e3f1ee4	0.18664128
4	0xbe7dc057	-0.24780403
5	0x3c81f407	0.015863432
6	0x3f08ae0d	0.5339058
7	0x3f1ac7ab	0.6046092

enc2.0.proj.depthwise.weight f4 [8, 1, 3, 3]
0	0x3cbb0c93	0.022833144
1	0xbd92289a	-0.071366504
2	0xbe3c4b32	-0.1838806
3	0xbd386c2d	-0.04502504
4	0xbf0af31d	-0.5427721
5	0xbebfe8fd	-0.37482443
6	0xbe26cb07	-0.16288386
7	0xbea44231	-0.3208175
8	0xbe1566b8	-0.14589965
9	0xbcf6eaf4	-0.030141331
10	0x3e0289df	0.12747906
11	0xbe352210	-0.17688775
12	0x3e84eda0	0.25962543
13	0x3f03fabc	0.51554465
14	0x3ebe8717	0.3721244
15	0xbde34a81	-0.11098195
16	0x3dd486bf	0.10377263
17	0x3e07a44d	0.1324627
18	0x3f6ca802	0.9244386
19	0x3fa7b56b	1.3102239
20	0x3f50c3fa	0.81549037
21	0x3fa02a96	1.2512996
22	0x3fcee57f	1.6163787
23	0x3f862f6e	1.0483224
24	0x3f639fd9	0.88915783
25	0x3fa454dd	1.2838398
26	0x3f3b1f5a	0.73094714
27	0xbda47dc6	-0.08031802
28	0xbe1d77ae	-0.15377685
29	0xbea3b144	-0.3197118
30	0xbe8c5b33	-0.2741333
31	0xbe246c48	-0.16056931
32	0xbea2fd60	-0.31833935
33	0xbddd870b	-0.10816773
34	0x3d4fb7cb	0.050712388
35	0xbe635eaa	-0.2220408
36	0xbddb03bd	-0.106940724
37	0xbe6f9704	-0.23397452
38	0xbe2115ee	-0.15731022
39	0xbec9fb00	-0.3944931
40	0xbec11bca	-0.37716514
41	0xbdc0c7f9	-0.09413142
42	0xbe8ad855	-0.27118173
43	0xbe91bddc	-0.28465164
44	0xbe97e248	-0.29664826
45	0xbd591744	-0.053000703
46	0x3ccba742	0.024860028
47	0x3b4f1ac5	0.003160165
48	0x3c22a81c	0.009927776
49	0xbe214645	-0.15749462
50	0xbdc7e8b3	-0.09761181
51	0xbd5bb0f4	-0.053635553
52	0x3c8f85d6	0.017519873
53	0xbdcd16f8	-0.100141466
54	0x3d1a7f5c	0.037719116
55	0x3e9d9c61	0.3078337
56	0x3e6eda04	0.23325354
57	0x3e97d0de	0.2965154
58	0x3f0bf677	0.5467295
59	0x3f01e88d	0.5074547
60	0x3eb31f93	0.34985027
61	0x3eda7f35	0.42675176
62	0x3ea3307f	0.31872937
63	0x3ea4eb3c	0.3221072
64	0x3e821dbe	0.25413316
65	0x3ec26927	0.3797085
66	0x3ecf5edf	0.40502068
67	0x3eafdd5a	0.34348565
68	0x3f0fe169	0.56203324
69	0x3e83f67d	0.25773993
70	0x3df05f9b	0.11736985
71	0x3e86b59c	0.26310432

enc2.0.proj.pointwise.weight f4 [8, 8, 1, 1]
0	0x3d2393a3	0.03993572
1	0x3fa957ac	1.322988
2	0x3e288869	0.16458286
3	0x3f408cb0	0.7521467
4	0x3e70a203	0.23499303
5	0xbe82a7d5	-0.2551867
6	0xbe05aac8	-0.13053429
7	0xbe29a4bd	-0.16566749
8	0x3ed4be77	0.41551563
9	0x3e52c453	0.20582704
10	0x3ef2ea9e	0.47444624
11	0x3f1f1d8c	0.6215446
12	0xbde0c473	-0.1097497
13	0x3f14c34b	0.58110493
14	0x3f092029	0.535647
15	0x3ebfb0f3	0.3743969
16	0xbe558e00	-0.2085495
17	0xbd5f98f6	-0.054589234
18	0x3e4d7b86	0.20066652
19	0xbe4d0360	-0.20020819
20	0x3ba6b44b	0.0050874106
21	0x3e200cfc	0.15629953
22	0x3eddb9be	0.43305773
23	0xbf471513	-0.7776653
24	0xbe9a3042	-0.30114943
25	0x3de291a5	0.11062936
26	0x3f101283	0.56278247
27	0xbe8af933	-0.2714325
28	0xbd834638	-0.064098775
29	0x3e41fe50	0.18944669
30	0xbea4f2f3	-0.32216606
31	0x3dd3630d	0.10321627
32	0xbe2a8941	-0.1665392
33	0x3e3dbf41	0.18529989
34	0xbda77574	-0.08176699
35	0x3d9b5b83	0.07585814
36	0xbf03dc06	-0.51507604
37	0x3c2ef65e	0.010678856
38	0x3e03a2ad	0.12855025
39	0xbead7f70	-0.3388629
40	0xbe029aa9	-0.1275431
41	0x3da5bd21	0.08092714
42	0x3f153d00	0.58296204
43	0xbeeed553	-0.46647128
44	0x3ee07b33	0.43843994
45	0x3d635c94	0.05550821
46	0x3ddb7dc1	0.10717345
47	0x3e42c809	0.1902162
48	0xbea483dc	-0.3213185
49	0x3d9d96b8	0.07694763
50	0x3fa31d9a	1.2743409
51	0xbe3e6221	-0.1859212
52	0xbe7c6ebf	-0.24651621
53	0x3cf94132	0.030426595
54	0xbdf646b6	-0.12025206
55	0xbe9e48cc	-0.30914915
56	0x3e38840c	0.18019122
57	0xbdc50c31	-0.09621466
58	0x3e4a481c	0.1975407
59	0x3d574158	0.05255255
60	0x3e9cfb6f	0.3066058
61	0x3e9ae4e5	0.30252758
62	0x3e272ed2	0.16326454
63	0xbed4d656	-0.41569775

enc2.0.proj.pointwise.bias f4 [8]
0	0x3e2a6cd5	0.16643079
1	0x3e81b732	0.2533508
2	0x3e6200ce	0.2207062
3	0x3e6f9222	0.23395589
4	0xbcd97387	-0.026544346
5	0x3acc239c	0.0015574577
6	0xbe939d21	-0.28830817
7	0x3e8bbb15	0.2729117

enc2.1.conv1.depthwise.weight f4 [8, 1, 5, 5]
0	0xbf42dfad	-0.7612255
1	0xbd5edda8	-0.054410607
2	0x3e3962db	0.18104117
3	0xbddd90ea	-0.10818656
4	0x3f9fa83e	1.2473218
5	0xbd6d8feb	-0.05799858
6	0xbf1f0d4d	-0.6212967
7	0x3dbf2c76	0.09334652
8	0x3d923c2c	0.07140383
9	0x3f49eac8	0.7887387
10	0x3f572215	0.8403638
11	0x3ebb12af	0.36537692
12	0xbd54d8d9	-0.051964615
13	0xbe6cd822	-0.23129323
14	0x3f2602c6	0.6484798
15	0xbf51aaa6	-0.81901014
16	0xbf2d9899	-0.6781097
17	0x3bda0331	0.0066532125
18	0xbd89342f	-0.06699406
19	0xbf6a9079	-0.916267
20	0xbcb96340	-0.022630334
21	0x3d10b8ad	0.03533237
22	0x3eb5a5bf	0.35478017
23	0x3e1e538b	0.15461557
24	0xbd4d687c	-0.050148472
25	0x3c8b53f0	0.017007798
26	0x3e4c66c5	0.19961078
27	0x3de8956a	0.113566235
28	0x3d584fd5	0.05281051
29	0x3c170efd	0.009219882
30	0xbe52b96b	-0.20578544
31	0xbd8923f4	-0.06696311
32	0x3e01b65f	0.12667225
33	0x3e3cc1dd	0.18433328
34	0x3d1a9b9d	0.03774606
35	0xbe2ba815	-0.16763337
36	0x3cc89d50	0.024489075
37	0x3d3519e7	0.044214156
38	0x3d9ce41b	0.07660695
39	0x3d800f3f	0.06252908
40	0x3d849506	0.064737365
41	0xbddc352d	-0.1075233
42	0x3dbf2186	0.09332566
43	0x3e56f070	0.20990157
44	0x3e955f33	0.29174194
45	0xbdb37ade	-0.087636694
46	0xbdd894a8	-0.10575229
47	0xbbd4738d	-0.0064835013
48	0x3e1e0896	0.15432963
49	0x3e942d30	0.28940725
50	0x3daa304e	0.08309995
51	0x3e5b7e5e	0.21434924
52	0x3ecea7b6	0.40362328
53	0xbd0e566c	-0.034750387
54	0x3dee9296	0.11649053
55	0xbe43db12	-0.19126537
56	0xbe08b68e	-0.13350889
57	0xbd8f2d1c	-0.06991026
58	0x3d509cf4	0.050930932
59	0xbc7fdcb3	-0.015616584
60	0xbe0f1cc5	-0.13975818
61	0x3d22e580	0.03976965
62	0x3e4a132e	0.19733879
63	0x3dd1be20	0.102413416
64	0x3e268e7b	0.1626529
65	0xbd126cb4	-0.0357482
66	0x3df9e0bd	0.122010686
67	0xbda6491a	-0.08119412
68	0x3e4dc9c3	0.20096497
69	0x3ef4c6fe	0.4780807
70	0xbd8aae0b	-0.06771477
71	0xbcfa8da3	-0.030585116
72	0x3d799fa3	0.060943257
73	0x3dc9a2de	0.098455176
74	0x3e90bdba	0.2826975
75	0xbd1cd011	-0.038284365
76	0x3e2eedbb	0.17082874
77	0xbda6a6bf	-0.08137273
78	0xbea3690e	-0.31916088
79	0x3db89acd	0.09013901
80	0xbda91df9	-0.0825767
81	0x3e21fe99	0.15819778
82	0xbd481535	-0.04884835
83	0xbe6907bf	-0.22756861
84	0xbe184e5b	-0.1487364
85	0x3dfdd2cd	0.12393723
86	0x3e487e60	0.19579458
87	0x3ead5518	0.33853984
88	0x3db0cde0	0.086330175
89	0x3d94c00a	0.07263191
90	0x3e218578	0.1577357
91	0xbda605a0	-0.08106542
92	0x3e30187f	0.17196845
93	0x3e19e5eb	0.15029113
94	0xbdf8e433	-0.121529005
95	0xbb4c1642	-0.0031141196
96	0xbd959ff2	-0.07305898
97	0x3cb611a5	0.02222521
98	0xbdaae53c	-0.08344504
99	0xbe7a5b2d	-0.24448843
100	0xbe785ce7	-0.2425419
101	0xbd17e451	-0.037082974
102	0xbe9e477e	-0.3091392
103	0xbe640293	-0.22266607
104	0xbc17e3e7	-0.009270645
105	0xbe929a1d	-0.28633204
106	0xbe590373	-0.21192722
107	0xbe36d97e	-0.17856404
108	0xbdd7f395	-0.105445065
109	0x3dc35934	0.095384985
110	0xbdd615ae	-0.10453354
111	0xbe638885	-0.22220047
112	0xbe80893d	-0.25104704
113	0xbd173bd1	-0.03692228
114	0x3ced380e	0.028957393
115	0x3d3ef8f0	0.046624124
116	0xbe81bed4	-0.25340903
117	0xbeae303f	-0.34021184
118	0xbe45cf0d	-0.19317265
119	0x3d62aaed	0.05533879
120	0xbdd4cc8c	-0.10390577
121	0xbd9ed34f	-0.07755148
122	0xbe44848e	-0.1919119
123	0xbd61e32e	-0.055148296
124	0x3e818720	0.25298405
125	0x3c7b6c8d	0.015345705
126	0x3d475c1d	0.04867183
127	0xbaa84343	-0.0012837428
128	0x3eb06aca	0.34456474
129	0x3edae63b	0.42753777
130	0x39b33f0c	0.00034188514
131	0x3dcb1f54	0.09918085
132	0xbdc19998	-0.09453124
133	0xbe0a1769	-0.13485493
134	0x3e855133	0.26038513
135	0x3c1e0402	0.00964451
136	0xbdcf606c	-0.10125813
137	0xbe62fba0	-0.221663
138	0x3dcbcb0e	0.09950839
139	0x3e9d6253	0.30739078
140	0xbe0314df	-0.1280093
141	0xbe8b98d9	-0.2726505
142	0xbe5e7624	-0.21724755
143	0xbe4ca8ee	-0.19986317
144	0x3e206251	0.15662505
145	0x3e373d76	0.17894539
146	0xbd22868b	-0.03967909
147	0xbdf9ce93	-0.12197604
148	0x3c3d52c9	0.011555382
149	0xbeabde36	-0.3356797
150	0x3e924649	0.28569248
151	0x3e309af2	0.17246607
152	0x3de6970c	0.11259279
153	0x3e008cf4	0.1255377
154	0x3dd13ff0	0.10217273
155	0x3d2ef79a	0.0427166
156	0x3e04b17d	0.12958331
157	0x3e039b9a	0.12852326
158	0x3ea73f26	0.32665366
159	0xbce2fc97	-0.027708335
160	0x3e6fc64e	0.23415491
161	0x3e96fa60	0.29487896
162	0x3d06414b	0.032777112
163	0x3e11f997	0.14255367
164	0x3e855f7c	0.2604941
165	0x3e015d4d	0.12633248
166	0x3d951a41	0.07280398
167	0x3e91b99c	0.2846192
168	0x3e3ccc4f	0.18437313
169	0x3dd9ac58	0.10628575
170	0x3e70a3cb	0.23499982
171	0x3be5f2a8	0.0070174523
172	0xbd4bc4fa	-0.0497484
173	0x3e47bae8	0.19504893
174	0x3e8e74dc	0.27823532
175	0x3e257258	0.161569
176	0x3e1eed66	0.15520248
177	0x3def65f8	0.11689371
178	0xbe094f43	-0.13409142
179	0xbdc20e0f	-0.09475338
180	0x3d22b27b	0.039720993
181	0x3dd62eb5	0.104581274
182	0x3e3fb3ab	0.18720882
183	0x3d3e0c84	0.046398655
184	0x3b703c97	0.0036657208
185	0xbc41a248	-0.011818476
186	0x3dccd38b	0.10001286
187	0x3e8daf77	0.27672932
188	0x3de835d6	0.113383934
189	0xbddda235	-0.10821954
190	0xbdd0328b	-0.1016589
191	0x3e1d892e	0.15384361
192	0x3e89cd5a	0.26914483
193	0x3ec0bfeb	0.37646422
194	0x3e24d573	0.1609705
195	0x3e82f252	0.255755
196	0x3e44fb41	0.19236471
197	0x3e402a41	0.18766119
198	0x3e4c9e70	0.19982314
199	0x3e73a07d	0.2379169

enc2.1.conv1.pointwise.weight f4 [2, 8, 1, 1]
0	0xbe09b992	-0.13449696
1	0xbbdbd531	-0.006708764
2	0xbdafe9eb	-0.08589538
3	0xbe05636d	-0.13026209
4	0xbe4a086c	-0.19729775
5	0xbe2e5705	-0.17025383
6	0x3e7f90e7	0.2495762
7	0xbe06d520	-0.13167238
8	0xbf92347d	-1.1422268
9	0xbea216f8	-0.3165815
10	0x3ed49d3e	0.41526216
11	0x3e4b4914	0.19852096
12	0xbe96eee1	-0.29479125
13	0xbee920f9	-0.4553297
14	0xbe15d0dc	-0.14630455
15	0x3e8814da	0.26578408

enc2.1.conv1.pointwise.bias f4 [2]
0	0x3e247da7	0.16063558
1	0x3e774341	0.24146749

enc2.1.conv2.depthwise.weight f4 [2, 1, 5, 5]
0	0xbde34541	-0.110971935
1	0x3df4b388	0.11948305
2	0xbe0dc915	-0.13846238
3	0x3dc385ff	0.09547042
4	0xbe179301	-0.14802171
5	0xbd9ddd27	-0.07708197
6	0xbd7b8dba	-0.061414458
7	0xbdb823d6	-0.0899121
8	0x3d97c569	0.074107
9	0xbd7ba946	-0.06144073
10	0xbe30ea56	-0.17276892
11	0xbdbe1c69	-0.092827626
12	0xbc028269	-0.0079656625
13	0x3e0da4a9	0.13832344
14	0xbd9fd1ff	-0.078037255
15	0xbe1c4a00	-0.15262604
16	0x3e2ca75d	0.16860719
17	0x3d725e5e	0.059172027
18	0xbd444a4a	-0.04792241
19	0xbd87b243	-0.066257976
20	0xbe1bcf89	-0.15215887
21	0xbe48513e	-0.19562241
22	0xbe5dd89d	-0.21664663
23	0x3e43b63d	0.19112487
24	0xbe04534a	-0.12922397
25	0xbe6431b1	-0.22284581
26	0x3e3aa459	0.18226756
27	0x3e6dcd1d	0.23222776
28	0x3e1c6e10	0.1527636
29	0x3be7d708	0.0070751943
30	0xbe0ea0c7	-0.13928519
31	0x3cc0db2d	0.023542011
32	0x3d512d89	0.051068816
33	0x3e0c5f5d	0.13708253
34	0x3d996fa8	0.07492
35	0xbd0807e2	-0.033210643
36	0xbd904346	-0.070440814
37	0x3e54ba19	0.20774116
38	0x3e664cc5	0.22490223
39	0xbc0325ac	-0.008004587
40	0xbeb01f68	-0.3439896
41	0xbe2143d6	-0.15748534
42	0xbd7e5e8a	-0.06210188
43	0xbc5aed14	-0.013362188
44	0x3e64fed2	0.22362831
45	0xbe1d1bdf	-0.15342663
46	0xbeabecdf	-0.33579156
47	0x3d2b2fd2	0.041793652
48	0x3e1c91af	0.15289949
49	0x3d4e6b76	0.05039545

enc2.1.conv2.pointwise.weight f4 [8, 2, 1, 1]
0	0xbed7aaf9	-0.4212263
1	0x3c08593a	0.0083220545
2	0xbe72152f	-0.23640893
3	0xbdc862e7	-0.09784489
4	0xbf07f7e4	-0.53112626
5	0xbe4836dd	-0.19552179
6	0xbe6b4152	-0.22974136
7	0x3db32ca4	0.08748749
8	0x3ec080bc	0.37598217
9	0x3e2c49fa	0.16825095
10	0xbf63ca65	-0.88980705
11	0xbd8faad8	-0.07015008
12	0x3ec4b41d	0.38418666
13	0xbf4743de	-0.7783793
14	0x3dfa2fa8	0.12216121
15	0x3d1024c0	0.035191298

enc2.1.conv2.pointwise.bias f4 [8]
0	0x3f32d892	0.6986171
1	0xbe9922d7	-0.29909393
2	0xbd9cd983	-0.076586746
3	0xbdc24020	-0.09484887
4	0xbaf8728d	-0.0018955037
5	0xbec3d32f	-0.38247058
6	0x3eba9291	0.36439946
7	0x3e1cd9b0	0.15317416

enc3.0.conv1.depthwise.weight f4 [8, 1, 5, 5]
0	0xbd4ce225	-0.050020356
1	0xbe3ed841	-0.18637182
2	0xbe6efe0d	-0.233391
3	0xbe8d1550	-0.27555323
4	0x3c84f9b7	0.016232355
5	0xbd21f8b7	-0.039543834
6	0xbdc4e2de	-0.09613584
7	0xbe00073b	-0.12502758
8	0xbe069e14	-0.1314624
9	0xbe1fcd9a	-0.15605775
10	0xbc5f58a0	-0.01363197
11	0xbe3630dc	-0.17792076
12	0xbdc132f9	-0.094335504
13	0x3ba75e88	0.0051077046
14	0xbd4471cf	-0.0479601
15	0xbe3649ec	-0.17801636
16	0xbe2ef7a0	-0.17086649
17	0xbe53837f	-0.2065563
18	0xbcac9c65	-0.021070668
19	0x3d384128	0.044984013
20	0x3f52f1dd	0.82400304
21	0x3f93e6df	1.1554831
22	0xbd1882a8	-0.03723398
23	0xbd506255	-0.050875027
24	0x3e98bb98	0.29830623
25	0x3c6b17d9	0.014348947
26	0x3e2b2123	0.1671186
27	0xbebc26f1	-0.3674846
28	0xbe5df84f	-0.21676753
29	0xbe2ca1a0	-0.1685853
30	0xbbbc41c1	-0.005745143
31	0x3e2008a3	0.15628295
32	0xbebaeda2	-0.36509424
33	0xbec93fee	-0.39306587
34	0xbe3a893a	-0.1821641
35	0xbe34bdc6	-0.17650518
36	0xbde454bc	-0.11148974
37	0xbee11eab	-0.4396871
38	0xbed6d7ce	-0.4196152
39	0xbe0a1edd	-0.13488336
40	0xbefb094a	-0.49030524
41	0xbe3e7821	-0.18600513
42	0xbeb14dc9	-0.34629658
43	0xbdf3d6a8	-0.11906177
44	0xbe1b74bc	-0.1518125
45	0x3efd499a	0.49470216
46	0x3ee8795f	0.454051
47	0xbe708dd9	-0.2349161
48	0xbe64776d	-0.22311182
49	0xbe9bcece	-0.30431217
50	0x3ee52310	0.44753313
51	0x3e82bd4c	0.25535047
52	0x3e21a142	0.15784171
53	0xbe34caa6	-0.17655429
54	0x3e90d70e	0.28289074
55	0x3e912f0a	0.283562
56	0x3da4f9cf	0.0805546
57	0xbcf1dce5	-0.029524276
58	0x3d233106	0.039841674
59	0x3e835d37	0.25657055
60	0x3e12fd1a	0.14354363
61	0xbcb28124	-0.021790095
62	0x3d0c2ef5	0.03422447
63	0xbe8906ac	-0.26762903
64	0x3e18852d	0.14894553
65	0x3e09f44b	0.13472097
66	0x3eb3af27	0.35094568
67	0xbe4529f5	-0.19254287
68	0xbde491ed	-0.11160646
69	0x3ea48162	0.3212996
70	0x3ef21993	0.47285137
71	0x3ece01ce	0.40235752
72	0xbde3ff56	-0.11132686
73	0x3e097a4b	0.13425557
74	0x3e98b28d	0.29823723
75	0x3c668af4	0.014071215
76	0xbe40f245	-0.18842418
77	0xbe1481c2	-0.14502624
78	0x3b954e9a	0.004556489
79	0x3dc959b4	0.09831563
80	0xbe0cd53a	-0.13753214
81	0xbe971e2f	-0.29515216
82	0xbc7e83f7	-0.015534393
83	0xbe40abd0	-0.18815541
84	0x3de11a55	0.109913506
85	0xbe306509	-0.17226042
86	0xbda14806	-0.078750655
87	0xbebec9eb	-0.37263426
88	0xbe10420c	-0.14087695
89	0xbe164ca0	-0.14677668
90	0xbe4686c3	-0.19387345
91	0xbdb6ee8f	-0.0893222
92	0xbeb3146d	-0.3497652
93	0xbdbc5892	-0.09196581
94	0xbe0e2fdf	-0.13885449
95	0xbe82d2e8	-0.25551534
96	0xbe301369	-0.17194904
97	0xbe87ffc8	-0.26562333
98	0xbe42e094	-0.19030982
99	0x3cce2f7a	0.025169123
100	0xbe29c777	-0.16579996
101	0xbf0e6f53	-0.5563862
102	0xbf0abbba	-0.541927
103	0xbe77b2b0	-0.24189258
104	0xbefff8a9	-0.499944
105	0x3d0010fa	0.03126619
106	0xbf22400f	-0.63378996
107	0xbf0d3201	-0.55154425
108	0xbe8810b0	-0.26575232
109	0xbf2a5f77	-0.6655192
110	0xbcb27330	-0.021783441
111	0xbec34ad4	-0.38143027
112	0xbe9c83b5	-0.30569234
113	0xbda3f8f3	-0.08006468
114	0xbf1ce11c	-0.6128099
115	0xbd06b70b	-0.032889407
116	0xbeadf10f	-0.33972976
117	0xbdbf3012	-0.093353406
118	0xbe68cd4f	-0.22734569
119	0xbef7838e	-0.48342556
120	0x3ed3b0d6	0.41345853
121	0x3e19a5ff	0.15004729
122	0x3e8a2402	0.26980597
123	0x3e91ce98	0.2847793
124	0xbde5b669	-0.112164326
125	0xbce11523	-0.0274759
126	0x3e449c95	0.19200356
127	0xbcc59468	-0.024118617
128	0x3d69d7ac	0.057090446
129	0x3e111a7f	0.14170264
130	0x3e4ff996	0.20310053
131	0x3e9108a5	0.28326908
132	0x3e204aea	0.15653577
133	0x3d9d8c1c	0.07692739
134	0x3e446ba4	0.19181687
135	0xbe8acde5	-0.2711021
136	0x3e4893e5	0.19587667
137	0xbd11003c	-0.035400614
138	0xbd56de0a	-0.052457847
139	0x3e7899a9	0.24277367
140	0xbf1067b8	-0.5640826
141	0xbeefbcd4	-0.46823752
142	0xbea19fb0	-0.31567144
143	0xbe36beb6	-0.17846188
144	0xbe883535	-0.26603094
145	0x3d1d1bb3	0.038356494
146	0x3e5dfec8	0.21679223
147	0xbddd9e23	-0.10821178
148	0xbe1bad42	-0.15202811
149	0x3e4774f7	0.19478212
150	0x3b935a87	0.0044968757
151	0x3e1ce12f	0.15320276
152	0xbde93a69	-0.11388094
153	0x3c1176f6	0.00887846
154	0x3beb3211	0.0071775992
155	0x3c20706a	0.009792427
156	0x3e603ceb	0.21898238
157	0x3e055d7b	0.13023941
158	0xbdb1aade	-0.086751685
159	0x3da7a52c	0.08185801
160	0xbd056e02	-0.032575615
161	0xbe1f978f	-0.15585159
162	0x3c023a2b	0.007948439
163	0xbe7a418f	-0.24439071
164	0xbe0e387e	-0.13888738
165	0x3c9af699	0.018916415
166	0xbd56c143	-0.052430402
167	0x3bf60d32	0.007508897
168	0xbe112372	-0.14173678
169	0xbd0710f5	-0.032975156
170	0xbe5e15eb	-0.21688049
171	0xbee23268	-0.44179082
172	0xbe903657	-0.28166458
173	0xbf0b6fcd	-0.5446747
174	0xbe1bac33	-0.15202408
175	0x3e13947c	0.14412111
176	0x3e7142dd	0.23560663
177	0x3eb104f1	0.34574082
178	0xbdb7a3d1	-0.089667924
179	0xba5f5cea	-0.000852062
180	0x3e011166	0.12604293
181	0x3c391464	0.011296365
182	0x3e862dbc	0.26206768
183	0xbe146719	-0.14492454
184	0xbde15086	-0.11001687
185	0xbda70d53	-0.08156838
186	0xbe61fe72	-0.2206972
187	0xbe28a5e3	-0.16469531
188	0xbcddc65a	-0.02707212
189	0xbe465da0	-0.19371653
190	0xbea79146	-0.32728022
191	0xbe697258	-0.22797525
192	0x3e1ba738	0.15200508
193	0xbe1bd903	-0.15219502
194	0xbeaea7bc	-0.34112346
195	0xbe6d0c1c	-0.2314915
196	0xbe780cf0	-0.24223685
197	0xbe1ac184	-0.15112883
198	0x3d1c304e	0.038132004
199	0xbec7c3cb	-0.39016566

enc3.0.conv1.pointwise.weight f4 [2, 8, 1, 1]
0	0xbe8c59ba	-0.27412206
1	0xbe34621f	-0.17615555
2	0xbe78095e	-0.24222323
3	0x3e43eebe	0.19134042
4	0x3eb263bd	0.3484172
5	0xbf5814de	-0.8440684
6	0x3e3a8810	0.18215966
7	0x3d4abef0	0.0494985
8	0x3b958373	0.004562789
9	0x3e48d9df	0.19614361
10	0xbef3513e	-0.4752292
11	0xbebbf019	-0.36706617
12	0xbf4aab67	-0.7916779
13	0xbd7bde16	-0.061491095
14	0xbea970e6	-0.33093947
15	0xbe311d32	-0.17296293

enc3.0.conv1.pointwise.bias f4 [2]
0	0x3cff1eda	0.03114264
1	0x3e370398	0.17872465

enc3.0.conv2.depthwise.weight f4 [2, 1, 5, 5]
0	0x3db1099d	0.08644412
1	0x3bc1c904	0.0059138555
2	0x3ee472d8	0.4461887
3	0xbd14a3dc	-0.03628908
4	0x3d09572e	0.033530407
5	0xbd08e6d5	-0.033423264
6	0x3d3f6491	0.046726767
7	0x3ebc554c	0.36783826
8	0xbf3309d1	-0.69936854
9	0xbed5f8fb	-0.4179152
10	0x3f083ec9	0.532208
11	0xbe44b04a	-0.19207874
12	0x3d3d2352	0.046176262
13	0x3c17c7e9	0.009263971
14	0x3f19abc3	0.6002771
15	0x3deee7d5	0.11665312
16	0x3eb94ffc	0.36193836
17	0x3dd7e28b	0.105412565
18	0xbea79dea	-0.32737666
19	0xbdd58e7b	-0.104275666
20	0x3d2582dc	0.040408
21	0x3d8c6ae4	0.06856325
22	0xbd93a12a	-0.07208474
23	0xbd2f87a0	-0.04285395
24	0x3d9c8b31	0.07643736
25	0x3d3bc17d	0.04583882
26	0x3dcc71e2	0.09982659
27	0x3e33aca7	0.1754633
28	0x3d04c102	0.03241063
29	0xbdd4f804	-0.10398868
30	0x3e055974	0.13022405
31	0x3e3875f9	0.18013753
32	0x3e0af11e	0.13568541
33	0xbe536052	-0.20642212
34	0x3dfb2cb5	0.122643866
35	0x3f13f3a4	0.5779364
36	0x3ead6abe	0.338705
37	0x3eeb0f5e	0.45910162
38	0x3ea945e1	0.33061126
39	0x3f145255	0.5793813
40	0x3e8526f3	0.26006278
41	0x3ddd483d	0.10804794
42	0x3e0134e7	0.12617837
43	0x3e46f30d	0.19428654
44	0x3d49e8e3	0.049294364
45	0x3e9279e0	0.28608608
46	0x3ed85d43	0.42258653
47	0x3f166526	0.5874809
48	0xbc3c1314	-0.011479158
49	0x3d8bf51b	0.068338595

enc3.0.conv2.pointwise.weight f4 [8, 2, 1, 1]
0	0xbf34a0d1	-0.70557886
1	0x3f5a96c9	0.8538633
2	0x3e5334e0	0.20625639
3	0x3d527d6b	0.05138914
4	0x3f26f8de	0.6522349
5	0x3e2d6ee6	0.16936836
6	0x3da13f89	0.078734465
7	0x3e2173d3	0.1576684
8	0x3e0ac089	0.13550009
9	0x3dec2eb7	0.11532348
10	0x3f51a501	0.818924
11	0xbc099427	-0.008397139
12	0xbc10fc39	-0.008849197
13	0xba107375	-0.00055103685
14	0xbe5c8609	-0.21535505
15	0xbea73fa3	-0.32665738

enc3.0.conv2.pointwise.bias f4 [8]
0	0x3f1acfcb	0.60473317
1	0x3e803684	0.25041592
2	0x3ec212f4	0.37905085
3	0x3f3c628e	0.7358788
4	0xbeab600a	-0.3347171
5	0xbc9defbd	-0.019279355
6	0x3ee34ae7	0.44393083
7	0xbedd724f	-0.43251273

enc3.0.proj.depthwise.weight f4 [8, 1, 3, 3]
0	0x3e1024a8	0.14076483
1	0xbe8ec6fb	-0.27886185
2	0x3e3d2a3b	0.18473141
3	0x3e2be26b	0.1678559
4	0x3e52c2f8	0.20582187
5	0x3eb8a975	0.36066785
6	0xbe0328eb	-0.12808578
7	0x3ecedf7b	0.40404877
8	0x3d9beb19	0.07613201
9	0x3da14a9e	0.0787556
10	0x3dec8f42	0.11550762
11	0x3de50c86	0.11184029
12	0x3e6fbb94	0.23411399
13	0x3e9a9bfe	0.30197138
14	0x3e5463e4	0.2074123
15	0x3e350d9a	0.1768097
16	0x3e7f436d	0.24928065
17	0x3e032aa5	0.12809236
18	0x3e57dd4d	0.21080513
19	0x3e6ac921	0.22928287
20	0xbc0dd02f	-0.008655592
21	0x3dd96e0c	0.10616693
22	0xbc218407	-0.009858138
23	0x3d5bbaa1	0.05364478
24	0xbe0c6df5	-0.1371382
25	0xbe371f37	-0.17883001
26	0xbe07be90	-0.13256288
27	0xbe1aa676	-0.15102562
28	0x3e425ff8	0.18981922
29	0x3ec1c79e	0.37847608
30	0x3e5172ba	0.20453921
31	0x3e5ade63	0.21373896
32	0x3eb4e58d	0.35331383
33	0x3d5e32ff	0.054247852
34	0x3e3f4722	0.18679479
35	0xbcab844b	-0.020937106
36	0xbdf43e7b	-0.1192598
37	0x3dceab9d	0.100913264
38	0x3e6c8b39	0.23099984
39	0x3e244d1a	0.16045037
40	0x3eebc600	0.460495
41	0x3ed36651	0.41289
42	0x3e69f65b	0.22847883
43	0x3ecabbcf	0.39596412
44	0x3e8f72bf	0.28017232
45	0xbd439d9c	-0.04775773
46	0x3e1d1444	0.15339762
47	0xbe780cc0	-0.24223614
48	0xbd5640e6	-0.052307986
49	0xbe18d91d	-0.14926572
50	0xbd35a13c	-0.04434322
51	0xbf0fdf22	-0.5619985
52	0xbefa63cc	-0.48904264
53	0x3e037600	0.12837982
54	0xbd15b894	-0.03655298
55	0xbe8bd3e7	-0.27310106
56	0xbe754ec1	-0.23955823
57	0x3e55db13	0.20884351
58	0xbd26ec68	-0.0407528
59	0xbe770f33	-0.24126892
60	0x3dfdc502	0.12391092
61	0x3e18a7a0	0.14907694
62	0xbd2651e4	-0.04060544
63	0xbdc8946e	-0.09793936
64	0xbddee6c2	-0.10883857
65	0xbe12ad76	-0.14323983
66	0xbe601ee1	-0.2188678
67	0xbedb3513	-0.4281393
68	0xbe46d56d	-0.19417353
69	0xbe848ad4	-0.25887167
70	0xbec43471	-0.3832126
71	0xbe63d40f	-0.22248863

enc3.0.proj.pointwise.weight f4 [8, 8, 1, 1]
0	0x3ea0f008	0.3143313
1	0x3d6b739b	0.057483297
2	0x3c9ff5e4	0.01952643
3	0x3dfce2c8	0.123479426
4	0x3c3b074f	0.011415317
5	0xbede5846	-0.43426722
6	0xbe10925c	-0.14118332
7	0x3eaa787e	0.33295053
8	0x3dab0e5b	0.083523475
9	0x3f01fa52	0.50772583
10	0xbf0dc30f	-0.5537576
11	0xbdfd4af0	-0.12367809
12	0x3f10da95	0.5658353
13	0xbe0e1f3b	-0.13879101
14	0xbdb14b09	-0.0865689
15	0x3cd7ea57	0.02635686
16	0x3d34824e	0.04406958
17	0x3def6b50	0.1169039
18	0x3d848356	0.06470363
19	0xbea5eaee	-0.324058
20	0x3e62241d	0.22084089
21	0x3e32cc18	0.17460668
22	0x3e8de7cf	0.27715918
23	0xbec97557	-0.39347336
24	0x3e5130a2	0.20428708
25	0xbf1750ca	-0.5910765
26	0xbdadc31a	-0.08484478
27	0x3e07ca6d	0.13260813
28	0x3f4a3978	0.7899394
29	0xbe38d4f6	-0.18049988
30	0x3e13a4e5	0.14418371
31	0x3ddc1a14	0.107471615
32	0x3e1ecdc4	0.15508181
33	0xbe061ff5	-0.13098128
34	0x3e7b3690	0.24532533
35	0xbc2b9f62	-0.010475012
36	0x3e84aedb	0.25914654
37	0x3e60b916	0.21945605
38	0xbd16f755	-0.036856968
39	0x3eb6c088	0.35693765
40	0x3d89ab6e	0.06722151
41	0xbd81c7a1	-0.06336904
42	0x3e08cee8	0.13360178
43	0x3d684fc0	0.05671668
44	0xbd2198ec	-0.03945248
45	0x3e6e7d5c	0.23290008
46	0x3e89b29b	0.26894078
47	0xbe893b13	-0.26802883
48	0x3f100dfe	0.5627135
49	0x3e9fa927	0.3118374
50	0xbe9ce430	-0.30642843
51	0x3d8e2fba	0.06942697
52	0x3e52d374	0.20588475
53	0x3cec54b4	0.028848983
54	0xbe97fda5	-0.29685703
55	0x3f72f7be	0.94909275
56	0xbe395061	-0.18097068
57	0xbcd3d5f6	-0.02585886
58	0xbe994fb1	-0.29943612
59	0xbe7566db	-0.23965017
60	0xbe499882	-0.19687083
61	0x3dba45a0	0.09095311
62	0x3d8f6f1b	0.070036136
63	0xbe0c69fe	-0.13712308

enc3.0.proj.pointwise.bias f4 [8]
0	0x3e3a4940	0.18192005
1	0x3e8ba4df	0.27274224
2	0xbe114327	-0.14185773
3	0x3e77f5c8	0.24214852
4	0x3e6c20c4	0.23059374
5	0xbeb0ae78	-0.3450811
6	0x3e3eb52a	0.18623796
7	0xbe5d3c6f	-0.21605085

enc3.1.conv1.depthwise.weight f4 [8, 1, 5, 5]
0	0x3e320496	0.17384562
1	0xbd526f6c	-0.05137579
2	0xbc23e694	-0.010003705
3	0x3e901d5f	0.28147408
4	0x3e647db9	0.22313584
5	0xbddd42be	-0.10803746
6	0xbe897784	-0.26848996
7	0xbd9dae93	-0.07699313
8	0x3d986eb9	0.07442994
9	0x3e0c7d4d	0.13719673
10	0x3d1eb175	0.038743455
11	0xbe51e805	-0.20498665
12	0xbdf923c5	-0.121650256
13	0x3e2d4eb5	0.16924556
14	0xbd45fd3f	-0.048337217
15	0x3eb0bea2	0.3452044
16	0x3e54b358	0.20771539
17	0x3e45f5c7	0.19332038
18	0x3da5f0b6	0.081025526
19	0x3cbbd532	0.022928808
20	0xbda30bd5	-0.07961241
21	0xbda7a797	-0.08186262
22	0xbba0d70d	-0.0049084486
23	0x3c663786	0.014051324
24	0xbcee4ff0	-0.029090852
25	0x3de01977	0.10942357
26	0xbe2c31e9	-0.16815914
27	0x3d8dcff6	0.06924431
28	0x3dad08e5	0.08448962
29	0xbe9f12e2	-0.31069094
30	0x3e458cde	0.19292018
31	0x3e88c384	0.26711667
32	0xbe30b442	-0.17256263
33	0x3db60f0e	0.0888959
34	0xbe91d2b1	-0.28481057
35	0x3e88a923	0.2669154
36	0x3e4c094f	0.19925426
37	0x3e457047	0.19281112
38	0x3e8df7ba	0.27728063
39	0xbe965647	-0.293627
40	0xbc6728c7	-0.014108843
41	0x3e31c50b	0.17360322
42	0x3d897333	0.06711426
43	0xbdad7b72	-0.08470811
44	0xbeed357d	-0.4632987
45	0x3dd25304	0.1026974
46	0x3d67948d	0.056538153
47	0xbe35b212	-0.1774371
48	0x3e1699ac	0.14707059
49	0xbea868cf	-0.32892463
50	0x3d6ac2c5	0.057314653
51	0xbc0e5d0b	-0.008689175
52	0x3d8bff2f	0.06835782
53	0xbdb43471	-0.08799065
54	0xbe9efc75	-0.31051984
55	0x3df52e4f	0.11971723
56	0x3ebcfeb9	0.36913088
57	0x3e905c63	0.28195485
58	0xbd547ef1	-0.051878873
59	0xbd91202b	-0.07086214
60	0x3dcf1f10	0.101133466
61	0x3bc06383	0.0058712377
62	0x3e20f196	0.15717158
63	0x3e9bffd7	0.30468628
64	0x3e58fae2	0.21189454
65	0xbe0ba3a9	-0.1363665
66	0xbe6949c0	-0.2278204
67	0xbda33446	-0.07968955
68	0xbe31b047	-0.173524
69	0xbbcfc94b	-0.0063411347
70	0xbd70d75c	-0.058799133
71	0xbd1187c9	-0.035529885
72	0xbdbb0e5d	-0.09133599
73	0x3e4015fe	0.1875839
74	0x3db40517	0.08790033
75	0x3e1c450e	0.15260717
76	0xbdc5088f	-0.09620773
77	0xbded0571	-0.115733035
78	0xbe09f253	-0.13471346
79	0x3e433f89	0.19067205
80	0x3b6a0ad9	0.0035712032
81	0x3ce26dbc	0.027640216
82	0xbe019c05	-0.12657173
83	0xbe9be737	-0.3044984
84	0x3e8622f0	0.2619853
85	0x3dcba694	0.09943882
86	0x3f3b34d9	0.73127514
87	0xbdc92ef0	-0.09823406
88	0xbf1c66b6	-0.61094224
89	0xbe1e35a5	-0.15450151
90	0x3db8b6c2	0.09019233
91	0x3e9072a9	0.2821248
92	0xbbb34960	-0.0054713935
93	0xbdd5463a	-0.10413785
94	0x3c72561a	0.014791036
95	0xbe844b58	-0.25838733
96	0xbddde0f4	-0.10833922
97	0x3d9f0f64	0.077666074
98	0x3e9d2c54	0.30697882
99	0xbdd5a189	-0.10431201
100	0x3dae12b6	0.084996626
101	0x3da0dc55	0.07854525
102	0xbd3ed144	-0.04658629
103	0x3dd59d35	0.104303755
104	0x3dd4f54b	0.103983484
105	0x3c8ac3cd	0.016939068
106	0x3da7c51f	0.08191895
107	0x3e83fcd6	0.25778836
108	0x3d73fab3	0.059565257
109	0x3ceaad7d	0.028647179
110	0xbd28d695	-0.041220266
111	0xbba41d16	-0.00500835
112	0xbe148ea7	-0.14507543
113	0xbe8100a0	-0.2519579
114	0xbeac8103	-0.33692178
115	0xbcb74843	-0.022373324
116	0x3e0f3939	0.13986672
117	0x3e2959f8	0.16538227
118	0x3d709150	0.05873233
119	0x3e18d280	0.1492405
120	0x3d987ac2	0.07445289
121	0xbd89d2e0	-0.06729674
122	0x3e0b6622	0.1361318
123	0x3e605069	0.21905674
124	0x3e29d153	0.16583757
125	0xbce4b644	-0.027918942
126	0xbbe80f32	-0.0070818895
127	0xbf2c5317	-0.67314285
128	0xbee4f673	-0.44719276
129	0xbf82c2aa	-1.0215657
130	0xbd63d2b3	-0.05562086
131	0xbe40a807	-0.18814097
132	0xbf20974e	-0.6273087
133	0xbf3c1dbd	-0.73482877
134	0xbf3da7e8	-0.7408433
135	0x3dec7f22	0.11547686
136	0xbf099281	-0.5373917
137	0xbf0c8b5d	-0.5490015
138	0xbd9000e3	-0.07031419
139	0x3d0f32f0	0.034960687
140	0xbd81eefc	-0.06344411
141	0xbd9322ad	-0.07184348
142	0xbd74ce61	-0.05976713
143	0x3f023032	0.5085479
144	0xbe9d4316	-0.30715245
145	0xbda48eac	-0.08035025
146	0x3dbb7ba9	0.09154446
147	0xbefe0cbb	-0.49619088
148	0x3eb9c05b	0.36279568
149	0xbe583406	-0.21113595
150	0xbe67753a	-0.22603312
151	0xbdf5f777	-0.12010091
152	0xbbb35507	-0.0054727825
153	0x3ec10f8c	0.37707174
154	0x3c1c1d79	0.009528511
155	0xbda61c93	-0.08110919
156	0xbef9a22d	-0.48756543
157	0xbd93dd81	-0.07219983
158	0x3f0a238e	0.539605
159	0x3e5fca47	0.21854506
160	0xbef985dd	-0.48734942
161	0xbf077c1d	-0.52923757
162	0xbdcc6eca	-0.09982069
163	0x3ef6e4a7	0.48221323
164	0x3dfa0e44	0.12209752
165	0xbe218650	-0.15773892
166	0xbdf354e6	-0.118814275
167	0x3dcb4b4f	0.09926473
168	0x3eaec475	0.3413426
169	0x3dc7d248	0.09756905
170	0xbe8164dd	-0.25272265
171	0xbd4e3096	-0.050339304
172	0xbd6d86c4	-0.05798985
173	0x3e422599	0.18959655
174	0x3e6983ca	0.2280418
175	0xbd355767	-0.044272806
176	0xbe1a3220	-0.15058184
177	0xbe014d37	-0.12627111
178	0x3e44285b	0.1915602
179	0xbd07aa13	-0.03312118
180	0xbe33b7c2	-0.17550567
181	0x3ca17dcd	0.019713307
182	0x3d9085c3	0.07056763
183	0xbe350de0	-0.17681074
184	0x3e40366a	0.18770757
185	0xbe3abf0f	-0.18236946
186	0xbdda68e7	-0.1066454
187	0xbe13ecb7	-0.14445768
188	0x3dec6a10	0.11543667
189	0x3d8577f7	0.06517022
190	0xbe3ef11f	-0.18646668
191	0x3dd6392d	0.10460124
192	0x3e19aa8d	0.15006466
193	0x3dab636d	0.08368573
194	0x3d979613	0.07401671
195	0xbded5297	-0.115880184
196	0x3d3e2307	0.046420123
197	0xbc93f7cd	-0.018062497
198	0x3d8ee6ad	0.06977592
199	0x3af2fb33	0.0018537998

enc3.1.conv1.pointwise.weight f4 [2, 8, 1, 1]
0	0x3d5f1c27	0.054470208
1	0x3eb89540	0.3605137
2	0x3d630a3c	0.055429682
3	0xbf1470a6	-0.5798439
4	0xbecb43ce	-0.39700168
5	0xbf387375	-0.72051173
6	0x3f914579	1.1349326
7	0x3dfe9a5d	0.12431786
8	0xbec3cb65	-0.38241115
9	0x3d30cfc0	0.043166876
10	0x3ebcd4c0	0.36881065
11	0x3ea2f093	0.3182417
12	0x3d090000	0.033447266
13	0xbf512806	-0.81701696
14	0x3eb3d544	0.35123646
15	0x3e411b0a	0.18857971

enc3.1.conv1.pointwise.bias f4 [2]
0	0x3e3ce13c	0.18445295
1	0x3df638be	0.120225415

enc3.1.conv2.depthwise.weight f4 [2, 1, 5, 5]
0	0xbdd3dce6	-0.103448674
1	0x3ce23c14	0.027616538
2	0xbdb00704	-0.08595088
3	0xbd98ac04	-0.074546844
4	0xbd62a5b2	-0.0553338
5	0x3e397042	0.18109229
6	0xbdad9cec	-0.08477196
7	0x3ccdb859	0.025112318
8	0x3e026945	0.1273547
9	0x3dfdf2c9	0.12399823
10	0xbcbcb7cc	-0.02303686
11	0x3c13e9ea	0.009027937
12	0x3f047bd0	0.5175142
13	0x3ee6199c	0.44941413
14	0x3d8d49dc	0.06898853
15	0xbd38bcbf	-0.045101877
16	0x3d620cf1	0.055188123
17	0x3e38aae5	0.18033941
18	0xbdd09eab	-0.101865135
19	0xbdaed0db	-0.0853593
20	0x3cf0950c	0.029367946
21	0xbe25cf8d	-0.16192456
22	0xbdb3677c	-0.087599725
23	0x3c86a4b7	0.016435964
24	0x3cbf0e87	0.023322357
25	0xbc120974	-0.008913387
26	0x3d2e97c9	0.042625222
27	0x3d2b62d2	0.04184229
28	0xbe4a32e1	-0.19745971
29	0x3e756a4f	0.23966335
30	0xbd15d0cc	-0.036576077
31	0xbe2017a1	-0.15634014
32	0x3e8085c9	0.2510207
33	0xbef88efc	-0.48546588
34	0x3da07b95	0.078360714
35	0xbeb9d0ff	-0.36292264
36	0x3ee25d80	0.4421196
37	0x3f125402	0.57159436
38	0xbe3866f5	-0.18008025
39	0x3e9acd54	0.30234778
40	0x3d2d516f	0.04231399
41	0x3d09367d	0.03349923
42	0xbdfc7f94	-0.12329021
43	0xbe8e9a79	-0.27852228
44	0x3e78183f	0.24227999
45	0xbda617a4	-0.08109978
46	0x3e5236bd	0.20528693
47	0x3ae6d345	0.0017610571
48	0xbe64722f	-0.22309183
49	0x3e58c006	0.21167001

enc3.1.conv2.pointwise.weight f4 [8, 2, 1, 1]
0	0x3e5fa9ed	0.21842165
1	0xbecea472	-0.40359837
2	0x3f007df4	0.5019219
3	0x3f1bb6fd	0.6082609
4	0x3e31168a	0.17293754
5	0x3f119a9e	0.5687655
6	0x3e077faf	0.13232301
7	0x3e9471e9	0.28993157
8	0xbc478539	-0.012177759
9	0x3c5edd1f	0.013602524
10	0xbfadd7de	-1.3581502
11	0x3ef4a1f5	0.47779813
12	0x3ce86b8f	0.0283716
13	0xbe569210	-0.20954156
14	0x3da1a148	0.0789209
15	0x3deaee64	0.11471251

enc3.1.conv2.pointwise.bias f4 [8]
0	0xbeded261	-0.4351988
1	0xbcabb244	-0.020959027
2	0xbe62634c	-0.22108191
3	0xbdbdb4f5	-0.092630304
4	0x3f815523	1.0104107
5	0x3f2e4ecb	0.6808898
6	0xbc53ab27	-0.012919224
7	0xbf1e3700	-0.61802673

enc4.0.conv1.depthwise.weight f4 [8, 1, 5, 5]
0	0xbe3a0f42	-0.18169883
1	0xbd9f39cb	-0.07774695
2	0x3ddfedfd	0.109340645
3	0x3d5fbb1f	0.054621812
4	0x3d778f5f	0.060439464
5	0xbda4a343	-0.08038952
6	0xbc1c4d5a	-0.009539926
7	0xbc47ee89	-0.012202867
8	0xbe6cb804	-0.23117071
9	0xbe8b1f3c	-0.27172267
10	0xbd51d80d	-0.051231433
11	0x3ba7e445	0.0051236474
12	0xbdb8185f	-0.089890234
13	0xbeba4160	-0.36378002
14	0xbe642cc3	-0.222827
15	0xbe24eb20	-0.16105318
16	0x3de9939d	0.11405108
17	0x3e1d716c	0.15375298
18	0xbdcb3c80	-0.09923649
19	0x3e0c03be	0.13673303
20	0xbda89dac	-0.082331985
21	0x3d6998ee	0.05703061
22	0x3e4bf79d	0.19918676
23	0x3e1032ac	0.1408183
24	0x3e25663e	0.16152284
25	0x3ddce304	0.10785487
26	0x3e1955cb	0.14974134
27	0x3e172488	0.1476003
28	0xbe2083e0	-0.15675306
29	0xbdb98b92	-0.09059824
30	0x3e8c310d	0.27381173
31	0x3ee81977	0.45331928
32	0x3da043e0	0.07825446
33	0xbd9b53a8	-0.075843155
34	0xbe20dd64	-0.15709454
35	0x3e3d3f37	0.18481146
36	0x3ed82489	0.42215374
37	0x3eab8615	0.33500734
38	0x3ccd452a	0.025057394
39	0xbe8060f5	-0.25073972
40	0x3d92b555	0.071634926
41	0x3d9e653d	0.077341534
42	0x3e4cb3ad	0.19990416
43	0xbca6503a	-0.020301927
44	0xbe422de6	-0.18962821
45	0x3cef2f1d	0.02919727
46	0x3bbca9e0	0.0057575554
47	0x3d39e2da	0.045382358
48	0xbd4aee9c	-0.049543962
49	0xbc82c4ef	-0.015963046
50	0xbd21347f	-0.039356705
51	0x3e49a303	0.1969109
52	0x3e33130c	0.17487735
53	0x3ea7ae89	0.32750347
54	0xbbe44339	-0.0069660214
55	0xb96977e5	-0.00022265276
56	0x3ef2ebdb	0.47445568
57	0x3f39a4c8	0.7251706
58	0x3f2a5e97	0.6655058
59	0x3ea93c4b	0.33053812
60	0xbe68e377	-0.22743021
61	0x3e5cab9b	0.21549837
62	0x3f436226	0.7632164
63	0x3f547660	0.82993126
64	0x3ec14f0e	0.37755626
65	0xbeb98f7c	-0.36242282
66	0xbc87ba7f	-0.01656842
67	0x3ed5112f	0.41614673
68	0x3f0028cd	0.5006226
69	0x3e286e18	0.16448247
70	0x3d46c0ae	0.048523597
71	0x3da6767f	0.0812807
72	0x3e1e4f23	0.15459876
73	0x3e42269e	0.18960044
74	0xbe04c8e4	-0.12967259
75	0x3df0cc10	0.11757672
76	0x3e6f4450	0.23365903
77	0x3e47c701	0.19509508
78	0xbd9d983a	-0.076950505
79	0xbdea6b8a	-0.11446293
80	0x3de7c163	0.113161825
81	0x3e4a0345	0.1972781
82	0x3ebe2e3f	0.37144658
83	0x3dc3e873	0.095658205
84	0x3ca29070	0.019844264
85	0xbdbdd751	-0.09269584
86	0x3e4fa0cc	0.20276183
87	0x3f1a4b61	0.6027127
88	0x3ee47217	0.44618294
89	0x3e2b1f3d	0.16711135
90	0xbd1947a5	-0.03742184
91	0x3b8dc6f8	0.0043266974
92	0x3f0b0fd2	0.54321015
93	0x3f182553	0.5943195
94	0x3e9d65fc	0.3074187
95	0xbd1239ee	-0.035699777
96	0xba0cf715	-0.0005377394
97	0x3d9c82ca	0.076421335
98	0x3e48b4e0	0.19600248
99	0x3e0ef8c8	0.1396209
100	0x3e0e4b98	0.13896024
101	0x3eeb6a80	0.4597969
102	0x3e525758	0.20541131
103	0x3ee7fb0c	0.4530872
104	0x3edfc4e7	0.43704912
105	0x3e8ddf58	0.2770946
106	0x3e3f262e	0.18666908
107	0x3e881ca6	0.26584357
108	0x3f0f8a19	0.56070095
109	0x3d9ef95f	0.077624075
110	0xbe1f39ba	-0.15549365
111	0xbea72da3	-0.32652006
112	0xbc1ceeac	-0.009578388
113	0xbd6815b1	-0.05666131
114	0xbe567cb2	-0.20946005
115	0xbee747c1	-0.4517193
116	0xbdfeb717	-0.12437265
117	0xbe310edc	-0.17290825
118	0xbddf66e9	-0.109083004
119	0xbed1ae75	-0.40953413
120	0x3d85b412	0.06528486
121	0x3dff98d1	0.12480319
122	0x3e97398b	0.2953609
123	0x3e69187d	0.22763248
124	0x3e0f4e03	0.13994603
125	0xbd8bfab5	-0.06834928
126	0xbe20e622	-0.15712789
127	0x3e12b3f5	0.1432646
128	0x3d330a61	0.04371107
129	0xbe402304	-0.18763357
130	0x3e55f135	0.20892794
131	0x3e3a4e54	0.18193942
132	0x3ba6684f	0.0050783525
133	0x3e5703e8	0.20997584
134	0x3e17c818	0.14822423
135	0x3de3f605	0.11130909
136	0xbe234c3d	-0.15947051
137	0xbcedfc86	-0.029051077
138	0x3e766162	0.24060586
139	0x3e9aa74c	0.30205762
140	0xbd1d25b8	-0.03836605
141	0xbe44ebec	-0.19230622
142	0xbd6d1149	-0.057877813
143	0x3e4ff10e	0.20306799
144	0x3ea7aec1	0.32750514
145	0x3d9c2848	0.076248705
146	0x3d29f8d5	0.04149707
147	0x3d254e4b	0.04035787
148	0x3e0cf5e0	0.13765669
149	0xbeb5d7c1	-0.3551617
150	0xbf05f9d1	-0.52334315
151	0xbdb2c148	-0.08728272
152	0x3e734893	0.23758154
153	0x3e981315	0.29702058
154	0x3cb456f7	0.022014124
155	0xbdd1ab27	-0.10237723
156	0x3e64b842	0.22335914
157	0x3f09d986	0.5384754
158	0x3f3306b5	0.6993211
159	0x3ef3b912	0.47602135
160	0xbe01223f	-0.1261072
161	0x3da21875	0.07914821
162	0x3e9a65f5	0.30155912
163	0x3e866a71	0.26253083
164	0x3da4bfc4	0.08044389
165	0xbe8b47ef	-0.27203318
166	0xbdcabb15	-0.09898964
167	0x3df2f785	0.11863617
168	0x3d1be7ef	0.038062986
169	0xbe46ceac	-0.19414777
170	0xbdef40e4	-0.11682299
171	0xbd2cb0ca	-0.042160787
172	0xbdd8f395	-0.105933346
173	0xbe456863	-0.19278102
174	0xbe93cfe6	-0.2886955
175	0xbe0dd608	-0.13851178
176	0x3e1c4bc5	0.15263279
177	0x3c1a77e7	0.009428001
178	0x3e23f518	0.16011465
179	0x3e476815	0.19473298
180	0x3e1a70df	0.1508212
181	0x3e020547	0.12697326
182	0xbdbcf80d	-0.092269994
183	0xbcc137cd	-0.023586178
184	0x3d5172e0	0.051134944
185	0xbe2cea7b	-0.16886322
186	0x3df6924a	0.12039621
187	0x3d2b635a	0.041842796
188	0xbe108ba2	-0.14115766
189	0x3ae9899a	0.0017817498
190	0x3da967e0	0.08271766
191	0x3e1471ea	0.1449658
192	0x3e26e40f	0.16297935
193	0xbc5d704d	-0.013515544
194	0xbcc55a9a	-0.024091054
195	0x3e236a9b	0.15958636
196	0xbda05f63	-0.078306936
197	0xbd281087	-0.041031387
198	0xbd0586e0	-0.03259933
199	0x3d1cc413	0.03827293

enc4.0.conv1.pointwise.weight f4 [2, 8, 1, 1]
0	0xbc150464	-0.009095285
1	0xbe05487d	-0.13015933
2	0x3e816399	0.252713
3	0x3d95a447	0.07306724
4	0x3e0254c2	0.12727645
5	0x3f0feddc	0.5622232
6	0xbe30b12b	-0.17255084
7	0xbeb0b84d	-0.3451561
8	0x3e2c37db	0.16818182
9	0x3e8fc45d	0.280795
10	0x3ed474ea	0.41495448
11	0xbf0f918f	-0.5608148
12	0x3edb6cf8	0.42856574
13	0x3e7bf131	0.24603726
14	0x3ee56d53	0.4480997
15	0x3da094e9	0.07840902

enc4.0.conv1.pointwise.bias f4 [2]
0	0xbece136d	-0.40249196
1	0x3dc0d7d3	0.09416165
