archs/basicSR_models/weights/PMRIDd2-low-light_rescaled.pth (torch, 288479 bytes, 115 tensors)

conv0.conv.weight f4 [8, 3, 3, 3]
0.0068696667 0.090034306 -0.06765907 0.17449364 0.35100108 0.23207209 -0.16873085 0.36038455
-0.08902572 -0.16373047 -0.06991648 -0.09159125 -0.11902292 -0.38071272 -0.15736644 -0.051297963
-0.24716926 -0.11080319 0.06908564 0.05173453 0.1734802 0.09384773 -0.35695666 -0.042679492
0.18801029 -0.052000176 0.17193916 -0.014052898 -0.045043144 0.034141727 0.19128375 0.46215805
0.061581988 -0.046360683 0.20207098 -0.05172767 0.07769534 -0.005273847 0.029212039 0.06482225
0.2956331 0.041950732 -0.035291415 0.06922302 0.021411562 -0.007864287 0.061543696 0.03215064
-0.052696403 0.1566285 -0.13066202 0.08160576 -0.09362546 0.05268854 -0.1732928 0.070394725
0.18903689 -0.059736293 0.24280943 0.42796302 -0.098543204 0.23031375 -0.11415242 0.102499634
0.09019613 0.32404128 0.21964267 0.06346059 0.14834195 0.084973946 0.31484315 0.035877556
-0.06798507 -0.11514779 -0.32040018 0.10138084 -0.4103729 -0.24435794 -0.1681618 -0.19956522
-0.2948056 -0.16491115 0.05842045 -0.005353274 0.09947868 -0.11382193 -0.03224808 0.09040669
-0.13241796 0.0942655 -0.25520667 0.026934784 -0.15107717 -0.10243389 -0.08317298 -0.07050853
-0.21663384 -0.1155667 -0.114072084 0.17658953 0.38565025 0.16867042 0.41520995 0.4634423
0.09850425 0.09965021 0.15229273 0.07424786 -1.094139 -0.24772467 0.13349414 0.1788853
-0.5411793 -0.21092828 -0.019480212 -0.2581979 0.010318917 -0.017605506 0.3925938 0.40999693
0.7714241 0.04639817 0.09351825 0.07406619 0.20723587 0.12354445 -0.18505079 0.26837456
-0.11957391 0.4546406 -0.31107253 0.041238118 -0.18086678 -0.1687757 -0.013136593 0.048664793
0.010590709 0.073539905 0.00065823935 -0.5199324 0.1332009 0.186983 -0.09159414 0.0006286098
0.21174902 0.18938588 0.17371717 0.17600177 -0.0250046 0.19447619 -0.015052702 0.07820838
0.1214737 -0.1397944 0.12385561 -0.00027303252 -0.059099972 -0.24219678 -0.21632214 0.0008799043
-0.13169284 -0.079290286 -0.05568407 0.06840225 -0.01876244 0.16433394 -0.059004307 -0.07124192
-0.100575365 -0.029691761 0.03530015 0.022599885 0.0048608854 -0.031449087 0.20778927 -0.0454717
-0.0343135 -0.054271918 -0.042920116 -0.05502019 0.08376722 -0.08445211 0.122721165 0.48230302
0.2855552 -0.02248348 0.1336737 0.0907298 0.113449946 0.07559356 0.3161853 -0.08154463
0.091214724 -0.19271848 0.27859446 -0.04240206 0.061743338 -0.017373914 -0.012124997 0.024179006
-0.09024567 0.018149897 -0.19533533 0.3272638 -0.0538344 0.024737174 -0.1336421 -0.09666987
-0.120754495 -0.15814054 0.2651573 -0.17116828 0.45651844 0.13599488 -0.02218021 0.036734328
00000000: f11a e13b e863 b83d d790 8abd 76ae 323e
00000010: 6ab6 b33e 4ea4 6d3e c8c7 2cbe 5384 b83e
00000020: 1e53 b6bd f6a8 27be 5f30 8fbd 3194 bbbd
00000030: 4ac2 f3bd c7ec c2be ab24 21be d01d 52bd
00000040: f019 7dbe c8ec e2bd c67c 8d3d 96e7 533d
00000050: cba4 313e 3d33 c03d 06c3 b6be b1d0 2ebd
00000060: c585 403e 23fe 54bd d210 303e 203e 66bc
00000070: 297f 38bd 32d8 0b3d e3df 433e fb9f ec3e
00000080: 653d 7c3d b3e4 3dbd b2eb 4e3e 65e0 53bd
00000090: bc1e 9f3d 3cd0 acbb 164e ef3c 87c1 843d
000000a0: 395d 973e 88d4 2b3d bb8d 10bd ccc4 8d3d
000000b0: 4d67 af3c 36d9 00bc 3e15 7c3d 64b0 033d
000000c0: 2fd8 57bd 3963 203e 44cc 05be ec20 a73d
000000d0: b5be bfbd f0cf 573d ab73 31be 1c2b 903d
000000e0: e392 413e 0bae 74bd 09a3 783e f81d db3e
000000f0: 05d1 c9bd 5ed7 6b3e bec8 e9bd 54eb d13d
00000100: c0b8 b83d bde8 a53e 02ea 603e a0f7 813d
00000110: f4e6 173e d206 ae3d 1f33 a13e 58f4 123d
00000120: c23b 8bbd 9bd2 ebbd 7e0b a4be c2a0 cf3d
00000130: 661c d2be f838 7abe 9b32 2cbe d35a 4cbe
00000140: c2f0 96be 78de 28be 484a 6f3d 846a afbb
00000150: 7abb cb3d 791b e9bd 9016 04bd 2527 b93d
00000160: 9398 07be 450e c13d 73aa 82be 56a6 dc3c
00000170: f9b3 1abe dcc8 d1bd 9856 aabd c766 90bd
00000180: 43d5 5dbe 3cae ecbd a09e e9bd e3d3 343e
00000190: f373 c53e f0b7 2c3e 6696 d43e 4f48 ed3e
000001a0: 99bc c93d 6915 cc3d a0f2 1b3e 430f 983d
000001b0: bf0c 8cbf 89ab 7dbe b0b2 083e b52d 373e
000001c0: ba8a 0abf 95fd 57be f794 9fbc 8432 84be
000001d0: ad10 293c 6c39 90bc 0e02 c93e 1eeb d13e
000001e0: 0d7c 453f 020c 3e3d 7f86 bf3d 04b0 973d
000001f0: a435 543e df04 fd3d f47d 3dbe 6468 893e
00000200: 2be3 f4bd a7c6 e83e e644 9fbe 4de9 283d
00000210: 2435 39be 89d3 2cbe dd3a 57bc bc54 473d
00000220: a784 2d3c 179c 963d b28d 2c3a 4a1a 05bf
00000230: d165 083e 7978 3f3e b595 bbbd 4ac9 243a
00000240: bcd4 583e 5fee 413e eae2 313e cf39 343e
00000250: 72d6 ccbc c424 473e 9c9f 76bc b72b a03d
00000260: 34c7 f83d 4326 0fbe 03a8 fd3d ce25 8fb9
00000270: d012 72bd 6f02 78be 8d83 5dbe 61a9 663a
00000280: 7dda 06be f262 a2bd fb14 64bd 7b16 8c3d
00000290: b0b3 99bc 2847 283e 80ae 71bd 49e7 91bd
000002a0: 75fa cdbd 233c f3bc e496 103d 6523 b93c
000002b0: 1048 9f3b c2d0 00bd b6c6 543e 8940 3abd
000002c0: 508c 0cbd 3b4c 5ebd 01cd 2fbd da5c 61bd
000002d0: 268e ab3d 3af5 acbd 3c55 fb3d 6cf0 f63e
000002e0: 4b34 923e 462f b8bc c2e1 083e 8cd0 b93d
000002f0: 7258 e83d ccd0 9a3d 0ae3 a13e df00 a7bd
00000300: c9ce ba3d fe57 45be efa3 8e3e c8ad 2dbd
00000310: 95e6 7c3d bd53 8ebc eca7 46bc 0d13 c63c
00000320: b9d2 b8bd 18af 943c fc05 48be 1f8f a73e
00000330: 7681 5cbd 9da5 ca3c 7ad9 08be dafa c5bd
00000340: 224e f7bd 98ef 21be b3c2 873e bd46 2fbe
00000350: c9bc e93e 3e42 0b3e 46b3 b5bc bc76 163d

conv0.conv.bias f4 [8]
4.4545674 -0.6278491 0.06501225 -0.18799669 0.428873 5.1108403 -0.37676018 -1.1536636
00000000: d18b 8e40 b8ba 20bf 2425 853d 3482 40be
00000010: 3e95 db3e 018c a340 b6e6 c0be 40ab 93bf

enc2.0.conv1.depthwise.weight f4 [8, 1, 5, 5]
-0.24699457 -0.2262455 -0.2697915 -0.15566039 0.16267829 -0.15179552 -0.1319522 -0.73495466
-0.39306456 0.15179862 0.26109138 0.5154757 -0.09384525 -0.034599535 -0.012675748 0.37963787
0.36811337 -0.083788805 0.027067406 0.25767785 -0.044075925 0.1816544 -0.38462275 -0.057061985
0.30785868 0.14857939 -0.18232474 -0.25581187 0.12944995 0.122169495 0.22090408 -0.060331598
-0.49437016 0.098489314 -0.0049428805 0.2898127 -0.1340064 -0.49745384 0.038616598 -0.15339896
0.12090764 0.18549582 -0.001414953 0.19709656 0.056794178 0.07205505 0.1772753 0.0187145
-0.19062193 0.11696314 -0.009759351 -0.07535735 -0.025382213 -0.1003472 -0.012293336 0.059219003
0.26778117 -0.20247129 0.09175186 -0.061938424 0.614977 0.7529777 0.3091241 0.027526535
0.06860262 0.48876074 0.425342 0.23897798 -0.13277112 -0.032583714 -0.18609816 0.07506309
0.048234627 -0.0011894266 -0.018095732 -0.031926215 -0.0010204127 -0.26581064 -0.13766643 0.16828924
-0.08649102 0.25210252 0.17660195 -0.08846875 -0.21678524 -0.044483643 0.9748767 0.45045814
0.21007358 0.01819921 0.22749063 0.6250663 0.8326347 -0.14832602 -0.019778391 -0.16316849
0.10708898 0.035774443 0.003082767 -0.19511391 0.04885481 -0.07291436 -0.16007476 0.2469406
0.14451432 0.18974406 -0.17898002 -0.24110746 0.11517908 -0.06932963 -0.08513176 -0.31905562
-0.5196313 -0.011564634 -0.021029068 -0.17003706 -0.35171142 -0.24373282 -0.43701687 -0.13418363
-0.030623324 0.022628695 0.19396289 0.028382773 0.061934542 0.047834855 -0.07642944 -0.4104292
0.18675844 0.050281417 0.2209886 -0.300001 -0.34685436 0.39650878 0.13470092 -0.2281571
-0.3679379 -0.4455917 0.00075051934 -0.1282933 0.2724837 0.09070856 -0.16215247 0.25327656
-0.0011955891 0.39960644 0.08944387 0.026706778 0.08416142 -0.11918168 0.02366346 -0.1594917
0.33188888 0.08678456 -0.22813074 -0.059518885 -0.0026430509 0.54340756 -0.08534163 0.28117025
0.06971599 0.012617514 0.64010775 -0.053245634 0.35351393 -0.076381624 -0.27863976 0.42247888
0.013345946 0.018472059 0.1429876 -0.102495104 0.16027907 -0.14846043 0.06414262 -0.073270015
-0.31921583 -0.22094813 0.40477064 0.2633164 -0.043334406 -0.04899153 -0.12663017 0.03586797
-0.1947355 0.16077954 0.11377779 0.5096405 -0.24650559 -0.2046448 -0.046037916 0.5439307
0.5276614 -0.067877196 0.29960787 -0.25160748 0.050134152 -0.045093518 -0.04044615 -0.3090246
00000000: 25ec 7cbe e6ac 67be 1d22 8abe 7065 1fbe
00000010: 2395 263e 4970 1bbe 7a1e 07be fd25 3cbf
00000020: c23f c9be 1971 1b3e c5ad 853e 37f6 033f
00000030: f031 c0bd 3eb8 0dbd f1ad 4fbc e55f c23e
00000040: 5b79 bc3e 7799 abbd 77bc dd3c 5aee 833e
00000050: f588 34bd 9c03 3a3e 46ed c4be d4b9 69bd
00000060: a79f 9d3e 3225 183e 56b3 3abe c6f9 82be
00000070: 878e 043e 0034 fa3d ae34 623e 441e 77bd
00000080: 161e fdbe c4b4 c93d e3f7 a1bb 5562 943e
00000090: f938 09be 45b2 febe 702c 1e3d 9e14 1dbe
000000a0: 6d9e f73d 9ef2 3d3e f275 b9ba aed3 493e
000000b0: 03a1 683d 9991 933d a887 353e 274f 993c
000000c0: 6532 43be 5f8a ef3d afe5 1fbc f454 9abd
000000d0: 5cee cfbc d582 cdbd fd69 49bc a08f 723d
000000e0: 9d1a 893e a254 4fbe 66e8 bb3d 25b3 7dbd
000000f0: 226f 1d3f 26c3 403f 8445 9e3e 547f e13c
00000100: 887f 8c3d d93e fa3e 6dc6 d93e a5b6 743e
00000110: 27f5 07be 8076 05bd 8490 3ebe adba 993d
00000120: ac91 453d 89e6 9bba 803d 94bc 10c5 02bd
00000130: 5ebf 85ba 5518 88be 6ef8 0cbe 0454 2c3e
00000140: 3422 b1bd 9513 813e 24d7 343e 1b2f b5bd
00000150: f3fc 5dbe 7b34 36bd 8591 793f 73a2 e63e
00000160: 871d 573e 8216 953c 4ef3 683e 5804 203f
00000170: 8c27 553f c7e2 17be 4b06 a2bc a415 27be
00000180: 7851 db3d 3988 123d 3f08 4a3b f1cb 47be
00000190: fb1b 483d 2054 95bd a3ea 23be ffdd 7c3e
000001a0: 90fb 133e 444c 423e 8a46 37be e0e4 76be
000001b0: 02e3 eb3d b1fc 8dbd 8f59 aebd 425b a3be
000001c0: 8f06 05bf 9779 3dbc 2745 acbc 321e 2ebe
000001d0: 8513 b4be 1995 79be adc0 dfbe 6f67 09be
000001e0: c4dd fabc d05f b93c 359e 463e fd82 e83c
000001f0: 13af 7d3d 7bee 433d 0a87 9cbd c723 d2be
00000200: 9b3d 3f3e e3f3 4d3d d64a 623e bb99 99be
00000210: e596 b1be 3303 cb3e 0aef 093e 04a2 69be
00000220: 5b62 bcbe 9824 e4be 80be 443a 525f 03be
00000230: fc82 8b3e 69c5 b93d 4c0b 26be 77ad 813e
00000240: 50b5 9cba 3799 cc3e 592e b73d 2cc8 da3c
00000250: d35c ac3d 8615 f4bd dfd9 c13c cb51 23be
00000260: 57ed a93e 1abc b13d 1b9b 69be 13ca 73bd
00000270: 0937 2dbb c21c 0b3f 98c7 aebd 8cf5 8f3e
00000280: 42c7 8e3d b0b9 4e3c 1ade 233f 1818 5abd
00000290: c7ff b43e f86d 9cbd dfa9 8ebe 274f d83e
000002a0: f4a8 5a3c b752 973c 576b 123e f4e8 d1bd
000002b0: 3220 243e 0306 18be 355d 833d 970e 96bd
000002c0: 4270 a3be 3a40 62be 193e cf3e 68d1 863e
000002d0: 6b7f 31bd 58ab 48bd 57ab 01be 4bea 123d
000002e0: be68 47be 64a3 243e 5404 e93d cd77 023f
000002f0: f66b 7cbe 688e 51be 4192 3cbd 0b3f 0b3f
00000300: d114 073f 3303 8bbd 3466 993e b2d2 80be
00000310: 7859 4d3d fbb3 38bd ddaa 25bd 7938 9ebe

enc2.0.conv1.pointwise.weight f4 [8, 8, 1, 1]
-0.15992337 0.037911452 -0.36012712 -0.31424522 -0.26867414 -0.11569185 -0.07249202 0.117831804
0.28119037 0.025897408 0.13981286 -0.32565075 0.0044705323 -0.14330077 -0.019890923 -0.094252676
-0.0044002663 0.0042757345 0.14249007 -0.09771391 0.19616032 0.02761976 -0.029871838 0.10506
-0.016096309 -0.0069626723 -0.23253535 0.030090248 -0.3425926 -0.13932054 -0.031388037 -0.23205985
-0.000529199 -0.3014137 -0.27112266 -0.06528483 -0.028940028 0.4794738 -0.048734978 -0.19732153
-0.120545425 -0.058062054 0.13685215 -0.18629697 0.023324635 0.04714135 -0.6002001 -0.03807782
-0.048073407 0.17293067 -0.06251502 0.05164235 -0.017988138 -0.23180589 -0.19358899 -0.008598146
0.01157159 0.07292683 -0.55461943 -0.25651595 -0.17749506 -0.09910115 -0.21218635 -0.06796633
00000000: f4c2 23be 0a49 1b3d 9562 b8be c0e4 a0be
00000010: a88f 89be d9ef ecbd b276 94bd cd51 f13d
00000020: 2ff8 8f3e cd26 d43c 1a2b 0f3e b2bb a6be
00000030: 8b7d 923b 70bd 12be 4af2 a2bc 8c07 c1bd
00000040: 1c30 90bb 761b 8c3b ebe8 113e 3b1e c8bd
00000050: 40de 483e d642 e23c c9b5 f4bc b329 d73d
00000060: 68dc 83bc 2127 e4bb bf1d 6ebe d37f f63c
00000070: 4c68 afbe 0baa 0ebe be90 00bd 19a1 6dbe
00000080: f2b9 0aba e652 9abe 97d0 8abe 0eb4 85bd
00000090: a313 edbc 977d f53e 549e 47bd a80e 4abe
000000a0: 85e0 f6bd 7ad2 6dbd f822 0c3e a2c4 3ebe
000000b0: 4e13 bf3c 4a17 413d b7a6 19bf 7df7 1bbd
000000c0: 9fe8 44bd bd14 313e e007 80bd ee86 533d
000000d0: dc5b 93bc 865e 6dbe 313c 46be 3ddf 0cbc
000000e0: c496 3d3c a95a 953d 8afb 0dbf 0f56 83be
000000f0: 44c1 35be 8bf5 cabd 6147 59be ee31 8bbd

enc2.0.conv1.pointwise.bias f4 [8]
0.9724344 1.2032084 0.19938457 0.9538599 1.2445284 0.87230843 -0.071120754 0.9215722
00000000: 76f1 783f bc02 9a3f 782b 4c3e 2a30 743f
00000010: b54c 9f3f 9b4f 5f3f c2a7 91bd 28ec 6b3f

enc2.0.conv2.depthwise.weight f4 [8, 1, 5, 5]
0.02261293 0.34543106 0.049184043 -0.021661218 0.04737173 -0.03129122 0.059409022 -0.12257297
0.30215487 0.13559036 -0.15587606 0.3038824 -0.32148176 -0.3960907 0.080561824 0.06552208
0.1756722 -0.60456926 -0.40911674 0.10434764 0.016089255 0.13288316 0.2624917 0.2302444
-0.047614068 -0.044212785 0.043612946 0.12838061 -0.08816895 0.0148354685 0.15750644 -0.27142885
-0.23677997 0.15612184 -0.255935 -0.22734034 0.2747193 0.27152252 0.61795145 -0.034588315
0.091360435 -0.16715212 0.08849081 0.30021128 -0.071397305 0.048106905 -0.10566357 -0.02788065
-0.15554315 0.08574196 0.03844826 -0.06481403 -0.03233835 -0.054161828 0.051623687 -0.05070918
0.062193602 0.06725688 -0.1906636 0.02552088 -0.05930145 -0.10571111 -0.72408783 -0.29960987
-0.048571706 0.08944305 0.12014359 0.019006815 0.25850618 0.01587443 0.04411394 -0.15010838
0.10753565 -0.014059551 0.03578234 0.09693201 -0.02257945 0.0026502658 -0.1872981 0.093631916
0.17427164 -0.22415236 -0.20580652 0.0044840714 -0.2366582 -0.031526078 0.14096785 -0.22749479
0.10277843 -0.12543903 -0.012186848 -0.06673054 -0.3433564 -0.081040405 0.011139531 0.0320644
0.14201707 -0.087429315 -0.026364222 0.11045417 0.0565237 0.26161838 0.039691724 0.04655647
0.004650636 -0.080400385 -0.17029227 0.3035362 0.1746276 -0.21831779 0.100745745 0.0638398
0.409247 0.32740048 0.23806973 0.08302302 0.009506564 0.004134453 0.023580099 -0.086256646
-0.07085271 -0.03385858 -0.06393682 0.19485687 -0.054609094 0.048418216 0.059307564 -0.09748825
0.052210517 -0.04708477 -0.039379403 -0.13489062 0.028988691 0.046516 0.00508662 0.059056688
0.22473525 0.6228036 0.4235081 -0.008968745 -0.15259036 -0.13642213 0.6780304 -0.24864756
-0.14867136 0.02263025 -0.22061385 0.027529392 0.052519917 -0.01752026 0.11704253 0.029527174
0.02476953 -0.029521143 -0.035413217 -0.006039954 0.105634294 -0.20468913 0.014685328 -0.11896128
0.07315626 -0.18009983 -0.16158125 0.7508459 -0.013715294 -0.034701508 0.16268513 -0.24812277
0.16944754 -0.082009174 0.015504469 0.032356035 0.046788674 -0.1538827 0.09171247 -0.00934349
-0.055334255 -0.13064116 -0.21074125 -0.13382837 0.08472239 -0.18491963 -0.4593858 0.06412372
0.03577162 -0.047015037 -0.014557132 -0.6834744 -0.21235871 -0.36945248 -0.37276113 0.042432528
-0.0049602953 -0.061437547 -0.24939531 -0.042666927 0.009070769 -0.2407676 -0.3715453 0.19899671
00000000: c03e b93c 57dc b03e 3575 493d de72 b1bc
00000010: dc08 423d 392b 00bd e056 733d 8a07 fbbd
00000020: 0bb4 9a3e 33d8 0a3e f99d 1fbe 7996 9b3e
00000030: 4299 a4be 66cc cabe 99fd a43d 7130 863d
00000040: 6ae3 333e 0dc5 1abf c077 d1be 37b4 d53d
00000050: 9dcd 833c 8612 083e 5065 863e 30c5 6b3e
00000060: f806 43bd 7718 35bd 7da3 323d 3576 033e
00000070: ec91 b4bd 7710 733c 5e49 213e b9f8 8abe
00000080: 7376 72be 67de 1f3e ea09 83be e8cb 68be
00000090: 02a8 8c3e 0005 8b3e 1132 1e3f 7aac 0dbd
000000a0: 2e1b bb3d ed29 2bbe ab3a b53d 4bb5 993e
000000b0: c038 92bd bf0b 453d 2466 d8bd f665 e4bc
000000c0: b446 1fbe 7b99 af3d ec7b 1d3d 38bd 84bd
000000d0: 3875 04bd cbd8 5dbd 5c73 533d 6eb4 4fbd
000000e0: b8be 7e3d fabd 893d 523d 43be 2a11 d13c
000000f0: 14e6 72bd 117f d8bd d25d 39bf 7766 99be
00000100: 20f3 46bd eb2d b73d d80d f63d 2eb4 9b3c
00000110: ec5a 843e 180b 823c d2b0 343d 03b6 19be
00000120: a73b dc3d 085a 66bc 8190 123d 4a84 c63d
00000130: 8af8 b8bc 15b0 2d3b 13cb 3fbe 17c2 bf3d
00000140: 4474 323e 3288 65be f2be 52be 1eef 923b
00000150: 8756 72be 7d21 01bd e059 103e 65f4 68be
00000160: 7f7d d23d 1773 00be 58ab 47bc 05aa 88bd
00000170: 69cc afbe 83f8 a5bd 9482 363c f655 033d
00000180: ec6c 113e 240e b3bd c8f9 d7bc cc35 e23d
00000190: 6585 673d d8f2 853e ca93 223d ffb1 3e3d
000001a0: 5d64 983b f5a8 a4bd 1961 2ebe 1969 9b3e
000001b0: 94d1 323e b38e 5fbe c953 ce3d 71be 823d
000001c0: d388 d13e 09a1 a73e 8dc8 733e f907 aa3d
000001d0: 6bc1 1b3c 4e7a 873b 0d2b c13c 53a7 b0bd
000001e0: 3a1b 91bd 4baf 0abd 4ff1 82bd 8f88 473e
000001f0: c9ad 5fbd 2e52 463d 7dec 723d eba7 c7bd
00000200: b2da 553d f6db 40bd 4c4c 21bd c420 0abe
00000210: b179 ed3c 9087 3e3d a9ad a63b 6de5 713d
00000220: ff20 663e 0f70 1f3f 0ed6 d83e a5f1 12bc
00000230: a640 1cbe 3eb2 0bbe 6693 2d3f 779d 7ebe
00000240: 4e3d 18be 1363 b93c 99e8 61be 5285 e13c
00000250: 201f 573d a686 8fbc feb3 ef3d f9e2 f13c
00000260: 78e9 ca3c 53d6 f1bc 730d 11bd ceea c5bb
00000270: cb56 d83d 079a 51be bb9a 703c f9a1 f3bd
00000280: f3d2 953d 176c 38be 8e75 25be 7037 403f
00000290: 1db6 60bc 2b23 0ebd ee96 263e e513 7ebe
000002a0: a883 2d3e 6df4 a7bd 7506 7e3c c387 043d
000002b0: 7ba5 3f3d 6d93 1dbe bfd3 bb3d 7015 19bc
000002c0: 2ca6 62bd ccc6 05be 8ecc 57be 4e0a 09be
000002d0: ef82 ad3d 925b 3dbe 9e34 ebbe 4c53 833d
000002e0: 4385 123d d792 40bd 0981 6ebc 2ef8 2ebf
000002f0: 9074 59be e028 bdbe 8cda bebe bbcd 2d3d
00000300: f989 a2bb f0a5 7bbd 7c61 7fbe 84c3 2ebd
00000310: 909d 143c c88b 76be 303b bebe cbc5 4b3e

enc2.0.conv2.pointwise.weight f4 [32, 8, 1, 1]
0.30800772 -0.18528375 0.20186903 -0.39157867 0.082794026 -0.4854137 0.05450555 -0.55946887
0.28403184 0.080021575 -0.292601 -0.12429667 0.16690548 0.17127153 0.062054314 -0.18879062
-0.077343546 -0.33725786 -0.05162714 -0.32033068 -0.48979098 -0.32783026 -0.17956741 0.92753124
-0.2962613 0.044611305 0.0021984903 0.015619885 -0.14837559 -0.46833295 -0.29937902 -0.50012076
-0.22285753 0.09190779 -0.09819633 -0.047050282 0.2093318 0.09293161 -0.29281366 -0.27664122
-0.11668557 -0.15053295 -0.065317735 0.07747978 0.006774668 -0.16778862 0.04129509 0.0020813728
-0.09384917 -0.51510394 0.09381312 -0.63008547 -0.37670437 0.63882065 -0.114592284 -0.24770853
-0.14768007 0.010698361 0.19467112 -0.18231882 0.073949836 -0.013902216 -0.03392108 -0.10253743
0.14239594 0.04313616 0.37650555 0.008712239 -0.14550799 -0.47028804 -0.0946687 -0.050232515
-0.12434263 0.27312464 -0.06686093 0.20735659 -0.09029272 0.5582232 -0.050013945 -0.023603411
-0.58173615 -0.043074433 0.053317714 0.008449305 -0.20058909 0.11579578 0.11791846 -0.3733639
-0.07150958 0.042375304 0.024104657 -0.19193207 -0.19989668 -0.08235977 -0.3345576 0.56307924
0.16296814 -0.308946 0.4978491 -0.12860349 -0.024935242 -0.22669633 -0.036853496 0.0728696
-0.1341521 -0.10651631 0.10023852 -0.14008918 0.23144269 0.09882456 -0.07903179 0.20730437
0.03183646 0.6236409 0.02532534 0.11516036 -0.20717822 0.9068428 -0.2139603 0.10054325
0.499941 -0.062350534 -0.088026 0.14014083 0.44740215 -0.043729693 -0.2600459 -0.0014109209
0.2803741 0.4392135 -0.1659466 0.2915803 0.09024414 0.113146156 -0.20606315 -0.07526967
0.009158565 -0.10255031 0.08174129 0.023832928 -0.23707251 0.0017498394 -0.008671003 0.06810871
-0.58627987 0.13802974 0.050929368 -0.17494112 0.014259341 -0.02742567 0.27627537 -0.46429175
-0.14226519 0.02514414 -0.17995794 0.17644729 -0.041927673 0.23345855 0.032987624 0.30874717
0.39208803 -0.41494113 0.19854605 0.32513773 0.322013 -0.38390166 -0.5487968 -0.18063696
-0.03092477 0.003946845 0.88281053 -0.096351594 -0.10585222 -0.051353134 -0.1472427 -0.4397117
-0.5777021 -0.048139032 -0.14666681 0.07741422 0.069262736 0.014667065 -0.22243077 -0.28593943
0.058692668 0.38398063 -0.33351022 -0.21813315 -0.44212022 0.30009273 0.0002222044 0.34469014
0.17296028 -0.1926969 -0.17604743 0.55610514 -0.30515766 -0.10012086 0.2311657 -0.05040571
0.88339704 -0.22993164 -0.31438228 -0.15869862 -0.06693976 0.28710294 -0.21968572 -0.40948066
-0.53541726 -0.008910968 0.2195544 0.09353235 0.57272905 -0.09925684 0.016975544 -0.16779159
-0.08237345 0.027502812 0.07376934 -0.27301943 -0.0127492435 -0.14268024 -0.34743226 0.15780652
-0.078456655 -0.02307407 0.066709906 0.19098812 0.24461807 0.20111565 0.17674646 -0.52014023
-0.2567687 0.11804204 -0.10261999 -0.1262663 0.030606667 -0.01753421 0.09971609 0.04631697
-0.2304462 -0.21928069 -0.077775486 -0.03893076 0.18619673 -0.17520428 0.022073869 0.102119066
-0.050560407 -0.16037935 -0.068291694 -0.31771007 -0.09942736 -0.06899827 0.13685979 -0.16518219
00000000: 30b3 9d3e 06bb 3dbe c1b6 4e3e 007d c8be
00000010: ea8f a93d 2588 f8be 3641 5f3d 5a39 0fbf
00000020: 9f6c 913e 5ae2 a33d cccf 95be 418f febd
00000030: 45e9 2a3e ce61 2f3e aa2c 7e3d 5452 41be
00000040: 4b66 9ebd 10ad acbe fb76 53bd 6202 a4be
00000050: e2c5 fabe 5ed9 a7be 85e0 37be b072 6d3f
00000060: 90af 97be 58ba 363d 8c14 103b 8cea 7f3c
00000070: c5ef 17be 56c9 efbe 3548 99be ea07 00bf
00000080: c434 64be 273a bc3d 281b c9bd ccb7 40bd
00000090: 135b 563e ee52 be3d aceb 95be eba3 8dbe
000000a0: d8f8 eebd 4f25 1abe 4ec5 85bd b8ad 9e3d
000000b0: 09fe dd3b c8d0 2bbe 0a25 293d a467 083b
000000c0: fe33 c0bd dadd 03bf 1821 c03d 484d 21bf
000000d0: 65df c0be c089 233f 5caf eabd 4ea7 7dbe
000000e0: 7239 17be 2e48 2f3c de57 473e c9b1 3abe
000000f0: 0373 973d 1fc6 63bc d5f0 0abd 25ff d1bd
00000100: 3ed0 113e 8baf 303d 56c5 c03e c7bd 0e3c
00000110: 0c00 15be 98c9 f0be aae1 c1bd 9cc0 4dbd
00000120: 59a7 febd fed6 8b3e 62ee 88bd 4955 543e
00000130: 64eb b8bd b7e7 0e3f 6cdb 4cbd f15b c1bc
00000140: a9ec 14bf d16e 30bd ad63 5a3d f46e 0a3c
00000150: 3a67 4dbe 5726 ed3d 3c7f f13d 8e29 bfbe
00000160: 9d73 92bd ba91 2d3d 2177 c53c d789 44be
00000170: b7b1 4cbe 3dac a8bd 224b abbe f625 103f
00000180: 1fe1 263e 2c2e 9ebe 14e6 fe3e a2b0 03be
00000190: fe44 ccbc 1523 68be b1f3 16bd a83c 953d
000001a0: 2b5f 09be 3925 dabd da49 cd3d 8a73 0fbe
000001b0: 50ff 6c3e 8864 ca3d 6bdb a1bd 9947 543e
000001c0: f366 023d eea6 1f3f 1677 cf3c 32d9 eb3d
000001d0: 8726 54be da26 683f 6918 5bbe 9fe9 cd3d
000001e0: 44f8 ff3e 4663 7fbd fa46 b4bd 1481 0f3e
000001f0: e511 e53e e81d 33bd bc24 85be a6ee b8ba
00000200: 328d 8f3e 98e0 e03e e8ed 29be 034a 953e
00000210: ebd1 b83d 2cb9 e73d 3802 53be fc26 9abd
00000220: ce0d 163c e605 d2bd fa67 a73d 463d c33c
00000230: 23c3 72be de5a e53a d310 0ebc 947c 8b3d
00000240: 7016 16bf ab57 0d3e 509b 503d c423 33be
00000250: 03a0 693c ccab e0bc f773 8d3e a6b7 edbe
00000260: f7ad 11be 15fb cd3c e546 38be 99ae 343e
00000270: 5abc 2bbd c20f 6f3e 081e 073d 1c14 9e3e
00000280: c3bf c83e 2a73 d4be a84f 4b3e 7478 a63e
00000290: e3de a43e c28e c4be f27d 0cbf e5f8 38be
000002a0: f155 fdbc 8954 813b dfff 613f fc53 c5bd
000002b0: 0cc9 d8bd aa57 52bd cac6 16be e421 e1be
000002c0: 49e4 13bf 6f2d 45bd d32f 16be 598b 9e3d
000002d0: 9fd9 8d3d 214e 703c e4c4 63be a766 92be
000002e0: b967 703d 1c99 c43e dac1 aabe 4c5e 5fbe
000002f0: 955d e2be c1a5 993e 8aff 6839 3a7b b03e
00000300: 801c 313e 5652 45be c745 34be e85c 0e3f
00000310: a03d 9cbe 2a0c cdbd b4b6 6c3e 3876 4ebd
00000320: 4f26 623f 3373 6bbe b7f6 a0be e481 22be
00000330: b717 89bd 28ff 923e 4bf5 60be 73a7 d1be
00000340: 1b11 09bf 4fff 11bc ded2 603e e48d bf3d
00000350: 5f9e 123f 2c47 cbbd 4c10 8b3c 8fd1 2bbe
00000360: 69b3 a8bd 944d e13c 6114 973d 34c9 8bbe
00000370: 34e2 50bc c51a 12be a4e2 b1be 0898 213e
00000380: e2ad a0bd d505 bdbc 349f 883d 6492 433e
00000390: 297d 7a3e 43f1 4d3e 06fd 343e e927 05bf
000003a0: 3077 83be 06c0 f13d 6e2a d2bd f44b 01be
000003b0: d5ba fa3c e7a3 8fbc f337 cc3d ddb6 3d3d
000003c0: 17fa 6bbe 1e8b 60be c148 9fbd dc75 1fbd
000003d0: 5baa 3e3e c068 33be 42d4 b43c cd23 d13d
000003e0: 6e18 4fbd 7c3a 24be 84dc 8bbd e5aa a2be
000003f0: 92a0 cbbd f74e 8dbd f924 0c3e 8525 29be

enc2.0.conv2.pointwise.bias f4 [32]
0.01766821 -1.0740142 -0.07686711 -0.5292992 1.1597929 0.99661994 0.5095689 1.152034
-0.5871567 -0.43119153 -0.24785055 1.0889742 1.3765393 0.45705786 -0.061896216 0.9031915
0.32739103 -0.523287 0.52015275 1.3035985 0.061961662 0.27339625 0.86071974 0.27711755
1.161469 -0.13239726 0.42281106 -0.18302456 0.6094782 -2.3804104 0.5048385 0.1339326
00000000: ecbc 903c 4c79 89bf 816c 9dbd 2780 07bf
00000010: 1874 943f 7c22 7f3f 1c73 023f da75 933f
00000020: e74f 16bf 23c5 dcbe 89cc 7dbe 8263 8b3f
00000030: 7132 b03f 7d03 ea3e e386 7dbd 8f37 673f
00000040: cc9f a73e 23f6 05bf bb28 053f 51dc a63f
00000050: 83cb 7d3d 98fa 8b3e 2158 5c3f 5ae2 8d3e
00000060: 04ab 943f 2693 07be b17a d83e ca6a 3bbe
00000070: c306 1c3f a558 18c0 193d 013f a125 093e

enc2.0.proj.depthwise.weight f4 [8, 1, 3, 3]
-0.051195066 0.024362873 -0.12915123 0.19134264 -0.036256757 -0.26181144 0.08713977 -0.18061058
-0.15068775 0.0023603693 0.0077802213 0.1665395 -0.12371734 0.38095722 0.107425235 0.0034123473
0.049049836 -0.20832814 0.30604255 0.041926652 0.19936706 -0.38541454 0.03485735 -0.07482794
-0.26415792 -0.07588507 0.28045645 0.12111404 0.08050628 -0.108945295 0.13476601 -0.2767006
0.12518974 -0.06466004 0.19443439 -0.513587 -0.037846833 0.11693644 -0.0291812 -0.055351257
0.08475348 0.12930016 0.05010309 0.21313429 0.049970753 -0.099280044 0.036423493 0.13391802
-0.20007116 -0.33676398 -0.09399732 -0.10685646 0.33808267 0.30931816 0.035248738 -0.16420859
0.24869972 -0.07135074 -0.19192053 0.4541085 -0.104540326 -0.056348074 -0.2414982 -0.07328604
0.22468662 0.007136053 -0.049610518 0.3849331 -0.22356598 0.08085037 -0.31007823 -0.07029166
00000000: ebb1 51bd a694 c73c 3840 04be 53ef 433e
00000010: f781 14bd 260c 86be 5676 b23d fbf1 38be
00000020: e44d 1abe 6db0 1a3b 3af1 fe3b 5589 2a3e
00000030: 845f fdbd d30c c33e c301 dc3d b0a1 5f3b
00000040: 7be8 483d f953 55be 9cb1 9c3e 48bb 2b3d
00000050: e126 4c3e 0e55 c5be 95c6 0e3d 643f 99bd
00000060: b53f 87be a269 9bbd fd97 8f3e a30a f83d
00000070: 7ae0 a43d b61e dfbd 1a00 0a3e b3ab 8dbe
00000080: bd31 003e 7c6c 84bd cf19 473e 707a 03bf
00000090: 4805 1bbd 5f7c ef3d 690d efbc 00b8 62bd
000000a0: 3c93 ad3d 4367 043e e638 4d3d e03f 5a3e
000000b0: 22ae 4c3d 5653 cbbd cd30 153d ce21 093e
000000c0: 74df 4cbe 546c acbe ab81 c0bd 8fd7 dabd
000000d0: 2c19 ad3e f35e 9e3e fb60 103d 4c26 28be
000000e0: 24ab 7e3e 5620 92bd d186 44be e980 e83e
000000f0: 3d19 d6bd 3dcd 66bd 4e4b 77be fe16 96bd
00000100: 4014 663e 8dd5 e93b 6634 4bbd f415 c53e
00000110: 7bee 64be e194 a53d 93c2 9ebe 13f5 8fbd

enc2.0.proj.pointwise.weight f4 [32, 8, 1, 1]
-0.3269211 0.17084062 -0.2755118 0.09357338 0.30218643 0.33590508 0.072747454 -0.10729979
0.011329502 0.24172111 -0.009397876 -0.051444773 -0.1946077 -0.05011877 -0.054719716 -0.0044259005
-0.74122745 0.118538104 0.2145404 0.32209587 0.09433253 0.11467331 0.111278266 -0.014752371
-0.2038736 0.25865206 0.10992484 0.3097873 -0.013975343 -0.00103694 0.08655064 -0.03446521
0.03909189 -0.25550035 0.079818316 0.18650785 0.02996855 0.038526464 0.2417964 0.08070497
-0.053366784 -0.1877709 0.33354115 0.048485164 0.3659342 -0.09321121 -0.4117396 -0.040169492
-0.06765891 0.16170435 0.19082186 0.34243783 0.023091972 0.18993127 0.15767635 -0.013731796
0.113606274 -0.075588696 0.28000435 0.22195679 0.1632576 -0.26484028 0.33825114 0.18082693
0.5839916 0.2234697 0.010978081 -0.21489559 0.05163232 -0.025398614 0.050981145 0.12864172
-0.41290772 0.19894964 -0.11930919 -0.009055341 0.08276216 -0.17269708 0.15160002 -0.10617495
-0.07049251 0.21035275 -0.10523976 -0.07404488 0.182291 -0.1318809 0.10718643 0.22687927
0.42235002 -0.19151592 -0.075047925 -0.20651345 0.06258614 0.21219474 0.04017445 0.11228549
0.07972601 -0.19789486 -0.31609824 0.035324384 -0.19197461 0.04726246 -0.0587113 0.021173432
0.17441793 0.053515583 -0.02831289 -0.21863748 -0.23395213 -0.15408133 0.09295142 -0.10974558
-0.030907521 0.119019955 0.06021637 0.038188286 0.49318692 0.16942674 -0.060353696 0.07525269
0.10665185 -0.17793748 0.08230682 -0.008198591 -0.5435567 0.27308556 0.53755933 -0.15312225
-0.062832214 0.081174485 -0.053806547 0.16802758 -0.49208975 -0.11479724 -0.20133358 0.057819773
-0.22279203 -0.030510297 -0.07396871 -0.38197836 0.0713239 0.27634007 -0.058893256 0.011271666
0.32092512 0.0017854536 -0.06531006 0.0408534 0.5136821 0.19237848 0.3021187 0.45809075
-0.23228152 -0.2228331 -0.022165954 0.21002977 -0.27762645 0.0826193 -0.07032384 -0.10305865
-0.26001543 0.11084962 -0.37495217 -0.01862996 0.2513887 0.23582233 0.146382 0.54662657
-0.09562308 -0.0062364796 -0.2605624 -0.29880673 0.40727267 0.2203881 0.021232873 -0.22843544
-0.13883972 0.07607865 -0.16188255 0.32934904 -0.16753109 0.2995928 0.24800004 0.1038293
0.74704903 -0.08419251 0.04076512 0.28585318 0.66354394 -0.28097072 0.21059263 0.16613854
0.14769146 0.2291828 -0.18342067 0.45111465 -0.2445378 0.27190703 0.077363946 -0.15036
-0.15210707 0.133311 -0.08760036 0.077470504 -0.1372601 -0.3777203 -0.3569378 0.331293
0.13535826 0.018822227 -0.5380295 0.21544649 0.19265616 0.24876581 -0.15477142 -0.36137858
-0.077723816 0.14512832 0.02375568 0.2113304 0.17045829 -0.33618933 0.56577706 -0.19265734
-0.13962413 -1.4976362 -0.18307817 0.040404264 0.5369271 0.26994213 0.035966814 0.1306513
-0.41661003 0.106034584 0.05821649 -0.13303763 0.15474498 0.044218287 -0.0044725784 -0.04079743
-0.80591166 -0.23454551 0.16299659 -0.2075336 -0.058838256 0.28307027 0.08996767 -0.36312386
-0.046276875 0.006189749 -0.013662392 -0.40702498 0.066414095 -0.010609737 -0.101623215 0.072528
00000000: 3462 a7be d8f0 2e3e e20f 8dbe 66a3 bf3d
00000010: 2eb8 9a3e c0fb ab3e 9efc 943d febf dbbd
00000020: 609f 393c bd85 773e 8df9 19bc c1b7 52bd
00000030: 3e47 47be 5749 4dbd c821 60bd 2507 91bb
00000040: 15c1 3dbf 1bc4 f23d 7bb0 5b3e c0e9 a43e
00000050: 6a31 c13d d7d9 ea3d dce5 e33d eeb3 71bc
00000060: 3ec4 50be 0b6e 843e 4620 e13d 719c 9e3e
00000070: d6f8 64bc efe9 87ba 7641 b13d 642b 0dbd
00000080: d11e 203d f1d0 82be c977 a33d eafb 3e3e
00000090: 9b80 f53c edcd 1d3d 7a99 773e a648 a53d
000000a0: 2197 5abd 0447 40be e8c5 aa3e 6198 463d
000000b0: ba5b bb3e 85e5 bebd 88cf d2be c488 24bd
000000c0: c190 8abd d395 253e ce66 433e 0354 af3e
000000d0: 602b bd3c 587d 423e e975 213e 54fb 60bc
000000e0: 68aa e83d 3fce 9abd bb5c 8f3e a448 633e
000000f0: 002d 273e 2599 87be 412f ad3e b22a 393e
00000100: 7980 153f 3ed5 643e 69dd 333c 970d 5cbe
00000110: 697c 533d c110 d0bc 9bd1 503d a8ba 033e
00000120: a468 d3be 74b9 4b3e 6058 f4bd da5c 14bc
00000130: 357f a93d 81d7 30be 093d 1b3e 4172 d9bd
00000140: 615e 90bd b666 573e f187 d7bd d8a4 97bd
00000150: 7eaa 3a3e c90b 07be 8f84 db3d 0a53 683e
00000160: 433e d83e c01c 44be bab2 99bd 4378 53be
00000170: 2a2d 803d 9449 593e f78d 243d eff5 e53d
00000180: 6447 a33d f3a4 4abe a1d7 a1be 4db0 103d
00000190: fe94 44be 4896 413d 437b 70bd e873 ad3c
000001a0: 9d9a 323e 2833 5b3d 6ff0 e7bc 81e2 5fbe
000001b0: 2691 6fbe 7fc7 1dbe 505d be3d 4ac2 e0bd
000001c0: c531 fdbc bcc0 f33d 71a5 763d 526b 1c3d
000001d0: ff82 fc3e 347e 2d3e 7035 77bd 151e 9a3d
000001e0: 496c da3d 3e35 36be 7a90 a83d 6253 06bc
000001f0: 8826 0bbf dfd1 8b3e 7d9d 093f 14cc 1cbe
00000200: 2dae 80bd cf3e a63d 4164 5cbd 6c0f 2c3e
00000210: 30f3 fbbe d11a ebbd 642a 4ebe 6dd4 6c3d
00000220: 9823 64be bbf0 f9bc e87c 97bd ab92 c3be
00000230: 4412 923d 727c 8d3e 0e3a 71bd cbac 383c
00000240: 4c50 a43e e205 ea3a 48c1 85bd e555 273d
00000250: ac80 033f ddfe 443e 4daf 9a3e df8a ea3e
00000260: 35db 6dbe 5c2e 64be 6095 b5bc 0b12 573e
00000270: 0e25 8ebe 4f34 a93d f205 90bd 6a10 d3bd
00000280: be20 85be 2005 e33d bbf9 bfbe dc9d 98bc
00000290: 05b6 803e 697b 713e 2ae5 153e b8ef 0b3f
000002a0: 09d6 c3bd 625b ccbb 6f68 85be 32fd 98be
000002b0: 0b86 d03e 6bad 613e 90f0 ad3c fbea 69be
000002c0: 002c 0ebe 20cf 9b3d 8ac4 25be 70a0 a83e
000002d0: 458d 2bbe 3a64 993e b9f3 7d3e 75a4 d43d
000002e0: 9b3e 3f3f 1f6d acbd 54f9 263d 595b 923e
000002f0: 04de 293f 65db 8fbe 98a5 573e 3920 2a3e
00000300: 6e3c 173e e5ae 6a3e a1d2 3bbe 80f8 e63e
00000310: 1e68 7abe 6637 8b3e fd70 9e3d f9f7 19be
00000320: f5c1 1bbe ae82 083e d167 b3bd dba8 9e3d
00000330: e98d 0cbe 8e64 c1be 8dc0 b6be 3c9f a93e
00000340: 5b9b 0a3e 1231 9a3c 4dbc 09bf 019e 5c3e
00000350: a847 453e 77bc 7e3e 667c 1ebe 9d06 b9be
00000360: aa2d 9fbd 859c 143e 469b c23c ff66 583e
00000370: 9e8c 2e3e 0221 acbe c4d6 103f f747 45be
00000380: a1f9 0ebe 8bb2 bfbf d878 3bbe f17e 253d
00000390: 0e74 093f db35 8a3e f051 133d 74c9 053e
000003a0: e94d d5be a928 d93d 6a74 6e3d 043b 08be
000003b0: 7875 1e3e 3c1e 353d b58e 92bb 351b 27bd
000003c0: 3a50 4ebf b32c 70be 94e8 263e b083 54be
000003d0: 6200 71bd 96ee 903e f840 b83d 5feb b9be
000003e0: d28c 3dbd 61d3 ca3b 3ad8 5fbc 9465 d0be
000003f0: 1d04 883d 76d4 2dbc d51f d0bd 8f89 943d

enc2.0.proj.pointwise.bias f4 [32]
0.14367281 -0.8703205 -0.16454689 -0.41312215 1.3360946 0.99801856 0.40409166 1.3110327
-0.7634444 -0.62090605 -0.48103523 1.3540109 1.2960541 0.3684562 -0.39365792 0.94907975
0.22981775 -0.55869037 0.25704283 1.2384974 0.39146194 0.03691717 0.886894 0.0016863917
1.1684538 -0.27090374 0.2863978 -0.17575431 0.47755903 -2.313308 -0.14062046 -0.16332246
00000000: f71e 133e 53cd 5ebf fb7e 28be bf84 d3be
00000010: 2605 ab3f 257e 7f3f 1ae5 ce3e ebcf a73f
00000020: 1871 43bf b3f3 1ebf 404a f6be 3b50 ad3f
00000030: 1ae5 a53f 4ba6 bc3e 888d c9be e4f6 723f
00000040: 5855 6b3e 5506 0fbf 1e9b 833e 1587 9e3f
00000050: b36d c83e 7536 173d 7c0b 633f ea09 dd3a
00000060: e58f 953f e5b3 8abe bca2 923e f0f8 33be
00000070: 9e82 f43e 3d0d 14c0 cffe 0fbe 013e 27be

enc2.1.conv1.depthwise.weight f4 [32, 1, 5, 5]
-0.06281301 0.33476198 -0.03654005 -0.14172956 -0.33372822 -0.17166588 0.21282947 -0.11353516
0.5738805 0.5154768 -0.33538404 -0.22577868 0.3134459 -0.32421753 0.09521603 0.03995223
-0.52991277 0.011293013 0.036704127 -0.19702764 0.12677017 0.03149553 -0.017787421 -0.057525974
0.022213036 -0.33202395 -0.28769884 -0.009419124 -0.2152972 0.13709366 -0.0855358 0.08362966
-0.07987357 0.18488304 0.14592437 -0.15270327 0.2915024 0.44474557 -0.28442174 -0.4462984
0.11260976 -0.034723427 0.6272694 -0.12355482 0.010390362 -0.08294967 0.066793635 0.06401415
-0.25745738 0.1257739 -0.117676765 -0.08127659 0.0685716 0.14329293 -0.22914141 0.016146695
0.13598211 0.25639585 -0.1962414 -0.18320435 -0.00596933 0.3427896 -0.044341598 -0.082526416
-0.23061162 0.17515936 0.065675445 -0.20640585 -0.13937233 0.4062198 -0.31097963 0.20170711
0.40753043 -0.30824336 -0.051997617 0.22135812 -0.24877535 -0.18854523 -0.0061630374 -0.19420452
0.51799196 0.617969 0.12795952 0.13712054 0.056907132 0.2374016 0.14953533 -0.3941121
-0.21270484 -0.01337572 0.24010232 0.45717362 -0.07168755 -0.33361715 0.20126665 -0.05575079
-0.02033289 -0.11855012 0.090951525 0.022969699 0.15810116 0.47722518 0.19644427 0.15673903
0.10818965 0.18995827 0.11911985 0.3903265 -0.2541371 -0.11505014 0.3610832 -0.10234118
0.12976071 -0.2764344 0.66231734 0.19924305 0.21370198 0.22182186 -0.19693679 -0.13493162
-0.3749015 0.5069578 0.18113926 0.18781549 -0.05656362 -0.34866613 -0.007141103 0.08164143
0.16036512 -0.36017737 0.3788635 0.12841375 0.033180665 0.32534608 0.17210716 -0.13146201
-0.25342306 -0.23080741 -0.3808815 -0.023546299 0.2826416 -0.21984518 -0.1865813 -0.115042746
8.26437e-05 0.08484477 -0.0006922447 -0.021542884 -0.31241328 -0.046690624 0.003402897 0.17580661
-0.14849943 -0.31032103 0.041566078 0.3822287 0.3389932 -0.06561072 -0.12864806 0.11377373
0.23298247 -0.034619205 0.020247249 0.0724843 0.39696062 -0.495406 0.31420624 -0.19174019
-0.43031055 -0.21433589 0.49212688 -0.18700288 -0.09675687 -0.08328972 0.20218866 0.45996758
0.156039 0.14715737 -0.41414884 0.03175477 0.54833674 0.22531423 -0.1647264 -0.28656295
0.18436791 0.027785188 0.20568563 -0.8557221 -0.5722454 -0.08394387 0.07913467 -0.27899066
0.20083226 0.2854241 0.13316062 0.007818157 0.14682554 0.121648744 -0.18112409 0.39054903
-0.27757478 0.04165444 -0.04067066 0.02529264 -0.31023607 0.015123178 0.5103838 -0.047343057
0.20539716 -0.2183105 -0.36159652 0.006251164 -0.26968136 0.10999537 -0.0933377 -0.04287451
0.38711557 -0.41627392 0.48497188 0.05680517 -0.05904311 -0.01807231 0.016560461 -0.07385794
0.015248636 0.08817478 0.010876464 -0.17537414 -0.2691686 0.03888005 -0.004971239 -0.39917985
0.5043773 0.07788419 -0.31614888 -0.2729139 0.07550307 0.46806777 0.22397111 -0.2930102
0.2550712 -0.17282777 0.21827894 0.03031259 0.19690637 -0.15051527 0.21511783 -0.2690789
-0.17886601 0.12583596 0.19978075 -0.03581449 0.11502087 -0.06623123 -0.13128698 -0.29097542
00000000: 1ba4 80bd ec65 ab3e 05ab 15bd 8e21 11be
00000010: 6dde aabe 2ec9 2fbe f8ef 593e 1f85 e8bd
00000020: d5e9 123f 4af6 033f 75b7 abbe 8732 67be
00000030: fb7b a03e d7ff a5be 9f00 c33d f3a4 233d
00000040: 5da8 07bf 5406 393c 1157 163d 9dc1 49be
00000050: 0ad0 013e 7501 013d edb6 91bc 5ba0 6bbd
00000060: 1df8 b53c 0bff a9be 434d 93be ab52 1abc
00000070: df76 5cbe 4862 0c3e 652d afbd 0746 ab3d
00000080: c194 a3bd fb51 3d3e 336d 153e 3f5e 1cbe
00000090: cd3f 953e b1b5 e33e ba9f 91be 3981 e4be
000000a0: f29f e63d 273a 0ebd ba94 203f 4f0a fdbd
000000b0: 563c 2a3c 84e1 a9bd 1acb 883d da19 833d
000000c0: 74d1 83be e0ca 003e 8400 f1bd 5774 a6bd
000000d0: 446f 8c3d 62bb 123e 0ca4 6abe 1346 843c
000000e0: e53e 0b3e 5146 833e 81f3 48be ec99 3bbe
000000f0: 5f9a c3bb 1e82 af3e 899f 35bd 9c03 a9bd
00000100: 7425 6cbe fa5c 333e d980 863d 0e5c 53be
00000110: 9fb7 0ebe 0bfc cf3e b938 9fbe 4f8c 4e3e
00000120: d4a7 d03e 13d2 9dbe 74fb 54bd b4ab 623e
00000130: f7be 7ebe 0012 41be 4ef3 c9bb 8ddd 46be
00000140: 1f9b 043f 3733 1e3f d207 033e 5469 0c3e
00000150: 7417 693d 6819 733e ca1f 193e 10c9 c9be
00000160: 4ccf 59be d625 5bbc 62dd 753e a912 ea3e
00000170: ecd0 92bd decf aabe d818 4e3e f15a 64bd
00000180: 2991 a6bc 68ca f2bd cb44 ba3d f32a bc3c
00000190: 45e5 213e dc56 f43e b028 493e 3280 203e
000001a0: 8992 dd3d 6c84 423e 1cf5 f33d e0d8 c73e
000001b0: 421e 82be 689f ebbd e6df b83e 4198 d1bd
000001c0: fedf 043e cf88 8dbe a18d 293f 5f06 4c3e
000001d0: b1d4 5a3e 4525 633e cca9 49be 842b 0abe
000001e0: 17f3 bfbe fdc7 013f 927c 393e b452 403e
000001f0: 41af 67bd 5e84 b2be eaff e9bb 9f33 a73d
00000200: c136 243e 2b69 b8be 66fa c13e e57e 033e
00000210: 73e8 073d c393 a63e dc3c 303e fa9d 06be
00000220: abc0 81be c758 6cbe e602 c3be 2be4 c0bc
00000230: 66b6 903e 181f 61be 2b0f 3fbe 889b ebbd
00000240: 0051 ad38 18c3 ad3d c177 35ba b47a b0bc
00000250: a2f4 9fbe ab3e 3fbd 2303 5f3b a606 343e
00000260: 3c10 18be 66e2 9ebe 3141 2a3d 7bb3 c33e
00000270: 8490 ad3e ea5e 86bd 51bc 03be 3402 e93d
00000280: f592 6e3e decc 0dbd 8fdd a53c a672 943d
00000290: 6c3e cb3e dba5 fdbe a4df a03e 8a57 44be
000002a0: aa51 dcbe de7a 5bbe 0ef8 fb3e af7d 3fbe
000002b0: 7728 c6bd cd93 aabd 8b0a 4f3e df80 eb3e
000002c0: b0c8 1f3e 6cb0 163e 510b d4be 4a11 023d
000002d0: cc5f 0c3f c6b8 663e 0aae 28be 61b8 92be
000002e0: f1ca 3c3e c39d e33c 419f 523e 9b10 5bbf
000002f0: ad7e 12bf c4ea abbd 5c11 a23d ddd7 8ebe
00000300: f9a6 4d3e 1c23 923e 425b 083e ba17 003c
00000310: 6f59 163e fa22 f93d 9878 39be 0bf6 c73e
00000320: 481e 8ebe d99d 2a3d 4796 26bd 8332 cf3c
00000330: 43d7 9ebe 35c7 773c 83a8 023f cbea 41bd
00000340: a253 523e ca8c 5fbe 2e23 b9be 90d6 cc3b
00000350: ad13 8abe 4145 e13d d627 bfbd 2f9d 2fbd
00000360: 0334 c63e db21 d5be 3c4e f83e 8aac 683d
00000370: 30d7 71bd 620c 94bc cea9 873c d542 97bd
00000380: 6ad5 793c fb94 b43d 3233 323c 4795 33be
00000390: 77d0 89be b040 1f3d c6e5 a2bb 4d61 ccbe
000003a0: df1e 013f bf81 9f3d 44de a1be 5fbb 8bbe
000003b0: 5ba1 9a3d 94a6 ef3e af58 653e 6f05 96be
000003c0: b198 823e c3f9 30be 8484 5f3e 1c52 f83c
000003d0: d3a1 493e ad20 1abe d947 5c3e b6c4 89be
000003e0: a728 37be 24db 003e 5393 4c3e 37b2 12bd
000003f0: 1090 eb3d 3da4 87bd 1870 06be bbfa 94be

enc2.1.conv1.pointwise.weight f4 [8, 32, 1, 1]
-0.17352475 -0.0047637457 -0.030610926 -0.11853018 -0.9968591 0.4049236 -0.09001802 -0.34137395
0.17301774 0.20833866 -0.04408279 -0.10957612 -0.1278475 0.08970027 -0.0015968494 -0.3758501
0.33391052 0.10569921 -0.3449741 0.27884054 0.16277397 0.07265332 0.074744165 0.16664502
0.3399459 -0.09547289 0.038493417 -0.053184357 0.14690755 -0.027892945 0.29071358 -0.0041732583
0.09572929 -0.14516185 -0.12197733 0.093261674 0.13324168 0.04817144 0.08765936 0.16717029
-0.14265302 0.059353825 -0.14262772 0.15981391 -0.33516723 0.03261564 0.04528256 0.15587188
0.091739886 -0.21379368 0.11385037 -0.3399132 -0.004747336 0.042411238 0.036879852 0.25194317
-0.23657984 -0.14419104 0.12009373 0.12484565 -0.6744152 0.3307893 0.09510053 -0.1977351
-0.13669674 -0.06481712 -0.1873163 -0.012209568 -0.3503342 0.20473716 0.20512763 -0.33439755
0.03689882 0.076368414 0.039414342 0.1910833 0.30453315 0.12809522 0.07616314 -0.29435757
-0.022337252 -0.10356883 0.020926824 0.09544941 0.2007467 -0.065912075 0.0836257 0.64186025
0.09318171 0.0047977385 -0.13850346 0.11380155 -0.099917375 -0.2878699 -0.035319973 0.06747024
0.05994651 -0.050867632 -0.05984964 -0.40708378 -0.19234684 -0.04946288 -0.07696533 0.05495454
-0.11798871 -0.022028169 -0.08178739 0.30932385 0.21492857 0.034465242 0.13209291 0.16006756
0.0014268595 0.060297564 -0.108507596 -0.31215012 0.09635109 0.21494158 -0.043069575 0.12611564
-0.06280739 -0.059006542 -0.4547361 0.1189262 -0.07022352 0.27888286 -0.006844066 0.06520302
-0.11238886 0.007158671 0.13961527 0.0399619 -0.1539792 0.00738224 0.27268124 0.5690704
0.015408287 -0.047806013 0.010511256 -0.5151906 -0.45764703 0.00900859 0.062259097 -0.25091156
0.15950312 0.21223122 0.005678469 -0.02882641 0.08352664 0.45709407 -0.22729152 -0.2850527
-0.047618017 0.13481268 0.05170578 0.21617705 -0.053868927 0.93608373 0.21353841 -0.07235984
0.38203904 -0.08418743 -0.10002069 0.053837605 -0.1595753 0.090081036 -0.12373652 -0.03440422
0.0658946 0.060571983 -0.09499695 -0.4499256 -0.1740828 0.025966601 -0.12490176 -0.4966987
0.035300955 0.28235662 -0.123368904 0.63408554 0.526456 0.13046706 -0.15283032 0.062722996
0.019879015 0.049258746 -0.024755543 -0.10024838 -0.57130206 -0.0841777 -0.15691301 -0.09458278
0.08724147 0.055847667 0.03527346 0.102766775 -0.4364057 -0.0038278436 0.2507229 0.06459703
0.04498684 -0.023743533 -0.10644377 -0.30019426 -0.26410782 -0.20231383 -0.0024255181 0.08017358
0.04988489 -0.08088066 -0.40627497 0.39715588 -0.28798792 0.27907535 0.0045053153 -0.19131215
0.01338844 0.039707355 0.154893 -0.15395872 0.19398215 -0.3526161 0.15175833 0.026336279
0.058415085 0.20415334 0.015773304 -0.33101276 -1.0182122 0.053898845 -0.038132116 -0.3473102
-0.10249026 0.2468727 -0.08089751 -0.25461382 -0.34198844 -0.12882766 -0.23593299 0.2776374
-0.07566379 -0.038178798 0.08239204 0.26236108 0.2932346 -0.030834317 0.26327366 -0.14126335
0.0960574 -0.071477465 -0.30967388 0.07850229 0.2850481 -0.2777547 -0.4481102 -0.010725063
00000000: 79b0 31be 3219 9cbb c4c3 fabc f3bf f2bd
00000010: 2832 7fbf 2552 cf3e 5e5b b8bd 91c8 aebe
00000020: 902b 313e bb56 553e 2890 34bd 7269 e0bd
00000030: 74ea 02be c6b4 b73d 604d d1ba 6d6f c0be
00000040: 52f6 aa3e d478 d83d 72a0 b0be 30c4 8e3e
00000050: 38ae 263e 44cb 943d 7813 993d fea4 2a3e
00000060: 640d ae3e 4a87 c3bd 46ab 1d3d d7d7 59bd
00000070: ef6e 163e bf7f e4bc 69d8 943e d4bf 88bb
00000080: b80d c43d 4fa5 14be 40cf f9bd faff be3d
00000090: 8270 083e 6a4f 453d c086 b33d b02e 2b3e
000000a0: a213 12be ff1c 733d 000d 12be 42a6 233e
000000b0: 0a9b abbe fa97 053d 357a 393d e19c 1f3e
000000c0: 1fe2 bb3d bbec 5abe 622a e93d 1a09 aebe
000000d0: 8a8f 9bbb 68b7 2d3d 540f 173d b2fe 803e
000000e0: fc41 72be d1a6 13be b4f3 f53d 13af ff3d
000000f0: 79a6 2cbf 375d a93e 11c4 c23d 127b 4abe
00000100: 3bfa 0bbe d7be 84bd d8cf 3fbe a40a 48bc
00000110: 015f b3be 9ea6 513e fa0c 523e 2836 abbe
00000120: 3823 173d 0b67 9c3d ef70 213d 57ab 433e
00000130: c5eb 9b3e 652b 033e 6cfb 9b3d 09b6 96be
00000140: 9dfc b6bc e51b d4bd bb6e ab3c fb7a c33d
00000150: 8b90 4d3e e9fc 86bd f343 ab3d f450 243f
00000160: 0dd6 be3d 5936 9d3b dad3 0dbe c910 e93d
00000170: 7ba1 ccbd af63 93be adab 10bd d62d 8a3d
00000180: 798a 753d 945a 50bd e524 75bd 496d d0be
00000190: 92f6 44be 9799 4abd 00a0 9dbd 0318 613d
000001a0: 11a4 f1bd 6b74 b4bc 2680 a7bd b25f 9e3e
000001b0: 3c16 5c3e 6d2b 0d3d 5d43 073e c0e8 233e
000001c0: 7605 bb3a 94fa 763d 3b39 debd 24d2 9fbe
000001d0: b853 c53d a519 5c3e b969 30bd 7524 013e
000001e0: 29a1 80bd d8b0 71bd 2cd3 e8be 948f f33d
000001f0: 59d1 8fbd bcc9 8e3e 3044 e0bb 2989 853d
00000200: 212c e6bd 4993 ea3b 4ef7 0e3e 17af 233d
00000210: b9ac 1dbe b8e6 f13b e09c 8b3e 99ae 113f
00000220: 0a73 7c3c 3dd0 43bd 6737 2c3c 88e3 03bf
00000230: b650 eabe c498 133c 6503 7f3d 7b77 80be
00000240: c954 233e 2453 593e 7312 ba3b 5d25 ecbc
00000250: 0410 ab3d 3c08 ea3e 1cbf 68be 6df2 91be
00000260: 1c0b 43bd 560c 0a3e 71c9 533d 845d 5d3e
00000270: aaa5 5cbd 2fa3 6f3f d0a9 5a3e 6531 94bd
00000280: 9f9a c33e 766a acbd a6d7 ccbd d284 5c3d
00000290: b567 23be 687c b83d 9369 fdbd 70eb 0cbd
000002a0: bff3 863d 541a 783d c38d c2bd a65c e6be
000002b0: c342 32be e9b7 d43c 7ecc ffbd 4b4f febe
000002c0: bc97 103d 0c91 903e d6a8 fcbd 6e53 223f
000002d0: d2c5 063f 2899 053e 8d7f 1cbe ea74 803d
000002e0: 51d9 a23c 8ac3 493d 23cc cabc 064f cdbd
000002f0: da40 12bf 5c65 acbd cead 20be 9eb4 c1bd
00000300: a8ab b23d 86c0 643d e77a 103d 6377 d23d
00000310: 9170 dfbe 8fdc 7abb c05e 803e 734b 843d
00000320: 1f44 383d cc81 c2bc 31ff d9bd 10b3 99be
00000330: 2439 87be 5b2b 4fbe 71f5 1ebb 0c32 a43d
00000340: 1954 4c3d c2a4 a5bd 4603 d0be 0458 cb3e
00000350: 2773 93be f7e2 8e3e 53a1 933b 55e7 43be
00000360: 305b 5b3c 2ea4 223d 459c 1e3e 5ba7 1dbe
00000370: 42a3 463e 198a b4be 8966 1b3e 2ebf d73c
00000380: a844 6f3d 930d 513e 0437 813c 817a a9be
00000390: c754 82bf 09c5 5c3d 6c30 1cbd a4d2 b1be
000003a0: 6ae6 d1bd 32cc 7c3e 98ad a5bd be5c 82be
000003b0: 1c19 afbe 66eb 03be 6b98 71be 7d26 8e3e
000003c0: 9ef5 9abd 5f61 1cbd 28bd a83d 3154 863e
000003d0: d822 963e 4098 fcbc cecb 863e 57a7 10be
000003e0: beb9 c43d c762 92bd 938d 9ebe cfc5 a03d
000003f0: d3f1 913e dd35 8ebe b36e e5be 2db8 2fbc

enc2.1.conv1.pointwise.bias f4 [8]
-3.4623482 0.27415177 0.2945362 0.44288152 0.65252185 -1.6878027 -2.4015777 -0.73406905
00000000: 1d97 5dc0 9f5d 8c3e 73cd 963e 5ec1 e23e
00000010: ac0b 273f eb09 d8bf 73b3 19c0 f3eb 3bbf

enc2.1.conv2.depthwise.weight f4 [8, 1, 5, 5]
-0.011919116 0.056458343 -0.22886197 -0.07550367 -0.15925755 -0.0011945266 -0.23803651 0.047265127
-0.32558724 0.17008159 -0.01925836 -0.071298905 -0.04411454 0.65568197 -0.27464885 -0.06301513
0.16290513 -0.62357074 -0.5031262 0.28134385 0.18064827 -0.030524729 0.025523268 0.16211054
0.1939673 0.036925916 -0.1032092 0.017551681 0.14815062 0.07924466 0.094188854 -0.3199839
-0.019744199 -0.14927103 -0.2586622 -0.2495394 0.27335423 0.78862804 -0.16364983 0.17052075
0.26289478 -0.17122911 0.05203856 -0.21052772 0.07456833 -0.16318981 0.02022241 -0.09337155
-0.0020081985 -0.0007982839 0.09412199 -0.04125095 -0.22466184 0.10186677 0.012358292 -0.15090185
0.102543846 0.11144213 0.099410124 -0.0033927322 -0.016009146 -0.0898663 -0.010362858 0.011124768
-0.044762995 0.026984485 0.113587536 0.02215248 -0.095948085 0.1529439 0.10601271 0.48494485
-0.062219523 -0.08506111 -0.026353965 0.09198692 -0.004931797 0.024699204 -0.0384985 -0.19087245
0.00477327 -0.0014308593 -0.17210901 0.058071565 0.25618595 -0.22305346 0.113311134 -0.21967801
0.5642559 0.1914644 -0.08381206 0.002902372 -0.07637463 0.09872658 0.031692933 0.26498404
-0.025701908 -0.012262807 0.06925321 -0.1661444 0.1373185 -0.22260156 0.11353693 -0.10820416
0.1758235 -0.08984941 -0.03237291 -0.050073538 0.24394637 -0.23511007 0.24589859 0.107982785
0.019555332 0.10530847 0.1627076 -0.2211633 0.16029122 -0.012732678 0.25599328 0.15697575
-0.03190438 -0.075933665 0.04146159 0.056781966 -0.08391856 -0.08414092 0.10852222 -0.16042398
0.03982101 0.0515497 0.05311307 0.21044695 0.22727175 0.008391076 -0.12676784 -0.06801618
-0.10989814 0.051239915 0.16509284 -0.15081923 -0.22334808 -0.2985159 -0.55766934 -0.0015652145
0.105653465 0.12805688 0.06725625 -0.011249106 0.01658624 -0.024815585 -0.0068430216 -0.11152707
0.12022005 -0.002036806 -0.007363155 -0.049345788 0.025598401 0.08549358 -0.106416464 0.13246329
0.027309904 0.007050829 0.032163903 0.21884468 0.08280806 0.12347247 0.040889148 0.23045555
0.6225399 -0.14952078 0.041818745 -0.06516534 0.06831366 0.4116147 0.38984743 -0.106787995
-0.058341287 -0.2662463 0.15090004 0.06049943 -0.08409174 0.07627118 -0.053512573 -0.116245076
-0.20104931 0.11368348 -0.37476277 0.4757847 0.081638545 -0.2520767 -0.22698498 0.0901479
0.24952786 -0.47589687 -0.009763173 0.22674195 -0.07103872 -0.084533475 -0.20561628 0.09070667
00000000: 6548 43bc dd40 673d cb5a 6abe aba1 9abd
00000010: 6914 23be a991 9cba d8bf 73be 1499 413d
00000020: 5fb3 a6be de29 2e3e b5c3 9dbc 2905 92bd
00000030: 73b1 34bd c6da 273f c69e 8cbe 140e 81bd
00000040: 9ad0 263e 55a2 1fbf e1cc 00bf 4d0c 903e
00000050: dcfb 383e ff0e fabc 2c16 d13c 4e00 263e
00000060: 5d9f 463e a13f 173d 585f d3bd 8bc8 8f3c
00000070: ccb4 173e 064b a23d 16e6 c03d eed4 a3be
00000080: 96be a1bc 81da 18be 5f6f 84be 4287 7fbe
00000090: 16f5 8b3e 87e3 493f d293 27be fe9c 2e3e
000000a0: 259a 863e af56 2fbe 6326 553d 9494 57be
000000b0: 48b7 983d 3b1b 27be 78a9 a53c 9539 bfbd
000000c0: fb9b 03bb ed43 51ba 08c3 c03d c2f6 28bd
000000d0: c10d 66be 869f d03d 6f7a 4a3c 0486 1abe
000000e0: 8202 d23d c53b e43d 8997 cb3d 9a58 5ebb
000000f0: 9d25 83bc d30b b8bd fac8 29bc a944 363c
00000100: 6759 37bd 910e dd3c 95a0 e83d 1e79 b53c
00000110: 6e80 c4bd 539d 1c3e 311d d93d b14a f83e
00000120: e6d9 7ebd 8534 aebd 45e4 d7bc a363 bc3d
00000130: e99a a1bb fc55 ca3c 9ab0 1dbd 1174 43be
00000140: 1769 9c3b ac8b bbba 583d 30be 73dc 6d3d
00000150: ce2a 833e 2068 64be ab0f e83d 46f3 60be
00000160: 1373 103f 3e0f 443e a8a5 abbd b935 3e3b
00000170: 4d6a 9cbd 2931 ca3d 73d0 013d fdab 873e
00000180: cf8c d2bc f1e9 48bc a1d4 8d3d c221 2abe
00000190: 399d 0c3e aaf1 63be 0d86 e83d 259a ddbd
000001a0: 130b 343e f802 b8bd 7599 04bd e919 4dbd
000001b0: 14cd 793e b2c0 70be d7cc 7b3e 1426 dd3d
000001c0: 8132 a03c f8ab d73d d29c 263e a278 62be
000001d0: 6223 243e b99c 50bc 8d11 833e 40be 203e
000001e0: 2bae 02bd 1c83 9bbd a1d3 293d 3594 683d
000001f0: 7edd abbd 1352 acbd e640 de3d 2f46 24be
00000200: 5b1b 233d c725 533d 178d 593d 687f 573e
00000210: edb9 683e b97a 093c 6ecf 01be 114c 8bbd
00000220: 4712 e1bd f2e0 513d 190e 293e 5b70 1abe
00000230: 5cb5 64be 13d7 98be 6bc3 0ebf e227 cdba
00000240: d860 d83d 5821 033e a5bd 893d 2c4e 38bc
00000250: dedf 873c 0e4a cbbc 6d3b e0bb 4e68 e4bd
00000260: ee35 f63d ef7b 05bb 9f46 f1bb cf1e 4abd
00000270: bdb3 d13c 4217 af3d e0f0 d9bd 75a4 073e
00000280: 05b9 df3c a40a e73b 4cbe 033d d218 603e
00000290: 4697 a93d 22df fc3d 617b 273d 8afc 6b3e
000002a0: c65e 1f3f fa1b 19be 224a 2b3d 6875 85bd
000002b0: 08e8 8b3d 29bf d23e 159a c73e aab3 dabd
000002c0: 46f7 6ebd 6f51 88be 8a85 1a3e 40ce 773d
000002d0: 4a38 acbd 1034 9c3d 0030 5bbd e611 eebd
000002e0: dfdf 4dbe e2d2 e83d e8e0 bfbe 0d9a f33e
000002f0: 1c32 a73d 3210 81be c06e 68be 769f b83d
00000300: 3b84 7f3e c1a8 f3be b7f5 1fbc 0b2f 683e
00000310: c07c 91bd e31f adbd 138d 52be 6bc4 b93d
