archs/basicSR_models/weights/PMRIDd2_denoise_rescaled.pth (torch, 288479 bytes, 115 tensors)

conv0.conv.weight f4 [8, 3, 3, 3]
-0.037696935 0.0017562548 0.019166876 -0.01441792 -0.33198842 0.0077370903 -0.008669164 -0.060147434
0.015664313 0.032988127 0.07350441 0.06176372 0.110041074 0.56698763 0.08673604 0.10378607
0.0883168 0.08441163 0.0025492879 -0.03304504 -0.056500725 -0.13523537 -0.13694832 -0.04847873
-0.08149908 0.06629927 -0.05717833 0.003640086 -0.003175838 0.0075902245 -0.002696184 -0.013202189
0.035226393 0.0033391933 0.052343972 0.0068356497 0.016530422 0.03694494 0.04787752 0.052220292
0.6422948 0.021358123 0.0016913689 0.03520418 -0.0034051633 0.010510589 0.03254475 -0.013387799
0.018165099 -0.44049686 -0.022177221 0.0319294 -0.058447435 0.0046636476 -0.016986415 -0.04348981
-0.08228437 0.007938563 0.76169306 -0.022215309 0.015432372 0.026028806 0.0018113598 -0.0044377893
0.00070344383 0.011810721 -0.013508849 -0.044432085 0.0027709384 -0.004784748 0.024395877 0.04843794
-0.0013855435 0.067682534 0.08729232 -0.00040989902 -0.44828942 0.036236733 0.004717626 -0.008384422
0.035617284 0.01001328 -0.008583961 0.01071783 0.05539603 -0.021547345 -0.03472808 0.36269394
-0.37567344 0.0043924046 0.0015434041 -0.009399535 0.008685922 0.05613698 -0.014110502 -0.0313002
0.3718745 -0.3869518 -0.008121012 -0.003207178 -0.024090517 0.013381917 0.06734039 -0.007688309
-0.038321305 0.38737455 -0.41895357 -0.008919944 -0.023857841 -0.023860278 0.020330671 -0.02575924
0.37602887 -0.06263929 0.006947467 -0.043762095 -0.010609531 -0.02839058 -0.0074020363 0.022212714
-0.017188719 0.3524373 -0.038955923 0.020082124 -0.027151916 0.01623788 -0.023928711 -0.0075167054
0.0013542159 -0.038641807 0.3726554 -0.052395817 -0.010709023 0.0011493952 -0.01372442 -0.10189067
0.046189968 -0.070279665 -0.09280783 0.0860963 -0.075924665 -0.037270296 -0.0644554 -0.03447454
0.009859822 -0.025257807 -0.042761594 0.012884311 -0.008244598 0.07957811 0.0074158926 -0.002946813
0.011590334 -0.035991546 0.16344972 -0.00036804966 0.119311996 0.66146404 0.14670014 0.09578229
0.0224649 0.07638628 -0.02540837 0.020931633 -0.007780305 -0.012047523 -0.3032032 -0.045974337
0.026294688 0.32024407 0.050455313 -0.0104207015 0.027724804 -0.0046699448 -0.031127894 -0.31303543
-0.03776252 0.034691554 0.32269368 0.049540438 -0.008685192 0.028927356 -0.0005878436 -0.03220314
-0.31008077 -0.051337518 0.02438427 0.3175549 0.04681007 0.002852371 0.027079534 -0.012809237
-0.032882415 -0.34173393 -0.02405858 0.024999522 0.29969558 0.050047997 0.0014306649 0.020482069
-0.0083866 -0.035384495 -0.351715 -0.03289395 0.034412164 0.3105814 0.05049414 -0.003060518
0.009747676 -0.017790899 -0.034117617 -0.36671492 -0.02926495 0.041311976 0.32167315 0.04656807
00000000: 1a68 1abd 2232 e63a da03 9d3c 2439 6cbc
00000010: 63fa a9be 6b87 fd3b 1c09 0ebc 285d 76bd
00000020: 7252 803c 8f1e 073d 7b89 963d f4fb 7c3d
00000030: 375d e13d 1a26 113f aaa2 b13d cb8d d43d
00000040: 70df b43d 01e0 ac3d f411 273b 3c5a 07bd
00000050: 4e6d 67bd 247b 0abe 2e3c 0cbe a291 46bd
00000060: fde8 a6bd e9c7 873d d333 6abd 828e 6e3b
00000070: b821 50bb 6bb7 f83b 76b2 30bb fe4d 58bc
00000080: 8d49 103d 5ed6 5a3b a266 563d 96fd df3b
00000090: cf6a 873c 9453 173d 381b 443d f2e4 553d
000000a0: 6f6d 243f 3bf7 ae3c ecb0 dd3a 4232 103d
000000b0: 2929 5fbb 9b34 2c3c a54d 053d 8058 5bbc
000000c0: f9ce 943c ce88 e1be 01ad b5bc 67c8 023d
000000d0: 9466 6fbd 83d1 983b 1827 8bbc 5f22 32bd
000000e0: b584 a8bd bf10 023c 51fe 423f e1fc b5bc
000000f0: 0fd8 7c3c 5d3a d53c 266b ed3a e06a 91bb
00000100: 5167 383a c181 413c 3854 5dbc 6bfe 35bd
00000110: a298 353b 60c9 9cbb ddd9 c73c dd66 463d
00000120: 209b b5ba 249d 8a3d 51c6 b23d b7e7 d6b9
00000130: 3186 e5be f86c 143d 5196 9a3b d15e 09bc
00000140: 6ee3 113d be0e 243c bea3 0cbc d699 2f3c
00000150: f3e6 623d 0f84 b0bc 083f 0ebd 05b3 b93e
00000160: 4558 c0be 29ee 8f3b 0c4c ca3a 8200 1abc
00000170: 664f 0e3c e4ef 653d bc2f 67bc a334 00bd
00000180: 5666 be3e 8c1e c6be fe0d 05bc 852f 52bb
00000190: 7a59 c5bc d43f 5b3c c2e9 893d 36ee fbbb
000001a0: cdf6 1cbd f555 c63e 1581 d6be f524 12bc
000001b0: 8571 c3bc a176 c3bc 828c a63c 0b05 d3bc
000001c0: db86 c03e 0749 80bd 94a7 e33b e23f 33bd
000001d0: 99d3 2dbc 5d93 e8bc c88c f2bb 70f7 b53c
000001e0: 5bcf 8cbc a972 b43e 3f90 1fbd 4483 a43c
000001f0: b26d debc 4d05 853c 2506 c4bc b24e f6bb
00000200: f27f b13a df46 1ebd b0cc be3e ff9c 56bd
00000210: e674 2fbc 4ea7 963a 64dc 60bc 0eac d0bd
00000220: b131 3d3d c9ee 8fbd 0812 bebd 4253 b03d
00000230: 647e 9bbd bda8 18bd 3101 84bd 2d35 0dbd
00000240: 178b 213c 76e9 cebc c826 2fbd b818 533c
00000250: 5a14 07bc d9f9 a23d 0401 f33b 511f 41bb
00000260: 62e5 3d3c df6b 13bd 5d5f 273e caf6 c0b9
00000270: d959 f43d b555 293f 9038 163e 8129 c43d
00000280: 4f08 b83c 6970 9c3d 3725 d0bc d178 ab3c
00000290: eef1 febb f962 45bc 733d 9bbe 964f 3cbd
000002a0: f567 d73c 08f7 a33e 3baa 4e3d 97bb 2abc
000002b0: 211f e33c 5606 99bb edff febc 2e46 a0be
000002c0: dfac 1abd bb18 0e3d 1b38 a53e eaea 4a3d
000002d0: 564c 0ebc 10f9 ec3c 8419 1aba 71e7 03bd
000002e0: e8c2 9ebe 4a47 52bd 85c1 c73c 8e96 a23e
000002f0: eabb 3f3d d8ee 3a3b e6d5 dd3c d6dd 51bc
00000300: b6af 06bd c0f7 aebe 8016 c5bc cccb cc3c
00000310: b371 993e 21ff 4c3d 2685 bb3a 03ca a73c
00000320: f367 09bc 55ef 10bd fd13 b4be cebb 06bd
00000330: c5f3 0c3d 8604 9f3e f1d2 4e3d f992 48bb
00000340: b7b4 1f3c 38be 91bc eabe 0bbd 0fc2 bbbe
00000350: 0cbd efbc bf36 293d 58b2 a43e 29be 3e3d

conv0.conv.bias f4 [8]
5.4288836 4.7824955 3.6210105 -3.553949 6.186236 0.5344057 8.523954 -6.7455587
00000000: 6ab9 ad40 340a 9940 a3be 6740 e773 63c0
00000010: a5f5 c540 d0ce 083f 1e62 0841 9edb d7c0

enc2.0.conv1.depthwise.weight f4 [8, 1, 5, 5]
-0.020877058 -0.00012993706 0.005268389 0.08313844 -0.005924746 0.006396227 -0.01741967 -0.022464784
-0.049366873 -0.020529296 -0.034013003 -0.07863292 0.0035250233 0.058338538 0.05429534 0.042119816
0.071367554 0.13726123 0.28651088 0.03870161 0.008447062 0.04809747 0.036079466 0.051313337
0.043513604 -0.016525215 0.0015518714 0.01702067 0.056754526 0.0011709955 -0.0021614912 -0.01011032
0.0053277323 -0.025142206 -0.01045744 -0.0396703 -0.041036543 0.03066108 0.07493563 0.05367372
0.018936146 0.06709309 0.15449052 0.22746393 0.06813977 0.03064683 0.068001166 0.094728224
0.0704682 0.07618336 0.083839856 0.1250762 0.06791783 0.012088824 0.009596648 0.077326976
0.15814286 0.19410118 0.085939005 0.032886747 0.006281909 -0.49492422 0.2463279 0.023041004
0.022682145 -0.11324638 -0.5450938 0.15592223 -0.074450105 0.0022340782 0.08149371 0.062319245
0.069702856 -0.00042077608 -0.0021230227 -0.0042875237 -0.009716122 0.020337716 -0.009713679 -0.016233798
-0.017804476 -0.08154457 0.030776659 0.00876686 -0.039952066 -0.07328834 -0.25946215 -0.14527604
-0.07212029 -0.036792696 0.086228766 -0.26465628 -0.41981596 -0.09839395 0.010310169 0.01044783
-0.3113596 -0.25409725 0.116098456 0.05223112 -0.0031117506 -0.0038320443 0.027135266 0.0035547474
0.026843928 -0.03448248 -0.08960719 -0.16468237 -0.21827768 -0.014196198 0.0109364 -0.024957854
-0.097861014 -0.30464596 -0.037642896 0.06610904 0.13960674 0.20926231 -0.09844031 -0.016353317
-0.001333866 0.045268103 0.049981877 -0.026964279 -0.044525225 -0.11225501 -0.12814991 -0.13375252
-0.069786906 -0.02411184 -0.09576441 -0.16746351 -0.2453801 -0.07234353 -0.047880463 0.126191
0.12359975 -0.20675926 0.0029273136 -0.03336424 0.2728374 0.55404365 0.027011497 0.09527513
-0.038062666 -0.11232097 -0.01091381 -0.048389718 0.032764077 0.021172468 -0.014716567 0.0030773873
-0.025386209 -0.051252592 -0.014787825 -0.031165121 -0.01957336 -0.1586779 -0.20545301 -0.049546823
-0.024694463 -0.10298693 -0.35075185 -0.34374973 -0.07025453 -0.02504564 -0.1312159 -0.28684992
-0.21152307 -0.039333712 -0.0015195028 -0.050614942 -0.08613825 -0.02818 0.009272944 -0.03385987
-0.017774763 -0.03488876 -0.051097468 -0.010231842 -0.029463828 -0.09973828 -0.25738353 -0.23611303
-0.035465248 -0.012650487 -0.21085055 -0.45579046 -0.40047878 -0.052357018 -0.009511195 -0.18035035
-0.3999973 -0.29769307 -0.046520036 0.0021669352 -0.052784774 -0.09537204 -0.05363815 0.010873983
00000000: 5d06 abbc b73f 08b9 73a2 ac3b 7d44 aa3d
00000010: 5f24 c2bb 7197 d13b b2b3 8ebc 1108 b8bc
00000020: eb34 4abd 0e2d a8bc 3851 0bbd 4c0a a1bd
00000030: 1404 673b 64f4 6e3d ca64 5e3d d485 2c3d
00000040: 2729 923d 358e 0c3e 8eb1 923e 9485 1e3d
00000050: 8c65 0a3c da01 453d 10c8 133d ef2d 523d
00000060: 523b 323d e35f 87bc 2a68 cb3a ef6e 8b3c
00000070: 6f77 683d 177c 993a cea7 0dbb c1a5 25bc
00000080: 4294 ae3b 07f7 cdbc af55 2bbc 537d 22bd
00000090: ef15 28bd f22c fb3c da77 993d fad8 5b3d
000000a0: fa1f 9b3c 1a68 893d c332 1e3e 4eec 683e
000000b0: dd8c 8b3d 100f fb3c 3244 8b3d df00 c23d
000000c0: a251 903d 0506 9c3d 3bb4 ab3d fa13 003e
000000d0: 8118 8b3d 3410 463c 423b 1d3c 9b5d 9e3d
000000e0: 34f0 213e 76c2 463e ca00 b03d 41b4 063d
000000f0: 79d8 cd3b b566 fdbe 623d 7c3e 7dc0 bc3c
00000100: e8cf b93c b8ed e7bd 448b 0bbf 14aa 1f3e
00000110: 4c79 98bd 9d69 123b 2de6 a63d 7742 7f3d
00000120: 5fc0 8e3d 9c9b dcb9 6922 0bbb 5b7e 8cbb
00000130: 5f30 1fbc 489b a63c 1f26 1fbc befc 84bc
00000140: b1da 91bc d700 a7bd 551f fc3c e0a2 0f3c
00000150: c7a4 23bd 3218 96bd 39d8 84be 3ec3 14be
00000160: cdb3 93bd f0b3 16bd b598 b03d 0781 87be
00000170: 1ef2 d6be c482 c9bd fceb 283c 602d 2b3c
00000180: 876a 9fbe 0919 82be 07c5 ed3d 4df0 553d
00000190: 83ee 4bbb 0923 7bbb c74a de3c c4f6 683b
000001a0: cce7 db3c 803d 0dbd f983 b7bd 7fa2 28be
000001b0: 2f84 5fbe 2c97 68bc 962e 333c 6a74 ccbc
000001c0: 5b6b c8bd 8efa 9bbe 702f 1abd 2d64 873d
000001d0: 12f5 0e3e dc48 563e 139b c9bd 64f7 85bc
000001e0: 1ed5 aeba 0c6b 393d ccb9 4c3d 31e4 dcbc
000001f0: 1560 36bd f4e5 e5bd bb39 03be 6cf6 08be
00000200: 70ec 8ebd 3286 c5bc 2220 c4bd 8e7b 2bbe
00000210: ec44 7bbe d828 94bd 4e1e 44bd 3738 013e
00000220: de21 fd3d b3b8 53be 2cd8 3f3b f1a8 08bd
00000230: 58b1 8b3e ced5 0d3f 3747 dd3c 9b1f c33d
00000240: 99e7 1bbd 8908 e6bd d6cf 32bc 4c34 46bd
00000250: a033 063d e271 ad3c c11d 71bc fead 493b
00000260: bdf6 cfbc 3dee 51bd a248 72bc ff4d ffbc
00000270: 5058 a0bc 767c 22be 4662 52be 9cf1 4abd
00000280: 0b4c cabc d0ea d2bd bf95 b3be f7ff afbe
00000290: 9be1 8fbd 842c cdbc 765d 06be fedd 92be
000002a0: 8199 58be 631c 21bd 0e2a c7ba 9d51 4fbd
000002b0: 4069 b0bd bed9 e6bc 8ced 173c a6b0 0abd
000002c0: 619c 91bc 84e7 0ebd 944b 51bd 75a3 27bc
000002d0: 205e f1bc 9543 ccbd c6c7 83be 9dc7 71be
000002e0: 0244 11bd fd43 4fbc 35e9 57be 5e5d e9be
000002f0: 8e0b cdbe 5074 56bd d8d4 1bbc c3ad 38be
00000300: 72cc ccbe 3a6b 98be cb8b 3ebd 2403 0e3b
00000310: d934 58bd 6b52 c3bd adb3 5bbd ca28 323c

enc2.0.conv1.pointwise.weight f4 [8, 8, 1, 1]
-0.011997013 0.013137629 -0.00063455186 0.015354034 0.043608204 -0.00071533077 0.0118503515 -0.018288586
-0.013427719 0.048254203 -0.0066193007 -0.5080699 -0.033840727 0.006708354 -0.024850767 0.037417006
-0.10997313 0.107258335 -0.0028822853 0.0047273817 -0.32404572 -0.0003002434 -0.09644783 0.057434876
-0.10548918 0.07524056 -0.2687531 -0.0025739856 0.00063989765 -0.14171998 -0.12339243 0.108085796
0.11682574 -0.12655547 0.0048718345 0.013622442 -0.025048917 0.005032884 -0.34721124 0.3095505
-0.24566676 0.2776321 -0.01035362 -0.0026096024 0.039360914 -0.009136089 -0.106935896 0.12503804
-0.08658159 0.09149379 0.24486786 -0.013120408 -0.009206457 0.050184485 -0.03896971 0.043147154
0.10879469 -0.1324777 -0.0006652381 0.011815566 0.015385573 0.016005605 -0.34818956 0.32464245
00000000: 1f8f 44bc 363f 573c 0e58 26ba 7c8f 7b3c
00000010: 849e 323d 0985 3bba fa27 423c f2d1 95bc
00000020: efff 5bbc 33a6 453d b8e6 d8bb de10 02bf
00000030: 939c 0abd c1d1 db3b d693 cbbc 9342 193d
00000040: 9839 e1bd 42aa db3d b9e4 3cbb 27e8 9a3b
00000050: 52e9 a5be fd69 9db9 7186 c5bd d540 6b3d
00000060: b60a d8bd b917 9a3d 029a 89be 50b0 28bb
00000070: cebe 273a 0b1f 11be 2cb5 fcbd 165c dd3d
00000080: 5542 ef3d c297 01be e9a3 9f3b aa30 5f3c
00000090: 6333 cdbc e4ea a43b acc5 b1be 677d 9e3e
000000a0: 1190 7bbe cb25 8e3e 3ba2 29bc dd05 2bbb
000000b0: e938 213d 89af 15bc 3501 dbbd f909 003e
000000c0: b051 b1bd 1961 bb3d a4be 7a3e fbf6 56bc
000000d0: aed6 16bc 3f8e 4d3d b49e 1fbd 12bb 303d
000000e0: c0cf de3d 3ca8 07be 6063 2eba 1396 413c
000000f0: c513 7c3c 301e 833c e745 b2be 8937 a63e

enc2.0.conv1.pointwise.bias f4 [8]
5.7552986 -1.9135668 -2.534273 0.31537881 -0.010982523 -1.2781101 1.0244304 -4.0336323
00000000: 682b b840 c2ef f4bf 8731 22c0 5579 a13e
00000010: 0af0 33bc 1d99 a3bf 8920 833f 8413 81c0

enc2.0.conv2.depthwise.weight f4 [8, 1, 5, 5]
-0.0018590654 -0.1580521 0.036484487 0.1282969 -0.07632086 -0.005374303 0.03946154 0.543377
-0.5614396 0.08224165 -0.039686386 -0.099843875 -0.7469468 0.6935316 0.04077188 0.0037792847
0.06263049 0.3450909 0.0069232346 -0.054341443 -0.010983315 0.043728516 0.0035689876 -0.10158609
0.0128446985 0.0036542544 0.01126685 0.024813205 -0.031021943 0.10324096 0.00012232222 0.0026459151
0.14056747 -0.73898625 -0.03065586 -0.019717406 -0.037072618 0.101891726 -0.17621215 -0.031005543
0.014563847 0.024391105 0.022801729 -0.017488867 0.0060323565 -0.0014757009 -0.004064777 0.008243025
-0.017232725 0.017381692 -0.011768972 -0.03538273 0.016741771 0.015083706 0.0047074105 -0.0021224727
0.098995246 0.092768736 -0.08064744 0.012127161 0.0095625175 0.08822328 -0.7957346 0.3920322
-0.024286412 0.029112415 0.156414 -0.16028841 0.014535125 -0.029863713 0.0045879222 -0.037671007
-0.0023435368 -0.003309431 -0.00021875878 -0.008269233 0.0036196543 0.0031159017 0.018238837 -0.0031922634
-0.005878521 0.009326677 -0.022255309 0.025645854 -0.031218136 -0.0067746257 0.010384757 0.060622238
0.7375144 -0.098193154 0.002570353 0.014468287 -0.021591296 -0.032576174 -0.007421778 -0.0027750807
-0.0072373436 0.009789326 0.008705789 0.0031829495 -0.01199238 0.040169038 0.09241709 0.016496494
0.0033391195 0.0384569 -0.16970482 -0.41465235 0.0774737 -0.0028206299 -0.015737193 -0.24575144
0.94835484 -0.2060807 0.085135736 0.1062017 -0.04067623 -0.38966298 -0.075508915 0.0032633876
0.058937456 0.012190471 -0.071357325 0.021619622 0.0006851025 0.016355034 -0.026021983 -0.06825792
0.016906776 -0.0021353783 0.03271934 0.059921257 0.14741285 0.008627255 0.07355524 -0.008969324
0.02445994 -0.99289846 0.13138838 -0.03188457 0.011191723 0.08824183 0.13822013 0.056433167
0.022061031 -0.042676244 -0.016194269 -0.040683974 0.014605704 -0.038439374 0.0020510363 0.0013149452
0.0015670628 -0.0002682656 0.00011236881 -0.0017824196 0.0128846755 -0.0319361 0.04373054 -0.0047639343
-0.0022563662 0.025045967 -0.006310481 0.7612547 -0.1003848 0.0007742649 0.0038700402 -0.008993011
-0.014566243 0.00990952 0.00194952 -0.0040255757 -0.00035461137 -0.004188524 -0.007369922 -0.052860465
-0.014657922 -0.26113963 -0.007029615 -0.0155636035 -0.095270194 -0.05411193 0.23946853 0.025493573
-0.03671645 0.071530215 0.111976475 1.0040541 -0.049102616 -0.003734843 -0.14945671 0.016369991
0.2991293 -0.059144363 -0.06939642 -0.08836816 0.0038274224 -0.00982422 -0.0027179366 -0.07382026
00000000: e2ab f3ba 69d8 21be c270 153d 4360 033e
00000010: 1c4e 9cbd ec1a b0bb 6ca2 213d c11a 0b3f
00000020: 81ba 0fbf 4f6e a83d 318e 22bd f27a ccbd
00000030: e837 3fbf 498b 313f 6a00 273d e0ad 773b
00000040: 6a44 803d c1af b03e 4ddc e23b 2295 5ebd
00000050: 5df3 33bc ac1c 333d ade5 693b 5e0c d0bd
00000060: 9272 523c 377c 6f3b 9898 383c 1045 cb3c
00000070: bb21 febc ff6f d33d 9f43 0039 1767 2d3b
00000080: ebf0 0f3e 342e 3dbf 0022 fbbc 6686 a1bc
00000090: 75d9 17bd 9cac d03d f570 34be 56ff fdbc
000000a0: 349d 6e3c dbcf c73c b1ca ba3c d044 8fbc
000000b0: 13ab c53b 4e6c c1ba d231 85bb c10d 073c
000000c0: a52b 8dbc 0d64 8e3c a5d2 40bc 7bed 10bd
000000d0: 0a26 893c a621 773c 9f40 9a3b 2f19 0bbb
000000e0: 05be ca3d 89fd bd3d 7c2a a5bd 00b1 463c
000000f0: 1bac 1c3c 68ae b43d 43b5 4bbf 72b8 c83e
00000100: 4cf4 c6bc 297d ee3c fe2a 203e a522 24be
00000110: bc24 6e3c bfa4 f4bc 4856 963b ea4c 1abd
00000120: 0696 19bb 0ae3 58bb 9d62 65b9 ad7b 07bc
00000130: b937 6d3b 2834 4c3b 9d69 953c 4b35 51bb
00000140: 9ca0 c0bb ebce 183c c450 b6bc 4117 d23c
00000150: 2dbd ffbc aefd ddbb d424 2a3c 064f 783d
00000160: becd 3c3f 7e19 c9bd 5e73 283b 650c 6d3c
00000170: 3be0 b0bc 986e 05bd 6332 f3bb 21de 35bb
00000180: 3d27 edbb 6963 203c baa2 0e3c 0899 503b
00000190: b07b 44bc 4a88 243d 2c45 bd3d a823 873c
000001a0: 21d5 5a3b fb84 1d3d 1ac7 2dbe 504d d4be
000001b0: 88aa 9e3d 51da 38bb 49eb 80bc 44a6 7bbe
000001c0: 62c7 723f d206 53be a55b ae3d 4780 d93d
000001d0: 1e9c 26bd e881 c7be 6ba4 9abd 8fde 553b
000001e0: 6768 713d 8bba 473c ca23 92bd a21b b13c
000001f0: 7398 333a fefa 853c 0e2c d5bc cfca 8bbd
00000200: 1480 8a3c b4f1 0bbb b704 063d fe6f 753d
00000210: 65f3 163e 5559 0d3c 21a4 963d 12f4 12bc
00000220: 3660 c83c 982e 7ebf ad8a 063e 6599 02bd
00000230: 7d5d 373c 22b8 b43d 9489 0d3e 7726 673d
00000240: 56b9 b43c 49cd 2ebd d8a9 84bc 3da4 26bd
00000250: c34c 6f3c 9b72 1dbd ae6a 063b 3d5a ac3a
00000260: e765 cd3a 00a6 8cb9 8ca7 eb38 14a0 e9ba
00000270: 3f1a 533c 6ecf 02bd cb1e 333d c71a 9cbb
00000280: 8bdf 13bb 332d cd3c 27c8 cebb 97e1 423f
00000290: 8c96 cdbd 0af8 4a3a 80a0 7d3b 6c57 13bc
000002a0: 40a7 6ebc 8a5b 223c 0987 ff3a fae8 83bb
000002b0: 22eb b9b9 e33f 89bb 637f f1bb 3784 58bd
000002c0: c827 70bc 18b4 85be af58 e6bb 7cfe 7ebc
000002d0: 051d c3bd 79a4 5dbd 3d37 753e e6d7 d03c
000002e0: fd63 16bd 6f7e 923d ec53 e53d d884 803f
000002f0: d31f 49bd 45c4 74bb 2e0b 19be 5c1a 863c
00000300: 7a27 993e 5c41 72bd b61f 8ebd 5efa b4bd
00000310: 7ed5 7a3b c4f5 20bc 691f 32bb 142f 97bd

enc2.0.conv2.pointwise.weight f4 [32, 8, 1, 1]
0.1996865 -0.04183441 0.23886478 -0.36105257 0.22950102 0.07529191 -0.24660932 0.14647344
0.33715886 0.9459462 0.08245648 0.023325356 0.034748264 -0.22811975 0.18755387 -0.08405752
0.7371331 -0.07195977 -0.64474016 -0.073231466 0.014222286 0.33470926 0.009065656 0.21102531
0.4325867 -0.0057207462 -0.26758638 -0.34364614 -0.08851178 -0.341896 0.0832356 -0.031584308
0.14554079 -0.025715189 -0.017543562 0.1410709 -0.044706788 0.12947544 0.13043432 -0.005345205
0.0010706199 -0.07967735 0.2565092 0.037966385 0.12443896 0.420197 -0.67238283 0.04645917
-0.45052466 0.15463889 -0.33244142 -0.115454815 0.2980973 0.01787843 -0.029307272 0.1002152
0.19428371 0.032700464 -0.28210104 0.06103837 0.05864343 0.08171624 0.034995105 -0.099244535
0.23868449 0.08476876 -0.10903297 -0.3011425 0.020297782 -0.27914196 0.31899527 0.027502809
0.1863231 0.00284685 0.050700426 -0.19537832 -0.06712288 0.10434608 0.45878124 -0.050360434
0.20030752 -0.16082527 0.24178246 -0.32282865 -0.3319267 0.7305368 -0.240542 -0.50824803
0.5973494 -0.022382341 0.03601693 0.16587733 0.58837545 -0.5545486 0.26279077 0.47790754
-0.6170858 0.04212178 -0.09326364 -0.004108761 0.09354844 -0.046490375 0.07737702 0.05129178
-0.2103522 0.084677875 -0.1478599 0.20015329 0.10388149 -0.2743255 0.017548433 0.053669684
-0.20130754 -0.06602436 -0.05667989 0.1017201 -0.0270896 -0.09448663 -0.012824661 0.16698302
0.5688016 0.026722051 0.07809563 0.13926294 -0.8617804 0.263871 0.04447474 -0.86634195
-0.34665006 0.038962036 -0.12578607 0.11720635 0.12038264 0.069703594 0.2654137 -0.21523649
-0.34112597 0.01888378 -0.022927193 -0.021018563 0.1844836 -0.30012855 0.050547283 0.255521
0.54425544 0.059323937 0.13160998 -0.093105376 -0.014093765 -0.08867611 -0.21131584 0.022788683
0.2898738 0.11385129 0.006230059 0.12670976 0.0018498278 -0.08051076 -0.051599957 0.17112021
0.9437695 0.04940934 0.22401834 -0.02476009 0.0717304 -0.0013602424 -0.037051886 -0.67268515
0.054028265 -0.32925168 0.2548082 0.032112293 -0.07260472 -0.06321238 -0.045139596 0.05951045
0.5260092 0.06786592 0.21110116 -0.070348516 -0.12111448 -0.32049942 -0.20975845 -0.022695966
1.2058921 0.40530983 0.29875845 -0.24609227 -0.10479698 0.09388274 -0.47263485 -0.1603882
0.17326409 0.06184012 -0.22950108 0.016570374 -0.11078609 0.067035496 -0.034066662 -0.08945769
0.18211497 0.008794205 -0.14219429 -0.44747406 -0.027657133 -0.40981907 0.009181974 -0.050594814
-0.13377295 0.0009817819 -0.016882341 0.10020381 0.05003491 0.08294854 0.0829571 -0.023970159
-0.23630862 0.095499404 -0.098870374 -0.008048488 0.09394098 -0.72039956 0.38079777 0.024928067
0.019378547 -0.03605388 -0.004547475 0.095796436 -0.29521188 0.29917675 0.12039898 -0.35877493
0.11889493 0.07076877 -0.23870598 -0.1502802 -0.10055659 -0.02222305 0.17008178 0.0018014018
-0.1212284 -0.022448191 -0.13464823 -0.1408479 0.59519655 -0.19170646 0.06486576 0.3225103
0.7355713 0.1307463 -0.078505985 -0.06304067 -0.0018535898 -0.13894902 -0.24835686 -0.00073136
00000000: 9e7a 4c3e 8f5a 2bbd f898 743e e2db b8be
00000010: 5102 6b3e a532 9a3d 2787 7cbe 22fd 153e
00000020: 16a0 ac3e 8829 723f f1de a83d d114 bf3c
00000030: 3254 0e3d 3998 69be 1f0e 403e 5926 acbd
00000040: c1b4 3c3f a55f 93bd b10d 25bf 61fa 95bd
00000050: 9704 693c 035f ab3e 1e88 143c 0517 583e
00000060: 017c dd3e 1975 bbbb 1501 89be 63f2 afbe
00000070: aa45 b5bd fe0c afbe 6d77 aa3d 8c5e 01bd
00000080: a508 153e a9a8 d2bc 84b7 8fbc e474 103e
00000090: 771e 37bd 3695 043e 9390 053e d426 afbb
000000a0: 0b54 8c3a e12d a3bd 2d55 833e a482 1b3d
000000b0: dad9 fe3d 1024 d73e 4821 2cbf f84b 3e3d
000000c0: 2bab e6be a859 1e3e c335 aabe 9373 ecbd
000000d0: 36a0 983e c975 923c ce15 f0bc a03d cd3d
000000e0: 4ff2 463e ecf0 053d 8c6f 90be 5f03 7a3d
000000f0: 1834 703d d85a a73d 0757 0f3d b840 cbbd
00000100: b569 743e 3e9b ad3d ae4c dfbd 5a2f 9abe
00000110: 8947 a63c b2eb 8ebe 5953 a33e 924d e13c
00000120: 7ccb 3e3e 3892 3a3b 40ab 4f3d 4111 48be
00000130: b877 89bd 66b3 d53d 60e5 ea3e be46 4ebd
00000140: 6a1d 4d3e 61af 24be d295 773e cc49 a5be
00000150: 4cf2 a9be 7604 3b3f a450 76be 8b1c 02bf
00000160: e4eb 183f 2c5b b7bc 7d86 133d bfdb 293e
00000170: c69f 163f e6f6 0dbf 838c 863e 4cb0 f43e
00000180: 56f9 1dbf e387 2c3d 0201 bfbd c9a2 86bb
00000190: 5396 bf3d b16c 3ebd d877 9e3d 5417 523d
000001a0: 9166 57be 986b ad3d 9668 17be fcf4 4c3e
000001b0: d2bf d43d 6474 8cbe bbc1 8f3c bed4 5b3d
000001c0: 9023 4ebe c837 87bd 2c29 68bd a152 d03d
000001d0: 02eb ddbc 3582 c1bd 871e 52bc 99fd 2a3e
000001e0: fb9c 113f 34e8 da3c 9af0 9f3d f29a 0e3e
000001f0: a49d 5cbf 1a1a 873e 252b 363d 96c8 5dbf
00000200: 1e7c b1be a896 1f3d 10ce 00be e209 f03d
00000210: 2c8b f63d c2c0 8e3d 4ee4 873e f466 5cbe
00000220: 10a8 aebe 28b2 9a3c cfd1 bbbc 1f2f acbc
00000230: 45e9 3c3e 73aa 99be ab0a 4f3d a6d3 823e
00000240: 5354 0b3f a8fd 723d c4c4 063e 08ae bebd
00000250: 89e9 66bc d29b b5bd 2e63 58be 55af ba3c
00000260: 576a 943e dd2a e93d 8625 cc3b 34c0 013e
00000270: ec75 f23a d3e2 a4bd 7a5a 53bd 233a 2f3e
00000280: e19a 713f 7361 4a3d 1065 653e acd5 cabc
00000290: 63e7 923d 294a b2ba b8c3 17bd 1835 2cbf
000002a0: be4c 5d3d ad93 a8be 3876 823e 2e88 033d
000002b0: c9b1 94bd 7e75 81bd 4ce4 38bd 3bc1 733d
000002c0: 8aa8 063f 4afd 8a3d e72a 583e e212 90bd
000002d0: de0a f8bd 8018 a4be ebca 56be e4ec b9bc
000002e0: ac5a 9a3f c584 cf3e def6 983e 9dff 7bbe
000002f0: cd9f d6bd 9845 c03d 32fd f1be ce3c 24be
00000300: 246c 313e 114c 7d3d 5502 6bbe 98be 873c
00000310: d1e3 e2bd e849 893d 7c89 0bbd 9835 b7bd
00000320: 597c 3a3e 9215 103c 619b 11be 521b e5be
00000330: 3691 e2bc ced3 d1be fe6f 163c 823c 4fbd
00000340: c7fb 08be 22af 803a d64c 8abc a837 cd3d
00000350: 68f1 4c3d ede0 a93d 69e5 a93d 115d c4bc
00000360: e3fa 71be 3195 c33d 8d7c cabd cedd 03bc
00000370: 2164 c03d 1b6c 38bf edf7 c23e f235 cc3c
00000380: c2bf 9e3c 3cad 13bd fc02 95bb ec30 c43d
00000390: 0326 97be b22d 993e be93 f63d 59b1 b7be
000003a0: 2f7f f33d 38ef 903d 576f 74be 0ee3 19be
000003b0: 9df0 cdbd 1d0d b6bc eb29 2e3e 041d ec3a
000003c0: 9846 f8bd 45e5 b7bc 3ae1 09be 6f3a 10be
000003d0: cd5e 183f b34e 44be 57d8 843d 1220 a53e
000003e0: 674e 3c3f 5ce2 053e bfc7 a0bd 771b 81bd
000003f0: 27f4 f2ba a748 0ebe 4351 7ebe bdb8 3fba

enc2.0.conv2.pointwise.bias f4 [32]
0.5788591 1.2480284 -0.036871847 0.25156683 2.1287858 -1.7745346 0.55575484 -0.9280373
0.27904943 1.6914744 0.40159228 -0.25941744 1.9100943 1.8832579 -0.5015488 0.14598067
-0.36632958 0.6641174 0.18420379 0.46428803 1.5126536 -0.26524833 0.65589404 1.9608053
-0.73412687 -1.2859707 -0.61884195 0.8646523 1.0148057 1.3413854 0.7273599 0.4689183
00000000: 1c30 143f 65bf 9f3f ef06 17bd 5ecd 803e
00000010: 073e 0840 f323 e3bf f345 0e3f da93 6dbf
00000020: 91df 8e3e 3c82 d83f 819d cd3e 5dd2 84be
00000030: f87d f43f 980e f13f 8165 00bf f57b 153e
00000040: 8d8f bbbe 9903 2a3f eb9f 3c3e 29b7 ed3e
00000050: a29e c13f a1ce 87be ace8 273f abfb fa3f
00000060: bdef 3bbf b09a a4bf 6d6c 1ebf da59 5d3f
00000070: 27e5 813f 84b2 ab3f 4234 3a3f 0f16 f03e

enc2.0.proj.depthwise.weight f4 [8, 1, 3, 3]
-0.017653497 -0.0431935 -0.043454792 -0.02072409 -0.08445567 -0.1264453 -0.036403604 -0.08285217
-0.11398977 0.00033599476 0.0026028855 0.0058685816 0.0025329497 0.013786691 0.023322329 0.010117132
0.018433107 0.029099286 0.015670002 0.03470969 0.02968891 0.03334702 0.06787307 0.19113079
0.023389863 0.07360855 0.17486356 0.023246605 0.089250244 0.07317591 0.042282537 0.12754016
0.08575911 0.024658797 0.0650309 0.044091765 0.012854603 0.027263137 0.0050417315 0.045985203
0.116955355 0.058368765 0.031089662 0.094151706 0.05234279 0.018965293 0.026840962 0.01964984
0.021068236 0.08691636 0.088569716 0.028789988 0.10018702 0.109018676 -0.03728832 0.014311299
0.044236418 0.09114017 0.19323488 0.072240435 -0.030500125 -0.12645358 -0.15236801 -0.042461235
-0.1014771 -0.06470042 -0.09102685 -0.2095533 -0.14730647 -0.07228277 -0.20892312 -0.14341465
00000000: 119e 90bc abeb 30bd a7fd 31bd 91c5 a9bc
00000010: 18f7 acbd e07a 01be f21b 15bd 66ae a9bd
00000020: 7873 e9bd 7428 b039 2c95 2a3b 3b4d c03b
00000030: d8ff 253b 93e1 613c 780e bf3c 54c2 253c
00000040: 0701 973c a061 ee3c 605e 803c bf2b 0e3d
00000050: 2836 f33c e396 083d 0901 8b3d cab7 433e
00000060: 199c bf3c 14c0 963d 6f0f 333e aa6f be3c
00000070: d5c8 b63d 40dd 953d 7430 2d3d e399 023e
00000080: 79a2 af3d 3f01 ca3c ec2e 853d 9199 343d
00000090: 1d9c 523c f156 df3c 1c35 a53b fb5a 3c3d
000000a0: 4a86 ef3d 1614 6f3d bfaf fe3c 9cd2 c03d
000000b0: 6565 563d 1a5d 9b3c 94e1 db3c b4f8 a03c
000000c0: 4b97 ac3c 3401 b23d 0a64 b53d fbd8 eb3c
000000d0: da2e cd3d 2f45 df3d a3bb 18bd f079 6a3c
000000e0: 3f31 353d b3a7 ba3d 5ddf 453e cbf2 933d
000000f0: 66db f9bc 0c7d 01be 5c06 1cbe d5eb 2dbd
00000100: 3ad3 cfbd a781 84bd 496c babd 2495 56be
00000110: 82d7 16be fd08 94bd f1ef 55be 4adb 12be

enc2.0.proj.pointwise.weight f4 [32, 8, 1, 1]
-0.049290955 0.36687732 0.110355265 0.3079686 -0.026367057 0.149952 0.3927439 -0.18921794
-0.039227035 0.28083384 0.14669012 -1.2071781 -0.27416015 0.14601307 0.13263251 -0.08587418
0.034760673 0.059505958 0.052573804 0.32096255 0.43064946 -0.10787578 -0.037543923 -0.13937938
0.1615246 0.82015216 0.32122472 0.011652064 -0.11050899 -0.07181614 0.06127889 -0.052970253
0.015003014 -0.03949815 -0.050078414 0.023298219 -0.084194414 -0.04668521 0.058148675 -0.0035342232
-1.187592 -0.4530045 -0.27089074 0.017803976 -0.13301744 -0.18960257 0.016512545 0.025536465
-0.1265213 0.08134964 0.12782604 -0.070871234 0.20761412 0.22472407 0.04719735 0.08780326
0.015562992 0.008557294 -0.03714518 -0.04705011 0.52838665 0.0025460212 0.021140048 -0.052948467
0.16231802 0.2306624 0.5282882 0.05749994 0.14927967 -0.34556988 0.12653367 -0.11755578
0.07832365 0.30225888 0.5528278 0.015215315 0.067174345 -0.19192073 0.00079063606 0.057512894
-0.10260124 0.051693305 0.14553246 0.39732197 0.14720546 0.118887745 -0.18529217 0.17833005
-0.023104392 0.09880059 0.019032512 0.035976816 -0.18085378 0.05507257 0.53042185 -0.68645984
-0.0033146965 0.09959419 0.04522652 -1.170421 -0.1099806 0.060205422 0.018247338 0.024253946
0.055241518 0.11413098 -0.19963111 0.20324862 0.18855688 -0.0535625 0.22951654 -0.27284577
-0.07804582 0.039081763 -0.07058315 0.12986493 0.2784778 0.20454869 -0.06807949 0.10126852
0.05725949 0.030411601 -0.15733986 0.08766747 0.3880343 -0.11891096 -0.041365877 0.1768286
-0.12612347 -0.00019720923 0.15204574 -0.08493835 -0.103428066 0.24660145 0.052702725 -0.13228063
-0.008789901 0.06457918 0.06592584 0.014027471 0.008201455 0.06962416 0.022669245 -0.09505504
0.04773708 0.005089197 -0.11940545 -0.3480543 0.33974922 -0.09411802 -0.08625286 0.032098547
-0.069130965 0.08470537 -0.11054505 -0.0770236 0.15491106 0.22900559 -0.12247889 -0.07529317
0.002441908 -0.08305493 -0.08249965 -0.06470766 0.2210857 -0.009774439 0.043324165 2.4688752
0.02226507 -0.06538825 -0.09924091 0.91893476 0.21674828 -0.075544275 0.04704648 -0.14459261
0.025758218 -0.35200906 -0.1519051 -0.22773698 0.45186782 -0.11520327 0.3197298 0.24686995
-0.033105437 0.09703346 -0.10859921 -0.31266087 0.3281128 -0.009122885 -0.024484703 0.809816
0.03541933 0.07700372 -0.06771931 -0.04219286 0.54156166 -0.02919776 0.024155332 0.012213645
-0.05690642 0.11274598 0.37166846 -0.018882308 0.27715534 -0.5339255 0.021851502 0.016998217
0.2723581 -0.3063604 0.08080791 0.025953336 -0.013888844 0.074498296 0.0003309645 -0.028456418
0.20955421 0.36062178 0.21681799 0.10528396 0.262586 -0.29149157 -0.02517212 -0.1444868
-0.111136526 0.058352128 0.03505581 0.4160748 -0.0729789 0.17221099 0.2165024 -0.082937256
0.6525744 0.044508662 0.17608494 0.011809399 0.13734303 0.095679775 -0.013682392 -0.011552242
-0.12886673 -0.14184095 0.24019845 0.077587135 -0.29199365 0.14019856 -0.1931953 -0.592906
0.10622374 -0.02776738 -0.23636849 -0.63425547 0.63112664 -0.19545722 0.02248429 -0.08526093
00000000: 50e5 49bd 58d7 bb3e f101 e23d 0fae 9d3e
00000010: baff d7bc 048d 193e ba15 c93e 59c2 41be
00000020: 87ac 20bd 74c9 8f3e ef35 163e d084 9abf
00000030: b85e 8cbe 7384 153e d1d0 073e cdde afbd
00000040: 3561 0e3d 85bc 733d a157 573d 3455 a43e
00000050: 167e dc3e faed dcbd a8c7 19bd 78b9 0ebe
00000060: b466 253e 7ef5 513f 9177 a43e 4ce8 3e3c
00000070: 8a52 e2bd 5714 93bd 93ff 7a3d 56f7 58bd
00000080: 34cf 753c d0c8 21bd 061f 4dbd e8db be3c
00000090: 1f6e acbd fe38 3fbd 4e2d 6e3d 6d9e 67bb
000000a0: 0403 98bf 35f0 e7be 31b2 8abe a5d9 913c
000000b0: b935 08be 2d27 42be 5145 873c d931 d13c
000000c0: cd8e 01be a49a a63d d4e4 023e f024 91bd
000000d0: cc98 543e 111e 663e 0252 413d 32d2 b33d
000000e0: ebfb 7e3c e433 0c3c 8b25 18bd 9eb7 40bd
000000f0: 5944 073f 26db 263b e52d ad3c 7ee0 58bd
00000100: b236 263e c432 6c3e e53d 073f 0f85 6b3d
00000110: c5dc 183e 89ee b0be 0b92 013e 16c1 f0bd
00000120: 2668 a03d adc1 9a3e 1f86 0d3f a849 793c
00000130: b492 893d de86 44be b042 4f3a a492 6b3d
00000140: 9920 d2bd 5cbc 533d 7606 153e c96d cb3e
00000150: 07bd 163e 6b7b f33d 3bbd 3dbe 279c 363e
00000160: 6c45 bdbc f757 ca3d 12ea 9b3c 6d5c 133d
00000170: bc31 39be c693 613d bac9 073f d5bb 2fbf
00000180: 613b 59bb 0af8 cb3d 723f 393d 5bd0 95bf
00000190: 823d e1bd f699 763d 717b 953c 36b0 c63c
000001a0: ee44 623d 81bd e93d 196c 4cbe 6820 503e
000001b0: 0e15 413e 5a64 5bbd 6206 6b3e 71b2 8bbe
000001c0: 7dd6 9fbd 3314 203d e68d 90bd 50fb 043e
000001d0: a494 8e3e 3675 513e 426d 8bbd df65 cf3d
000001e0: ed88 6a3d c021 f93c b31d 21be 018b b33d
000001f0: 6fac c63e 9787 f3bd 446f 29bd 8e12 353e
00000200: 8326 01be f3c9 4eb9 e1b1 1b3e 28f4 adbd
00000210: 18d2 d3bd 1785 7c3e d0de 573d 9374 07be
00000220: 8403 10bc 1742 843d 2004 873d 7ad3 653c
00000230: 655f 063c 1d97 8e3d dab4 b93c 38ac c2bd
00000240: f587 433d 47c3 a63b d88a f4bd 2c34 b2be
00000250: 9cf3 ad3e f3c0 c0bd 57a5 b0bd c479 033d
00000260: 8994 8dbd 027a ad3d 7165 e2bd 8dbe 9dbd
00000270: 01a1 1e3e 7180 6a3e 36d6 fabd 4e33 9abd
00000280: 6b08 203b b418 aabd 94f5 a8bd 7385 84bd
00000290: 4a64 623e f824 20bc ae74 313d 0d02 1e40
000002a0: 3c65 b63c 46ea 85bd d13e cbbd 4f3f 6b3f
000002b0: 43f3 5d3e f5b6 9abd cfb3 403d 1610 14be
000002c0: e602 d33c 883a b4be 038d 1bbe e233 69be
000002d0: 385b e73e b1ef ebbd a0b3 a33e 7acb 7c3e
000002e0: 9199 07bd 7bb9 c63d 4369 debd 1615 a0be
000002f0: 67fe a73e 2778 15bc 2594 c8bc 1a50 4f3f
00000300: dc13 113d 20b4 9d3d 6cb0 8abd 6cd2 2cbd
00000310: c9a3 0a3f 2430 efbc 67e1 c53c bd1b 483c
00000320: b516 69bd 5de7 e63d 544b be3e 12af 9abc
00000330: 4ee7 8d3e 57af 08bf ec01 b33c d83f 8b3c
00000340: 8572 8b3e 45db 9cbe 9e7e a53d 179c d43c
00000350: 098e 63bc 9092 983d 4e85 ad39 6f1d e9bc
00000360: 6195 563e 6ba3 b83e 8905 5e3e 1e9f d73d
00000370: ac71 863e 623e 95be c335 cebc 59f4 13be
00000380: 8c9b e3bd a402 6f3d ae96 0f3d c207 d53e
00000390: f675 95bd 1458 303e ceb2 5d3e 02db a9bd
000003a0: 1e0f 273f b74e 363d 9c4f 343e 367c 413c
000003b0: a7a3 0c3e c2f3 c33d 1d2c 60bc 9d45 3dbc
000003c0: a4f5 03be c13e 11be 95f6 753e 01e6 9e3d
000003d0: 3180 95be 3690 0f3e fdd4 45be b0c8 17bf
000003e0: d58b d93d 6b78 e3bc 950a 72be 915e 22bf
000003f0: 8491 213f f025 48be f930 b83c 489d aebd

enc2.0.proj.pointwise.bias f4 [32]
0.7048543 1.4517102 -0.124554016 0.36774105 2.3050866 -1.7731427 0.4502548 -0.76905507
0.10275968 1.5017576 0.16840343 0.005629796 1.829607 1.7946534 -0.83329904 0.19186962
-0.4639179 0.6287218 -0.07891836 0.39919958 1.8421426 -0.50172096 0.68206805 1.6853956
-0.72714347 -1.4244847 -0.7552519 0.8719221 0.8828828 1.4084948 0.08189646 0.17166595
00000000: 5571 343f a4d1 b93f 2d16 ffbd 8e48 bc3e
00000010: 8a86 1340 57f6 e2bf cc87 e63e cbe0 44bf
00000020: ab73 d23d 9839 c03f f371 2c3e 277a b83b
00000030: 9030 ea3f 34b7 e53f 1653 55bf 7879 443e
00000040: a686 edbe e9f3 203f f39f a1bd e363 cc3e
00000050: 54cb eb3f c970 00bf 039c 2e3f 0bbb d73f
00000060: 1326 3abf 8455 b6bf 3058 41bf 4936 5f3f
00000070: 9b04 623f 8f49 b43f 55b9 a73d 33c9 2f3e

enc2.1.conv1.depthwise.weight f4 [32, 1, 5, 5]
0.006611611 -0.08133097 0.07643447 0.028387504 0.01737615 -0.04607758 -0.06605695 -0.106415346
0.052046824 -0.014936505 0.09627725 0.3115595 0.30971938 0.29408798 0.12098366 -0.03355364
0.4928572 0.4395667 0.109844714 0.19245256 0.0019165502 -0.23255976 0.13673966 0.17206974
-0.1328605 -0.033867806 -0.047941856 0.12435447 -0.12066447 -0.006882412 0.031912327 0.104439065
-0.036934406 0.1976389 -0.042778578 0.06301476 -0.038623013 0.46598023 0.119193785 0.018406935
0.057294216 -0.14281826 0.46886674 -0.008928115 0.018458249 -0.028337538 -0.09410048 0.17135397
0.043659426 -0.05577562 -0.0202441 -0.026375448 0.03232956 -0.0068183728 0.016373686 -0.038829602
-0.08850923 -0.18710013 0.24231307 -0.040086735 0.037258852 0.14041498 0.08064497 -0.36118776
0.15441374 0.12100376 0.17309503 0.38104305 0.30592975 -0.05877717 0.01968475 0.07006358
0.0063755503 0.14706676 -0.11745598 -0.076566026 0.009869363 -0.053289443 0.07540455 -0.0033123936
0.08424706 0.52978 0.14994512 0.26255473 0.020253364 -0.13497971 -0.14024849 0.2897518
-0.3387469 -0.25569114 -0.0710051 -0.30335945 0.12192086 -0.013981702 0.035169426 -0.34881765
0.288365 -0.026134808 -0.08286606 0.08055598 0.012813695 -0.20744862 0.115365565 0.13195199
-0.11729521 -0.020396989 0.20006476 0.06929872 0.142063 0.027467977 0.00998655 0.37477913
-0.30255023 -0.021283327 0.23064168 0.22798486 0.39504135 0.3731904 0.35984197 -0.022961324
-0.070441514 -0.15232012 0.31123725 -0.10814 0.075027876 -0.001647966 0.035542876 -0.0132100135
0.054405577 -0.0266078 0.07584671 -0.08713818 0.12304416 -0.08842942 0.059191726 -0.031377953
0.12375435 0.1992243 0.06457493 0.025619697 0.033102404 -0.055577528 0.18467759 -0.09519384
0.027219709 0.021089682 0.034966808 0.06599975 0.06484162 0.0048564393 -0.104448065 0.0767688
-0.13968255 -0.09370487 0.12363848 -0.05501152 0.32981187 0.030980404 -0.3277309 0.25594807
-0.020125473 -0.14519192 0.2712496 -0.64566547 -0.09304879 0.009069385 0.08271022 -0.1559306
0.20502372 -0.019960612 0.046846658 0.18091805 -0.09698827 -0.32470238 0.15374415 -0.05049215
0.10703439 -0.031257644 -0.111262165 0.09052368 -0.095826715 -0.09378563 -0.038522184 -0.104990676
0.026724305 0.047875114 0.1879715 -0.3699532 -0.22649215 -0.09573097 0.028832665 -0.08970605
0.61403334 -0.45120385 0.31859264 -0.03455037 0.113700695 -0.08380725 -0.045949847 0.018347992
-0.03419214 0.071258396 -0.014196021 -0.08570267 0.06104954 0.06942878 0.049077056 0.12521298
-0.020997563 0.014851458 0.06857948 -0.109288126 -0.47883916 -0.004199901 0.14375375 -0.027457532
-0.1117864 -0.95251715 -0.14543015 0.047650404 -0.0050424933 0.09269853 0.0726877 -0.027327787
0.07287526 -0.020997114 -0.0599019 -0.000119430835 -0.0052853585 0.012783233 0.080219544 0.17181991
0.16489193 -0.0061154566 0.015615652 -0.010921874 -0.08932196 0.38579893 0.01678367 -0.04381214
-0.13403925 0.015188973 1.0657834 -0.20669964 0.036967 -0.09179915 0.061888766 0.030969584
0.09259598 0.009391434 -0.00705702 -0.01601288 -0.026002929 0.037149098 -0.019634956 0.0700246
00000000: 37a6 d83b da90 a6bd ad89 9c3d e98c e83c
00000010: 6d58 8e3c d8bb 3cbd de48 87bd 4af0 d9bd
00000020: 0d2f 553d 3eb8 74bc 022d c53d ba84 9f3e
00000030: 8a93 9e3e b392 963e 48c6 f73d 8b6f 09bd
00000040: c757 fc3e e30e e13e 44f6 e03d 4912 453e
00000050: c134 fb3a 2524 6ebe 7b05 0c3e 0d33 303e
00000060: 950c 08be f8b8 0abd ae5e 44bd 8ead fe3d
00000070: ef1e f7bd db85 e1bb 80b6 023d 26e4 d53d
00000080: 8848 17bd da61 4a3e 9738 2fbd e20d 813d
00000090: 2a33 1ebd f694 ee3e df1b f43d 24ca 963c
000000a0: 57ad 6a3d f33e 12be 4d0f f03e 3a47 12bc
000000b0: c135 973c 2024 e8bc c1b7 c0bd 6a77 2f3e
000000c0: 3ad4 323d fa74 64bd f4d6 a5bc 5311 d8bc
000000d0: 006c 043d a86c dfbb 1c22 863c ca0b 1fbd
000000e0: 5444 b5bd 2d97 3fbe eb20 783e fd31 24bd
000000f0: bd9c 183d f2c8 0f3e 3129 a53d 9aed b8be
00000100: a31e 1e3e d2d0 f73d d33f 313e 1318 c33e
00000110: d3a2 9c3e 54c0 70bd ea41 a13c 7f7d 8f3d
00000120: fee9 d03b ab98 163e c38c f0bd a6ce 9cbd
00000130: 1cb3 213c 0846 5abd b36d 9a3d be14 59bb
00000140: b989 ac3d a99f 073f 378b 193e 936d 863e
00000150: 62ea a53c 1f38 0abe 4d9d 0fbe 595a 943e
00000160: 3c70 adbe f3e9 82be 1f6b 91bd ee51 9bbe
00000170: a5b1 f93d 8213 65bc d10d 103d 3a98 b2be
00000180: 94a4 933e aa18 d6bc aeb5 a9bd 89fa a43d
00000190: 88f0 513c 696d 54be c844 ec3d 6c1e 073e
000001a0: 7938 f0bd 9617 a7bc c7dd 4c3e 7dec 8d3d
000001b0: f778 113e 8604 e13c a09e 233c 0de3 bf3e
000001c0: dde7 9abe 5f5a aebc 552d 6c3e dd74 693e
000001d0: dc42 ca3e d012 bf3e 353d b83e 6319 bcbc
000001e0: a443 90bd cef9 1bbe 7d5a 9f3e 8178 ddbd
000001f0: 37a8 993d 9000 d8ba 6895 113d d06e 58bc
00000200: 62d8 5e3d 9af8 d9bc 8555 9b3d 8175 b2bd
00000210: 94fe fb3d 7c1a b5bd 0673 723d 2b86 00bd
00000220: ec72 fd3d 7401 4c3e dc3f 843d 66e0 d13c
00000230: 6396 073d 43a5 63bd 1f1c 3d3e fdf4 c2bd
00000240: defb de3c 45c4 ac3c 5b39 0f3d e02a 873d
00000250: afcb 843d c422 9f3b dee8 d5bd f638 9d3d
00000260: f108 0fbe 57e8 bfbd 2c36 fd3d c253 61bd
00000270: 1add a83e 9eca fd3c 58cc a7be a00b 833e
00000280: 2dde a4bc 31ad 14be 3ae1 8a3e 554a 25bf
00000290: 5d90 bebd c297 143c fa63 a93d 45ac 1fbe
000002a0: bdf1 513e 7084 a3bc 48e2 3f3d 9542 393e
000002b0: c9a1 c6bd 643f a6be 1b6f 1d3e dbd0 4ebd
000002c0: d934 db3d 0408 00bd 6bdd e3bd 7b64 b93d
000002d0: cc40 c4bd ae12 c0bd 70c9 1dbd 5a05 d7bd
000002e0: eeec da3c b218 443d 9a7b 403e 816a bdbe
000002f0: 8fed 67be 990e c4bd 7b32 ec3c ceb7 b7bd
00000300: 4a31 1d3f 3104 e7be 931e a33e b084 0dbd
00000310: e9db e83d 23a3 abbd e835 3cbd 874e 963c
00000320: 0f0d 0cbd ecef 913d 6d96 68bc e284 afbd
00000330: 150f 7a3d ad30 8e3d 0605 493d d537 003e
00000340: 1503 acbc 8853 733c 6673 8c3d 74d2 dfbd
00000350: 682a f5be 539f 89bb 2f34 133e 9eee e0bc
00000360: 45f0 e4bd 2ad8 73bf a4eb 14be 122d 433d
00000370: 803b a5bb bad8 bd3d 4add 943d 86de dfbc
00000380: a03f 953d 2402 acbc b25b 75bd f176 fab8
00000390: cd30 adbb c470 513c 254a a43d 8ff1 2f3e
000003a0: 6ed9 283e 2b64 c8bb cbd8 7f3c a9f1 32bc
000003b0: 6fee b6bd 7087 c53e e87d 893c 5c74 33bd
000003c0: 9641 09be 2cdb 783c 976b 883f 12a9 53be
000003d0: b66a 173d 3101 bcbd 137f 7d3d edb3 fd3c
000003e0: f6a2 bd3d 87de 193c 933e e7bb 712d 83bc
000003f0: 1804 d5bc a729 183d 7dd9 a0bc 0f69 8f3d

enc2.1.conv1.pointwise.weight f4 [8, 32, 1, 1]
-0.06903379 -0.15265135 0.20479278 -0.0030130574 0.06888382 0.0012617019 0.1299065 -0.22797251
0.039511904 0.07019388 -0.029620977 0.019218508 -0.06789023 0.17860109 0.025200887 -0.061089553
0.085743904 0.17792967 -0.6390976 -0.04559132 -0.029578445 0.18128057 -0.6333742 0.06876156
0.12511434 0.019715734 0.10378076 0.12353236 -0.057541285 0.0064998176 -0.07371378 -0.08009818
0.15114364 0.084345005 0.1548397 -0.04947828 -0.20636773 0.008736951 0.226036 -0.039944395
-0.105214 -0.08733165 -0.09072766 0.50490415 -0.22859944 0.31386954 -0.09562416 -0.5286992
0.109075606 0.3903142 0.10850994 -0.1661 0.31548366 -0.06615379 -0.074019514 0.06720764
-0.44254985 -0.10551862 -0.15255524 -0.026838543 -0.2423537 -0.008408395 0.50317687 0.5926428
-0.008812976 0.25351074 0.25783664 0.053380262 -0.09660554 0.03879384 0.17634527 -0.28488854
-0.03823291 -0.11321137 -0.047047943 0.08204422 -0.05846596 0.25652516 0.20366478 0.026111137
0.07824475 0.15113787 -0.12554678 -0.0137799075 -0.1250834 0.07090698 -0.14332654 -0.09663093
0.066726424 0.043235846 0.013571343 -0.10469271 0.03084269 0.028925264 -0.123249516 0.12131041
0.012206787 -0.4304468 -0.09753774 -0.21029513 0.1731908 -0.020674968 -0.35825178 0.5217475
0.15362163 0.2937319 -0.085157655 0.050432082 0.014576484 0.087108664 0.13705966 -0.032513358
0.063159846 -0.08965338 1.2158445 0.12352699 0.04696295 -0.19193022 -0.5862572 0.31366614
0.112175666 0.01880141 0.1377606 0.21011585 0.0021129088 0.019182825 0.14732483 -0.06625971
0.20965368 -0.12505363 0.2024239 -0.26249883 -0.27855515 0.009352121 -0.13756858 0.22624335
0.31384966 0.30241197 0.026738537 0.007822935 0.19175334 -0.023737459 0.0401743 -0.04972728
-0.5304982 0.10049005 0.117435835 0.41228503 0.18524708 -0.22433329 -0.14423169 0.38466823
-0.83229554 -0.11091652 -0.16339344 0.0031421352 0.5218079 -0.027808102 0.24401797 0.34299293
0.13243556 -0.029128747 -0.034671664 0.42694584 0.8775026 -1.148941 -0.095615625 -0.20232543
0.9115101 -1.0780032 0.21646003 0.015899027 -0.23960423 0.08996635 0.16285203 -0.011891981
0.19460376 0.006690276 0.06430567 0.2724342 0.0016115697 0.011725533 -0.104052424 0.0054509686
-0.28347078 0.99075323 0.418716 0.34646592 0.018332 -0.3023771 -0.008726634 0.4000884
0.024814209 -0.01832468 -0.08119163 -0.041448597 -0.08613223 -2.955324 0.012809681 -0.051287387
0.056575157 -0.11792989 -0.0012819227 0.023590593 0.014142408 -0.007339394 0.05539946 -0.018713346
-0.013248282 0.030725038 -0.0062461286 0.044835873 0.03668289 0.017561866 0.015362293 -0.02326469
-0.16784862 0.46479535 -1.7906846 0.070661135 0.0019641304 -0.6529687 0.07076374 -0.010747517
-0.55702156 -0.092475966 0.07448535 -0.099547945 -0.1713453 -0.0023035107 -0.16256301 0.13845013
0.12693013 0.15573633 0.5395719 -0.3176282 0.29106835 0.08738497 0.115151756 -0.011847486
0.01707846 -0.24458602 -0.12827411 0.044952985 -0.04226771 -0.24408019 0.026453769 0.008363436
0.15650226 0.023899367 -0.1738205 0.13988687 -0.07614728 0.012511864 -0.38660222 -0.26141927
00000000: 9661 8dbd a350 1cbe 33b5 513e b776 45bb
00000010: f612 8d3d b15f a53a 3606 053e a071 69be
00000020: 3cd7 213d cfc1 8f3d b1a7 f2bc 2270 9d3c
00000030: 080a 8bbd 34e3 363e 1772 ce3c 0a39 7abd
00000040: 809a af3d 3233 363e e69b 23bf f7bd 3abd
00000050: 7f4e f2bc 9da1 393e d024 22bf dcd2 8c3d
00000060: f91d 003e e482 a13c 028b d43d 89fe fc3d
00000070: 69b0 6bbd 6cfc d43b 40f7 96bd 840a a4bd
00000080: 66c5 1a3e 13bd ac3d 4c8e 1e3e bda9 4abd
00000090: 1052 53be 6e25 0f3c fb75 673e bc9c 23bd
000000a0: 707a d7bd f0da b2bd 6ccf b9bd 6641 013f
000000b0: f915 6abe 82b3 a03e 99d6 c3bd d558 07bf
000000c0: 0863 df3d 43d7 c73e 763a de3d 1e16 2abe
000000d0: 1387 a13e a37b 87bd 8b97 97bd 29a4 893d
000000e0: e595 e2be 251a d8bd 7137 1cbe 81dc dbbc
000000f0: 912b 78be 5dc3 09bc 33d0 003f 70b7 173f
00000100: 4d64 10bc 29cc 813e 2a03 843e 43a5 5a3d
00000110: 20d9 c5bd 4ae6 1e3d db93 343e e9dc 91be
00000120: 1d9a 1cbd 5ddb e7bd 58b5 40bd cd06 a83d
00000130: 017a 6fbd 4457 833e 808d 503e 06e7 d53c
00000140: c93e a03d e3c3 1a3e 568f 00be 1fc5 61bc
00000150: dd15 00be ae37 913d 31c4 12be 70e6 c5bd
00000160: dda7 883d 1218 313d 575a 5e3c 2269 d6bd
00000170: cfa9 fc3c adf4 ec3c 3e6a fcbd 9871 f83d
00000180: fafe 473c 8663 dcbe dec1 c7bd 9b57 57be
00000190: ee58 313e 8d5e a9bc c76c b7be 3f91 053f
000001a0: fd4e 1d3e 0764 963e 2367 aebd df91 4e3d
000001b0: 35d2 6e3c 0766 b23d 5e59 0c3e ba2c 05bd
000001c0: f359 813d 319c b7bd cba0 9b3f b8fb fc3d
000001d0: 395c 403d 5b89 44be f414 16bf d998 a03e
000001e0: 5bbc e53d 6a05 9a3c 1d11 0d3e 9c28 573e
000001f0: ba78 0a3b 4d25 9d3c 52dc 163e 2cb3 87bd
00000200: 74af 563e 0f0e 00be 3648 4f3e 3f66 86be
00000210: c89e 8ebe a339 193c c7de 0cbe 56ac 673e
00000220: e7b0 a03e bed5 9a3e c70a db3c c42b 003c
00000230: fd5a 443e 0f75 c2bc cf8d 243d d5ae 4bbd
00000240: bbce 07bf bacd cd3d 3382 f03d 0617 d33e
00000250: 69b1 3d3e a0b7 65be 79b1 13be 3cf3 c43e
00000260: 5211 55bf 3328 e3bd 9c50 27be 48ec 4d3b
00000270: 3495 053f d1cd e3bc d9df 793e c59c af3e
00000280: 309d 073e 699f eebc e003 0ebd a598 da3e
00000290: 03a4 603f 8010 93bf 20d2 c3bd 662e 4fbe
000002a0: ba58 693f 02fc 89bf b3a7 5d3e ad3e 823c
000002b0: d05a 75be 4740 b83d afc2 263e 95d6 42bc
000002c0: 3546 473e 1a3a db3b b1b2 833d 7f7c 8b3e
000002d0: 4e3b d33a 731c 403c 7019 d5bd 0a9e b23b
000002e0: 1523 91be 01a2 7d3f f261 d63e fb63 b13e
000002f0: fe2c 963c 2cd1 9abe 28fa 0ebc 63d8 cc3e
00000300: 2b47 cb3c a41d 96bc cc47 a6bd 01c6 29bd
00000310: 1866 b0bd 0724 3dc0 b2df 513c b912 52bd
00000320: 5abb 673d 3a85 f1bd 3006 a8ba 0f41 c13c
00000330: 8fb5 673c 4d7f f0bb 8bea 623d bb4c 99bc
00000340: 520f 59bc 13b3 fb3c 53ac ccbb d2a5 373d
00000350: cc40 163d e7dd 8f3c 21b2 7b3c 9795 bebc
00000360: 82e0 2bbe a8f9 ed3e 2735 e5bf c9b6 903d
00000370: a4b8 003b f528 27bf 94ec 903d 5b16 30bc
00000380: f798 0ebf 0a64 bdbd c68b 983d cbdf cbbd
00000390: 2475 2fbe 7ff6 16bb eb76 26be dfc5 0d3e
000003a0: f9f9 013e 5879 1f3e 6221 0a3f 2aa0 a2be
000003b0: e906 953e e4f6 b23d afd4 eb3d f51b 42bc
000003c0: 20e8 8b3c c274 7abe 4a5a 03be 9f20 383d
000003d0: e820 2dbd 28f0 79be 93b5 d83c cb06 093c
000003e0: 2142 203e 9bc8 c33c 00fe 31be 813e 0f3e
000003f0: 1bf3 9bbd 90fe 4c3c baf0 c5be bfd8 85be

enc2.1.conv1.pointwise.bias f4 [8]
2.298453 1.4703332 0.861213 0.96260583 1.2818975 -0.8095914 0.49022767 1.3791934
00000000: db19 1340 e133 bc3f 7578 5c3f 566d 763f
00000010: 3815 a43f 6241 4fbf 1fff fa3e 6989 b03f
