archs/basicSR_models/weights/pruned90_pipelinedYuNET.pth (torch, 324187 bytes, 305 tensors)

weight f4 [1, 3, 3, 3]
000000 7e de 1e 3e fc 4c b6 3d 51 07 9d bd 52 18 fb 3d
       0.15514562 0.08901402 -0.07667411 0.12260498
000010 f0 42 41 bc 99 7a 39 bd 6b ef 45 bd 5f 95 91 bd
       -0.011795744 -0.045282934 -0.04832403 -0.071085684
000020 17 66 f9 3d 2c d1 bc 3e 3d 3a b3 3e 0a 2c 5c 3e
       0.12177675 0.36878335 0.3500537 0.21501175
000030 f1 ae 91 3e df f5 14 3e dc b9 48 3e c5 53 5a 3e
       0.28453782 0.14546917 0.1960215 0.21321018
000040 4e 74 7b 3e f5 df b4 3e 89 3d 39 3e 64 a8 a2 3e
       0.24556085 0.35327116 0.1808988 0.31769097
000050 69 40 8a 3e bb b8 aa 3e 1d 3a f9 3e 1b 69 01 3f
       0.27002266 0.33344063 0.4867715 0.50551003
000060 05 43 d7 3e 28 00 09 3f ae 05 3d 3f
       0.4204332 0.53515863 0.7383679

weight f4 [1, 1, 3, 3]
000000 64 36 04 bd 61 69 a9 3e 38 62 b8 3e 71 f7 10 bc
       -0.032278433 0.3308821 0.36012435 -0.008848057
000010 b5 33 3f 3e b7 e1 85 3e ce 3a 91 bb 3a 15 46 be
       0.18672068 0.2614877 -0.004432059 -0.19344035
000020 7c 41 07 be
       -0.13208574

weight f4 [1, 1, 3, 3]
000000 92 2c f8 3d 7b be 1f 3d 9b b3 a6 3c b7 0f a0 3e
       0.12117876 0.039000016 0.020349314 0.3126199
000010 86 b2 a3 3f b7 9b 73 be e7 cd 08 bf e3 0a 93 bf
       1.2788856 -0.23789869 -0.5343918 -1.1487697
000020 f0 7a 3d 3e
       0.18503928

weight f4 [1, 1, 3, 3]
000000 d4 aa 02 3d 8e ad 5e bb d7 dc 82 bd 8c cb 7d 3d
       0.031901196 -0.0033977958 -0.06389778 0.061961696
000010 44 41 f2 be e0 51 18 be 22 5b b7 3d 6c 75 f5 bd
       -0.4731542 -0.14874983 0.08952929 -0.11985287
000020 a1 e0 46 3d
       0.048554067

weight f4 [1, 1, 3, 3]
000000 ca 03 4b 3d 00 69 35 3c a6 b2 35 bc 21 59 1c bd
       0.04956416 0.011072397 -0.011089956 -0.038170937
000010 f4 04 31 3f d1 85 4a bd 98 4c 43 bd 37 47 6e 3d
       0.6914818 -0.049444024 -0.047680467 0.058173385
000020 ab 4b a9 bb
       -0.005166491

weight f4 [2, 1, 1, 1]
000000 c7 34 87 3d 52 a5 8a 3e
       0.06601863 0.27079254

bias f4 [2]
000000 ac a1 bf 3d 44 19 25 bd
       0.09357008 -0.0403073

weight f4 [2, 1, 3, 3]
000000 35 8f 06 be d9 4c c2 bd 6c 50 71 bc 4c d5 41 be
       -0.13140567 -0.09487314 -0.014728647 -0.18929023
000010 d8 d9 2d be 35 8f aa bd 29 c9 bc bd 3f b1 d4 bd
       -0.16977632 -0.08328096 -0.09218056 -0.103853695
000020 fe 45 28 be cf 06 22 be 55 a4 24 3e e3 09 7c 3c
       -0.1643295 -0.1582291 0.16078313 0.015383217
000030 9d 5b a2 bc d0 a0 84 3e 68 bc 57 be af 9f fe 3d
       -0.019819075 0.2590394 -0.21067965 0.12432801
000040 35 15 9b bd 79 65 d2 bd
       -0.07572404 -0.102732606

bias f4 [2]
000000 74 37 1c ba d5 28 bd bd
       -0.0005959191 -0.09236304

weight f4 [2]
000000 f1 ae bf 3e ae 33 bd 3e
       0.37438157 0.3695349

bias f4 [2]
000000 a3 90 91 bc b5 6d 4d bd
       -0.017769163 -0.050153453

running_mean f4 [2]
000000 7a ff ed bd 60 8e bb bd
       -0.11620994 -0.09158015

running_var f4 [2]
000000 e3 37 0a 39 11 c6 8b 39
       0.00013181525 0.00026659717

weight f4 [6, 2, 1, 1]
000000 e5 f7 81 bd e0 20 1e 3e 71 02 01 3e e1 75 20 be
       -0.0634611 0.15442228 0.12598588 -0.15669967
000010 b7 06 32 3e 1f 48 86 bd 24 30 5b 3e 10 83 74 3e
       0.17385374 -0.06556725 0.21405083 0.23878121
000020 27 86 bb 3e 6e 2e b3 bd dc 8d c9 3d d4 38 eb be
       0.36625788 -0.0874909 0.09841511 -0.45941794

bias f4 [6]
000000 34 70 80 3d ff 70 f0 bd 1a cb 50 be 39 e5 a3 3c
       0.06271401 -0.11740302 -0.20389977 0.020006763
000010 94 74 33 3e 3e a2 0a be
       0.1752494 -0.13538453

weight f4 [6, 1, 3, 3]
000000 3a f7 95 3d 65 98 2d be ab b0 cd be b3 1b 48 3d
       0.07322545 -0.16952665 -0.4017385 0.04885454
000010 96 1e a3 bd 2a 6f c4 bd 2c 4f 22 3e 3f 90 06 3c
       -0.07964818 -0.09591515 0.15850514 0.008213102
000020 ca 3f ff bc 8c 13 03 3d ef 56 d9 be 23 15 65 be
       -0.031158347 0.032001063 -0.42449138 -0.22371344
000030 2f 8e 9c bd 87 b0 ea 3c 70 d6 30 bc d3 36 bc bc
       -0.07644307 0.028648628 -0.010793313 -0.022975361
000040 c1 df e9 3b 59 6f 50 3d a1 8d 13 bd c1 9d 60 be
       0.0071372692 0.05088744 -0.03602374 -0.21935178
000050 b7 4c 01 be be 03 a5 3d 73 1c 53 be e8 fc 9b 3d
       -0.1262692 0.080573544 -0.20616321 0.076165974
000060 26 7b b7 3e 32 c8 da 3d 7f d1 cf 3c c2 e5 86 3d
       0.35836142 0.106827155 0.02536845 0.065867916
000070 b0 d1 06 3e 34 dd 09 3d cb fd 84 bc b5 62 27 be
       0.13165927 0.03365822 -0.0162343 -0.16346247
000080 ed 55 c3 3d 8c 32 80 be 22 7e b1 be db 68 c1 bd
       0.095378734 -0.25038564 -0.34666544 -0.09443828
000090 63 e8 ed bc de 8e 64 3e 53 bb 46 bd 9e 68 31 bd
       -0.029041475 0.22320125 -0.04851849 -0.04331266
0000a0 79 8e 9c be 04 51 4a 3d 10 4b 0d be 39 a2 fb bd
       -0.30577448 0.04939367 -0.13798165 -0.12286801
0000b0 c7 83 1d 3d eb ad 79 bd e7 66 d6 bc 5b 09 af bd
       0.03845575 -0.060956877 -0.026172115 -0.08546706
0000c0 40 02 c3 3d 3b 2c b5 3e 06 e0 9f 3d 29 00 62 3e
       0.095219135 0.35385308 0.07806401 0.22070374
0000d0 63 64 2a 3e a8 0a 0b 3e
       0.16639857 0.13578284

bias f4 [6]
000000 95 7f 4f 3d 98 77 25 bd ca 13 be 3c 1f cb 3c bd
       0.05065878 -0.040397257 0.023202796 -0.04609215
000010 12 bd 65 bd 6c e3 3e bd
       -0.056088515 -0.046603605

weight f4 [6]
000000 da be 91 3e 7c 09 74 3e f5 04 62 3e e2 9e dd 3e
       0.2846592 0.23831743 0.22072203 0.4328528
000010 b2 6d 93 3e c7 ff d3 3e
       0.28794628 0.4140608

bias f4 [6]
000000 fc 70 b0 3e 03 be 8a 3e 21 b1 a6 3e 61 0d ae 3d
       0.344612 0.27098092 0.32557014 0.084986456
000010 f8 8f a0 3e 0d a5 c2 bb
       0.3135984 -0.0059400857

running_mean f4 [6]
000000 fc 7a 5f 3c 59 ed 1c 3d 86 ef 51 3c 62 17 cf bd
       0.013640162 0.03831229 0.0128134545 -0.10111882
000010 86 8a 0d be 3a c2 67 be
       -0.13822374 -0.22632685

running_var f4 [6]
000000 84 9b 3e 3a 09 1e 80 3a 2c 1a 9c 3a 49 56 81 3b
       0.00072710984 0.0009774576 0.0011909655 0.0039470536
000010 da 2d ee 3a c8 39 09 3c
       0.0018171624 0.0083755925

weight f4 [24, 6, 1, 1]
000000 f4 b9 98 be c2 63 7e 3c 46 94 9a 3c b4 66 67 be
       -0.2982937 0.015526714 0.01886953 -0.22597772
000010 7b 22 8b bd da 87 22 be a0 7d 9b bd ea a9 b6 3d
       -0.06793686 -0.15872136 -0.075923204 0.08919127
000020 a3 1e 46 3e 06 c0 83 3e 73 02 38 3e 57 09 6e 3e
       0.19347624 0.2573244 0.17969684 0.2324575
000030 37 fe 0c 3b 3d b4 3c be 92 3e a5 3d 9a b4 93 bd
       0.0021513829 -0.1842813 0.08068575 -0.072121814
000040 76 31 28 3e 2e 64 a3 be 07 f2 14 be c9 30 0e be
       0.16425118 -0.3191237 -0.14545451 -0.13885798
000050 e6 bf 2d 3e 73 6b 19 be 7d 64 75 3e 16 d2 29 be
       0.16967735 -0.14982395 0.23964114 -0.16584048
000060 6f 64 85 3d 4d ec ce 3d 65 a7 5b be 4f 42 68 bd
       0.06513297 0.101036645 -0.21450575 -0.05670386
000070 24 b3 aa 3d 86 ba b4 bd e0 3a 2b bd 85 7e 3e 3e
       0.083349496 -0.08824639 -0.041804194 0.18602951
000080 86 f8 fe bc 29 66 06 3e ae e0 8c be 15 9a 15 be
       -0.031124365 0.13124909 -0.27515167 -0.14609559
000090 ef e0 05 3e 57 b0 33 3d cb 9c de 3d d8 c7 31 3e
       0.13074087 0.043869343 0.1086975 0.1736139
0000a0 03 1b 6a 3e a7 8c 86 be 01 60 35 3d 8b 5c ee bd
       0.22861867 -0.26279184 0.04428101 -0.11638745
0000b0 98 82 a7 3d 21 92 7e 3d 9b 7e ad 3d b5 53 02 3e
       0.08179206 0.062151078 0.08471414 0.12727244
0000c0 a1 2e fd bd 90 6b 10 be 3d e4 36 bd ca c3 f2 bd
       -0.123624094 -0.14103532 -0.04465126 -0.1185375
0000d0 0f 79 81 be bc 95 4b bc 51 29 09 3e 89 8e 45 3e
       -0.25287673 -0.012425836 0.13394667 0.19292654
0000e0 ae 9c 3e bd 68 8d 0e 3e 60 0a 10 3e dd 3a 2e 3d
       -0.04653614 0.1392113 0.14066458 0.042536605
0000f0 53 5f df 3e 2a 62 97 3c 7d 06 a9 3b b1 47 b7 3c
       0.43627414 0.018479425 0.005158244 0.022373052
000100 25 3f 00 be e1 f0 3e be 0b cc cc bb 16 77 57 be
       -0.12524088 -0.18646576 -0.0062499098 -0.21041521
000110 91 64 54 3e 85 f1 b2 3b b2 29 a9 3c 28 13 9b bc
       0.20741488 0.0054609203 0.020649765 -0.018930033
000120 7e 28 1c 3d 5c fe da bc 90 b5 c9 3c 58 3b 12 be
       0.038124554 -0.026732616 0.024622709 -0.1428045
000130 d8 c2 ba bd fa d4 2a bd 5b 1c 15 be d8 29 ad 3c
       -0.09119195 -0.041707017 -0.14561598 0.021138117
000140 a8 0c 97 3d fe b4 33 be aa 9e 78 3e 84 3b 4b be
       0.07375461 -0.17549512 0.24279276 -0.19846922
000150 a8 2c c3 bc 11 03 04 be 85 2c 05 3e 9b 4f f1 3d
       -0.023825005 -0.12891795 0.13005264 0.11782762
000160 3f 79 38 3e 51 0c b3 bd 34 88 be bc 40 b8 2a 3e
       0.18015002 -0.087425835 -0.023258306 0.16671848
000170 94 c5 3b be 43 34 06 be d7 bc b1 bd 94 bb 46 be
       -0.18337089 -0.13105874 -0.086785965 -0.19407493
000180 61 c3 8a be d2 ad 3c be 39 b5 44 bd 75 b6 f4 bd
       -0.27102187 -0.18425682 -0.04802439 -0.119488634
000190 4a 08 cb 3d 1d 85 8f bd 6d e5 8c bd c2 91 fa 3d
       0.099136904 -0.07007811 -0.06879697 0.12234832
0001a0 05 a8 07 be 49 08 13 be 47 4c 07 be 7c 92 38 be
       -0.13247688 -0.1435863 -0.13212691 -0.1802463
0001b0 d8 21 16 3e f0 7d 0e 3e 7a 8f 30 3e 0e ff 3e 3e
       0.14661348 0.13915229 0.17242232 0.18651983
0001c0 99 a1 b6 bd d2 7b 95 3e cd aa 0b be a0 47 23 be
       -0.08917541 0.2919603 -0.13639374 -0.15945292
0001d0 fc 17 15 be 9f 69 a7 3d 82 1e 03 3d bc af 19 3e
       -0.1455993 0.081744425 0.032011516 0.15008444
0001e0 09 f2 36 3e 76 66 b8 3d db 4e 7a 3e 46 eb 1f bd
       0.17865767 0.09003918 0.24444143 -0.039042734
0001f0 e5 ec 0b be 5c b0 83 3c a9 43 48 be 75 d4 17 3e
       -0.13664587 0.016075306 -0.1955706 0.1482714
000200 26 2a 2c be 39 c8 63 be ec 78 6f bc c5 ab 70 bd
       -0.16812953 -0.22244348 -0.014616232 -0.058757562
000210 88 80 f2 3d 27 a4 54 3e 27 41 a1 3d 07 d1 1e 3e
       0.11840922 0.20765744 0.07873755 0.15509425
000220 fb 8d 34 be 96 03 3c 3d 4f 52 3d 3e 1b fd 81 3c
       -0.17632286 0.045901857 0.1848843 0.01586776
000230 16 14 0a be cb c9 6c be d7 ff 4b bd 8f 3c 82 bd
       -0.13484225 -0.23123853 -0.049804535 -0.06359207

bias f4 [24]
000000 fa 23 9a 3d 51 b0 eb bd 86 e6 06 3e 44 ce 88 3e
       0.07526393 -0.11508239 0.13173875 0.26719868
000010 9d 07 79 3c aa db 28 bd e4 e1 e1 3c ba ff 4f 3b
       0.015199569 -0.041225113 0.027573533 0.0031738118
000020 9e 3c 43 bc de 03 76 3e 7e 34 b8 bb 99 8d f9 bc
       -0.011916308 0.24024913 -0.005621492 -0.030463027
000030 f3 00 3b be e3 1a c1 3d 69 16 c7 3d 5a 53 9b bd
       -0.18262081 0.09428956 0.09721071 -0.075842574
000040 fe 71 e8 bd 48 90 ce bd f9 06 ab 3c b3 3e 5a 3d
       -0.11349867 -0.10086113 0.020877348 0.05328245
000050 8f 5e 3a 3e 2e 95 2d be 95 f6 43 be c2 30 e2 3d
       0.18200134 -0.16951439 -0.19137032 0.11044456

weight f4 [24, 1, 3, 3]
000000 36 16 63 be ab 6f 1f bd d0 55 35 3e 84 7f 10 bd
       -0.22176442 -0.038924854 0.17708516 -0.03527786
000010 e8 98 8a 3d 5d 03 18 3e ee 96 27 bc f0 3a 59 3e
       0.06767446 0.14845033 -0.010228856 0.21213889
000020 a4 c2 70 3e 16 b2 93 bd eb f4 7b be eb d9 a7 be
       0.2351175 -0.072117016 -0.24605148 -0.32783446
000030 4f 25 20 bc 46 56 07 be b1 76 15 3e 66 01 27 3e
       -0.00977452 -0.13216504 0.14596058 0.16309127
000040 55 95 d1 bd f7 7a 61 bb 43 77 56 3e 98 7a 43 3e
       -0.10233561 -0.0034405568 0.20943932 0.19089735
000050 88 9c b3 bd c5 d5 e5 bc 49 f5 57 bc ae f3 4e bd
       -0.0877009 -0.028056035 -0.013181039 -0.05052536
000060 d2 1e 4d 3e af 0b 13 3e 31 05 a1 bd ff 78 ff 3c
       0.20031288 0.14359926 -0.07862318 0.031185625
000070 b2 23 c9 ba d7 50 85 3e b2 e3 b9 bc 2b 27 5f 3d
       -0.0015345721 0.26038238 -0.022691581 0.054480713
000080 d6 ea ad 3d 6d a8 cb bc 44 1e 1c 3e 9f 75 8a 3e
       0.08492057 -0.024860585 0.1524592 0.27042863
000090 cc b0 fa bc 07 d4 8f be 07 5b 8d bd c7 a8 8c 3c
       -0.030601881 -0.28091452 -0.06902128 0.017170323
0000a0 a4 1c 74 3e ce b7 9d 3e ab bc 93 bc ff f2 80 bb
       0.2383905 0.30804294 -0.0180343 -0.0039352174
0000b0 db 31 8f bd d7 a4 03 bc e9 d2 a0 bd 36 f1 25 bd
       -0.06991931 -0.008034906 -0.07852728 -0.04051324
0000c0 66 98 df bc d1 aa c2 be 27 33 fb bd 09 0c 97 bd
       -0.027294349 -0.38020948 -0.12265616 -0.073753424
0000d0 4c 58 05 3e a6 ef 5e 3e 89 74 b4 bd f1 8a 3c bd
       0.13021964 0.21771106 -0.0881129 -0.046030942
0000e0 50 64 63 3d 8e e4 10 3d 0f e7 d0 be e0 df f0 bd
       0.055515587 0.035374217 -0.40801284 -0.11761451
0000f0 64 1e 10 3e 92 cf cd bd f3 f1 f1 bd 73 6f e6 3d
       0.14074093 -0.100493565 -0.11813726 0.11251726
000100 e2 51 99 3e 1c 9d 43 3e b8 be a9 bb f7 e6 10 3e
       0.29945284 0.19102901 -0.005180206 0.14150606
000110 e5 12 ec 3d 75 43 5b bb 18 bb 8c 3d a7 3c 97 bd
       0.11527041 -0.0033456956 0.06871623 -0.073846154
000120 a6 f6 de 3d e0 48 5b be fe 8c d5 bd 6e 80 29 3d
       0.10886888 -0.21414518 -0.10427283 0.041382246
000130 cc 2c 8e 3e c5 09 d9 3d f8 df 69 bd ca c9 a1 3d
       0.27768552 0.105975665 -0.05709836 0.07899816
000140 b7 c8 f3 3d 97 86 66 3d 1e dd 17 be 20 1f e1 3c
       0.11903518 0.0562807 -0.14830443 0.027480662
000150 42 1d d7 bd f7 84 10 be 50 66 e5 3c 6c aa 5e 3c
       -0.10503627 -0.14113222 0.028002888 0.013590436
000160 b9 59 0e be 3b 1e 6c be e5 11 63 be 4f 39 b5 bc
       -0.13901414 -0.23058407 -0.22174795 -0.022122053
000170 1a 8e 68 bd c8 f4 ce bd db 88 cb be 40 0e fb 3d
       -0.056776144 -0.10105282 -0.3975285 0.12258577
000180 80 57 20 be 03 c7 dc bd e2 1e 3d bd d6 97 9b bd
       -0.15658379 -0.10780146 -0.04617203 -0.0759732
000190 ce ef 28 3e c5 49 37 3d 7d f5 b5 bd 2b 12 6b 3e
       0.16497728 0.044748086 -0.08884714 0.2295615
0001a0 f4 26 34 3d 84 fb 55 3d 98 b5 9c 3e bd 6d 33 3e
       0.04398246 0.052241817 0.30607295 0.1752233
0001b0 e1 22 1f 3e 6c 60 ea 3e c8 17 e4 3e 98 42 c3 3d
       0.15540649 0.4577669 0.44549394 0.09534186
0001c0 56 5e 1b be 46 d6 03 bd bc ba 1f 3d 58 52 96 bd
       -0.15172705 -0.03218677 0.038996443 -0.073399246
0001d0 93 1b 05 bd 70 80 02 bb 4d 87 7e 3e f4 cb ce 3c
       -0.032497 -0.001991298 0.248563 0.025243737
0001e0 af c5 03 3d 3f e1 47 3e 78 27 c1 bd 0d 61 3f 3e
       0.032170948 0.19519518 -0.09431356 0.18689366
0001f0 22 85 86 3d 76 e7 16 be cc 5e d7 3c e5 41 e8 bc
       0.06568362 -0.14736733 0.02629032 -0.028351733
000200 aa 1f 08 be 8b 2d b1 bd 7d 2a 84 be 51 70 05 be
       -0.13293329 -0.08651265 -0.25813666 -0.13031127
000210 de f9 0a be 9e 02 b4 bd bf 7c f6 ba d9 cc a4 3c
       -0.1357188 -0.08789562 -0.0018805488 0.02011721
000220 ae bc 86 bd 5f 1a 95 bb 8d da 7e 3d 08 d8 8c 3e
       -0.065789565 -0.004550263 0.062220145 0.2750857
000230 fe f5 f4 3d 43 bf 38 3e d1 c4 4d 3d fe 9d 22 3e
       0.11960982 0.1804171 0.050236527 0.15880582
000240 40 e4 a1 3d 3f c6 f4 3e 73 97 94 bd 11 2b 7e 3d
       0.07904863 0.478075 -0.07255449 0.06205279
000250 c6 f0 10 3e 73 18 03 be 6a 1c 79 3d 0f 44 66 bc
       0.14154348 -0.12802295 0.060818113 -0.014054312
000260 55 57 4c b9 2a 0a 62 3d 4f 0b a4 bd 2f 11 41 bd
       -0.0001948749 0.055185474 -0.080099694 -0.04713553
000270 35 ef 12 bd 07 bf cf bd d1 01 b3 bd 91 9e 91 bb
       -0.035872657 -0.101438574 -0.08740581 -0.0044439514
000280 26 b2 e7 3e 44 04 58 3e 20 b3 6e be 9a 9d aa be
       0.45253104 0.21095377 -0.23310518 -0.33323365
000290 fc b8 eb bc 8b b5 88 bd 2b 25 95 bd 9e 37 c5 3d
       -0.02877473 -0.066752516 -0.0728248 0.09629749
0002a0 d1 3d 58 3d 54 c1 a4 bd 00 7b 6e 3b 92 54 5d bc
       0.052793328 -0.08044687 0.0036389232 -0.013508933
0002b0 06 68 1c 3e d4 c7 45 3e 51 7e ea 3c e1 52 a1 3d
       0.15274057 0.1931451 0.028624685 0.07877136
0002c0 ed 8e 8a 3e 3f fd 89 3c de 9e f0 3d 2d ca 86 3d
       0.2706217 0.01684439 0.117490515 0.06581531
0002d0 60 11 10 3e 2e 02 cf 3d b8 d7 a7 3d 16 25 3c 3e
       0.14069128 0.101078376 0.08195442 0.18373522
0002e0 b0 35 cc 3d e1 d6 00 3d 00 34 05 3e de 3f 98 3d
       0.099711776 0.031454924 0.13008118 0.07434057
0002f0 e3 24 24 3d 3a 5c 36 bd 01 6a e1 bc ee 96 6f 3c
       0.04007424 -0.044521548 -0.027516367 0.014623387
000300 84 90 a3 bd 01 85 c1 bc e5 8e 9f bd 14 31 96 be
       -0.079865485 -0.023622992 -0.07790927 -0.2933432
000310 72 6b 3a be 7a 06 da bd be b2 91 3d 70 1e d6 3b
       -0.1820505 -0.106457666 0.071141705 0.00653439
000320 13 4f 93 be df 80 33 3a e9 44 6c bd 06 b8 50 be
       -0.28771266 0.00068475114 -0.057682905 -0.203827
000330 7f 0e d0 3d 4a 69 d5 bd 9a f1 b3 bc 3e 4f 77 bd
       0.10159015 -0.10420473 -0.02196579 -0.060378306
000340 d7 cf 44 3e ae fe 08 3d f6 78 01 be f6 2a 50 3e
       0.1921991 0.033446006 -0.12643799 0.20328888
000350 eb 58 d3 3c ae db 33 be 9f 64 3a 3e b8 c0 b9 3d
       0.025799235 -0.1756427 0.18202446 0.09069961

bias f4 [24]
000000 13 08 50 3e fd ff 63 3d 9b f3 18 bd b9 f6 6f bd
       0.2031558 0.05566405 -0.037341695 -0.058584902
000010 62 69 29 3d 6a ff 9b bd 00 8e 37 3d 9f 06 33 be
       0.041360267 -0.07617076 0.044813156 -0.17482994
000020 95 06 a7 bd e0 05 3d 3d 32 0f 16 3d 95 ca 97 3a
       -0.08155552 0.04614818 0.036635585 0.001158076
000030 d6 23 47 bc a7 79 8f bd 33 fe 93 3d db 41 78 3d
       -0.01215454 -0.07005625 0.07226219 0.06060968
000040 46 6d 95 bd 47 c5 d8 bd 68 c0 8d bd d6 20 11 bd
       -0.07296233 -0.10584503 -0.06921464 -0.035431705
000050 c0 3c 96 3d 4b 90 b4 3d 14 b6 03 be 34 f7 14 bd
       0.07335806 0.08816584 -0.12862426 -0.036368564

weight f4 [24]
000000 82 2e 3f 3e 06 5e 39 3e 2e 1b 7d 3e 45 6a 69 3e
       0.18670085 0.18102273 0.247174 0.22794445
000010 b0 96 30 3e 00 8f 49 3e e7 e6 0e 3e 15 ab 52 3e
       0.17244983 0.19683456 0.1395527 0.20573075
000020 46 76 2f 3e 32 a4 2e 3e e8 18 36 3e 21 46 87 3e
       0.17134961 0.17054823 0.17782938 0.26420692
000030 c3 c4 7a 3e ec 6c 89 3e f3 d4 72 3e 4d 94 d7 3d
       0.24489121 0.26840913 0.23714046 0.10526333
000040 96 4f 39 3e 4c 28 91 3e 13 16 9c 3e a0 10 8a 3e
       0.18096766 0.28351057 0.3048559 0.2696581
000050 f7 c9 41 3e 9c 13 e6 3d 4d 29 7b 3e c5 2e 3d 3e
       0.189247 0.11234209 0.24527474 0.18474872

bias f4 [24]
000000 c0 40 83 bd 6d 97 df be 91 95 b0 be 2f 92 35 be
       -0.064088345 -0.43670216 -0.3448911 -0.17731546
000010 6b 04 ff bd 76 f2 00 be b9 82 60 be 84 c9 19 be
       -0.124520145 -0.12592492 -0.21924867 -0.15018278
000020 a7 4d 9c 3c f5 90 b2 3d ff d4 20 be b1 72 d5 be
       0.019079996 0.087190546 -0.15706252 -0.41689065
000030 f8 a1 87 be c0 95 c9 3c 72 71 73 3c 56 29 f6 3d
       -0.2649076 0.02460754 0.01485859 0.12019603
000040 b7 9c 6d be 21 d0 08 3d a2 d9 49 be a1 c9 b7 3c
       -0.23204313 0.033401612 -0.19711927 0.022435011
000050 ed 9c c7 3d 3a cd 1e 3e 5e 9d 5a bc 21 2f 7b 3d
       0.09746728 0.15507975 -0.013343183 0.061324243

running_mean f4 [24]
000000 4d 20 0f 3e 69 05 c2 3b 26 e8 5b 3c d5 b3 0e 3e
       0.13977166 0.005921055 0.013422048 0.13935788
000010 63 dd 1e 3d 59 c1 19 bd 10 6e b4 bd 78 4f ef bd
       0.03878535 -0.037537906 -0.08810055 -0.11685079
000020 20 a5 27 be 98 98 59 be b6 0f 5c bd 4e 97 79 bc
       -0.16371584 -0.21249616 -0.05372592 -0.015233828
000030 4d c6 5a be 5d d7 a9 bc 27 98 8a bd 7e 9e a6 bd
       -0.21364708 -0.020732576 -0.06767302 -0.08135699
000040 a5 da 74 be 89 a4 3f be ba 66 53 be a5 8e 94 bd
       -0.23911531 -0.18715109 -0.20644656 -0.0725377
000050 ce 78 a7 3e 81 c1 ab 3e fa 86 b5 bd 42 e0 43 bc
       0.32709354 0.3354607 -0.08863635 -0.011955323

running_var f4 [24]
000000 31 88 20 3b cd 54 1e 3b cd 3e 2a 3a 18 03 24 3b
       0.002449524 0.0024159432 0.00064943434 0.0025026258
000010 2d a3 0b 3a 1d 1c 50 3a cf 7e f7 3a a9 e1 36 3a
       0.0005326744 0.00079387595 0.0018882396 0.0006976375
000020 9e ed 28 3a 2b 9d b9 3a 55 38 88 3b 2c b3 fd 39
       0.0006444099 0.001416122 0.004157106 0.00048389414
000030 aa 7d 5f 3b 98 39 b4 3a 69 58 57 3a fc 63 e4 3a
       0.0034102001 0.0013750074 0.0008214773 0.0017424817
000040 b0 a2 fe 3a 1a 7f 24 3b 26 18 02 3b b7 6c 91 3a
       0.0019427147 0.0025100172 0.001985082 0.0011095022
000050 87 99 f8 3a 43 97 4e 3b 2f cd 0e 3a 4c f6 a5 3a
       0.0018966653 0.0031523264 0.0005447445 0.0012661903

weight f4 [19, 24, 1, 1]
000000 16 2b c2 bd 55 46 f7 3d 5c bc 78 be 18 e1 54 3e
       -0.09480874 0.12073962 -0.24290603 0.20788991
000010 97 43 86 bd 24 9b d5 bc e0 38 0e 3e 36 1a 5c 3d
       -0.065558605 -0.026074953 0.13888884 0.053735934
000020 d7 6e 2c 3e 25 2b 5a be 33 4d 14 3e 45 87 bc bb
       0.16839157 -0.21305521 0.14482574 -0.00575343
000030 65 e5 00 be 06 0b 05 3e 49 36 0c 3e e3 d9 0e 3e
       -0.12587507 0.12992486 0.13692583 0.13950305
000040 dd 1e a5 bd b3 20 78 3d 13 e1 6c be c7 79 d0 3d
       -0.08062527 0.06057806 -0.23132734 0.10179477
000050 9b f3 8b bd 73 62 14 be 49 7f 32 bc 96 71 5d bc
       -0.068335734 -0.1449068 -0.010894605 -0.0135158505
000060 b7 b6 e8 3d dd fe 0a 3a 34 b9 a3 be 0f 0a 09 be
       0.11362975 0.000530226 -0.31977236 -0.13382743
000070 fa f3 16 be 1d dc 88 3d 01 90 9f 3d 19 7b 45 3d
       -0.14741507 0.06682608 0.077911384 0.0482131
000080 79 a8 42 bc 3f 06 1a be 50 92 14 3e b6 b5 f0 3d
       -0.011880987 -0.15041445 0.14508939 0.117534086
000090 97 89 23 bd 6d 40 2a 3e b6 88 58 3e e8 f0 76 be
       -0.039926138 0.16626139 0.21145901 -0.24115336
0000a0 c8 a6 21 3d 87 cb 24 be df c4 9c 3d 0a ce 10 bd
       0.039465696 -0.16093265 0.07654738 -0.035352744
0000b0 18 d7 4e 3d 23 d4 56 bd b4 b7 f3 3d cd 51 2a be
       0.050498098 -0.052448403 0.11900273 -0.16632767
0000c0 86 bd f7 3c 92 c4 48 bd 54 c8 65 3c 33 10 44 3e
       0.030241739 -0.04901559 0.014024813 0.19146805
0000d0 2a 5b 30 3e 19 c9 0d 3e 36 30 ee bd 12 0c b2 bd
       0.17222276 0.13846244 -0.11630289 -0.086937085
0000e0 69 69 0f be fb 62 c7 bc 70 79 b7 bd bc 3f 4b be
       -0.14005055 -0.02433919 -0.08958709 -0.19848531
0000f0 13 e7 21 3e 9a e0 66 bc b1 5e 51 3e 03 2c 37 bd
       0.15810804 -0.014091635 0.20446278 -0.044719707
000100 5e 51 29 be f9 95 8a 3d 11 8a 20 3e df 5b a1 bd
       -0.16534945 0.06766886 0.15677668 -0.07878851
000110 31 9e 5a bd d7 76 35 3d 50 64 b1 3d c9 29 69 bc
       -0.05337352 0.044302788 0.08661711 -0.014231154
000120 44 df 1e 3c 01 15 47 3d 12 72 62 bd 20 f7 95 bd
       0.009696785 0.048604015 -0.055284567 -0.07322526
000130 d4 97 42 3d bc 3f fb 3c 61 c1 94 3d b0 7c 21 be
       0.047508076 0.03067004 0.072634466 -0.15770221
000140 1a 3a 12 3e cc d3 3b 3e 03 c1 4c bd 4b ff 74 3c
       0.14279976 0.18342513 -0.049988758 0.014953445
000150 92 2d 31 3d 25 b0 17 3e 8b 49 ec 3d 11 2f af 3d
       0.04325635 0.14813288 0.11537465 0.08553899
000160 41 ad b1 bd bf ec 04 be 13 80 00 bc a4 b7 ab 3d
       -0.08675624 -0.12980936 -0.007843035 0.08384636
000170 ce b0 d0 bd 60 02 80 3d 79 4b 2c 3c 6a b3 9a bd
       -0.10189973 0.06250453 0.010516041 -0.07553752
000180 38 cb 6e 3e ea 8a 99 bd d7 a5 0c 3d f2 0e ab 3d
       0.2331971 -0.07497199 0.034337845 0.0835246
000190 71 91 e5 3c 02 8f 20 be e5 ea 0d 3c 7c b5 9f bc
       0.028023453 -0.15679553 0.00866196 -0.019495718
0001a0 17 7a 1c be f8 de 63 be 81 0b bf 3c 1a 5d 7e bd
       -0.15280949 -0.22253025 0.023320915 -0.062100507
0001b0 cd 33 2c 3e 87 66 95 bd 5b 9f 09 be 12 f2 ad bd
       0.16816635 -0.07294946 -0.13439696 -0.08493437
0001c0 33 37 98 bc 40 ee cf bd 49 71 43 be f5 e2 b9 3d
       -0.018581009 -0.101528645 -0.19086184 0.09076492
0001d0 15 72 2f be 06 15 4d bd ab e3 d6 3c 22 2e dd bd
       -0.17133363 -0.050068878 0.026231607 -0.10799815
0001e0 0f d6 42 3c 99 8d 7b 3d a9 e2 86 be 51 3d 28 3d
       0.011891856 0.061414335 -0.26344803 0.0410741
0001f0 f0 58 df 3d 93 25 df 3d 10 d4 05 be db 5e 96 bd
       0.10905635 0.108958386 -0.13069177 -0.07342311
000200 1c 9c 7c 3e b4 54 5c be 94 d8 1a 3e 3a 94 ac bd
       0.24668926 -0.21516687 0.1512168 -0.084267095
000210 9f 18 7a bd 03 c3 39 bc c8 43 a5 3e e4 b5 b7 3d
       -0.061058637 -0.011337998 0.32278275 0.0897024
000220 1a e1 06 be 0e 2d d4 b9 ea 33 20 be 05 b6 82 3d
       -0.13171807 -0.0004046936 -0.15644804 0.06382374
000230 14 e8 27 bc 4d d0 aa bd 2f 4c 08 3d 58 22 90 3d
       -0.010248203 -0.083405115 0.03327578 0.070378006
000240 37 09 93 3d d8 b4 b6 3c 24 70 ee bd fc d0 10 bc
       0.07179492 0.02230303 -0.11642483 -0.008838888
000250 d3 5d 71 bd 6e 2d f4 3d ac ed 42 3c 07 2f 24 3d
       -0.05892737 0.119227275 0.011897486 0.04008391
000260 95 9b 0a bd 4f fc d4 bd 36 a9 9e bd 35 e7 e7 bd
       -0.03383978 -0.103996865 -0.07747118 -0.11323396
000270 60 72 fd bd 45 fa 2a 3c da 63 85 bd ec ae 8d 3b
       -0.12375331 0.0104356455 -0.06513186 0.004323831
000280 1f 0a b1 bd 78 1b f7 3b 3a ab 6c bd df c4 ae 3d
       -0.086445086 0.0075411163 -0.057780482 0.08533644
000290 24 45 a7 3e cb d4 11 3e 67 ce 36 3c df 4f ad bd
       0.32669938 0.1424133 0.011157609 -0.084625
0002a0 91 87 dd 3c 85 b2 6c 3e 52 34 f4 bd 14 f1 f0 3d
       0.027042182 0.23114975 -0.11924042 0.11764732
0002b0 7a 8a 8a bd ec a7 6c bc e9 31 33 bd 85 3d 79 3d
       -0.067646936 -0.014444333 -0.04374877 0.060849685
0002c0 b8 12 83 3c 95 ee b6 3d 32 df 5f be 8a 34 c3 bc
       0.016000137 0.08932225 -0.21862486 -0.023828764
0002d0 7d 08 7a 3e 97 c3 16 be 6d 14 21 3e 03 c3 8c bd
       0.244173 -0.14723049 0.15730448 -0.06873133
0002e0 3e c8 e1 3d 90 9f f7 bd 07 8e 81 3d b4 f3 13 3e
       0.11024521 -0.12090981 0.06325918 0.14448434
0002f0 5f 24 06 3e 07 96 ff 3d 2c fa 2c be 10 e4 81 bd
       0.13099812 0.12479787 -0.16892308 -0.063423276
000300 45 5e 35 3c d5 31 c1 3c f5 62 80 3d 58 10 f2 3d
       0.011069839 0.023583332 0.062688746 0.118195236
000310 22 11 cf bd c6 2a 5b be d6 a2 22 bc d0 2c 38 bd
       -0.1011069 -0.21403036 -0.009926518 -0.04496461
000320 a5 40 8d 3d 11 4f 4a be ee 55 22 3e 7b c7 cd bc
       0.068970956 -0.19756724 0.15853092 -0.025119534
000330 4a 7c e2 bd fb a8 a3 bb 4f 6a 93 bd d2 5d 9c bc
       -0.110588625 -0.0049945093 -0.07198011 -0.019087706
000340 ee 0b e4 bd 6e 99 47 be 39 19 d9 3d 8a 64 c9 3d
       -0.11135088 -0.19492123 0.10600514 0.098336294
000350 96 60 8f bd 2b 3e da bc c3 59 de bd 33 44 16 3e
       -0.07000844 -0.026640972 -0.108569644 0.14674453
000360 e4 04 b4 3d f1 e4 3a bd 70 4c 4f bd 02 d2 2c 3e
       0.08789995 -0.04562849 -0.050610006 0.16876987
000370 29 4d 97 3c 07 a2 75 bd 4b 1f fc 3d 12 b0 63 bc
       0.01846941 -0.059968974 0.12310656 -0.013896959
000380 e0 26 f4 3d 6f 11 15 3d da 64 e7 bc 3e 7c ac 3c
       0.11921477 0.03639358 -0.028246332 0.021055337
000390 0f e3 12 bc 80 18 2b be d7 6c ac bd 77 68 11 be
       -0.008965268 -0.16708565 -0.08419197 -0.14200006
0003a0 4e 36 e7 bd 73 ad bc 3d 18 2d d7 3c ca 7f 11 3d
       -0.11289655 0.0921277 0.02626662 0.03552226
0003b0 e2 d4 80 bd d1 a7 7c 3e 21 35 be 3d 56 15 2c be
       -0.06290604 0.24673392 0.09287477 -0.16805014
0003c0 a3 cf 00 be 62 b6 8b bb 2a d1 61 bd b5 a9 f5 bd
       -0.12579207 -0.004263685 -0.055131115 -0.1199526
0003d0 af 45 28 3e f3 46 0f 3e 04 3e 1b 3c a2 7d 79 bd
       0.16432832 0.13991909 0.009475235 -0.06091083
0003e0 51 70 83 3d 6f cd 3a be ba 6a a6 3d 07 22 2d be
       0.06417907 -0.18242429 0.08125825 -0.16907512
0003f0 85 f0 7a 3c a9 b4 dc bd dc 28 c8 bc b5 6d ab be
       0.015316133 -0.10776646 -0.024433546 -0.33482137

bias f4 [19]
000000 43 80 0f 3e d3 1b c1 bd f6 c8 7a bd 8f c8 7e bd
       0.14013772 -0.09429135 -0.061226808 -0.062202986
000010 d6 95 88 3d 88 71 87 bd ce 36 1d 3c 7f bf 1f bc
       0.06669204 -0.06613451 0.009595586 -0.009750246
000020 ba 3c fe bd 39 05 c1 bc 1e 55 cb 39 5c c4 b1 bd
       -0.124139264 -0.02356206 0.00038782594 -0.08680031
000030 e4 72 95 3d 72 61 b7 3c 76 77 b0 3c 67 52 26 be
       0.07297304 0.022385333 0.021541338 -0.16242371
000040 1c cc 06 3d b7 3b 0b be 43 4a c0 bc
       0.032909498 -0.13596998 -0.02347291

weight f4 [19, 1, 3, 3]
000000 57 13 d7 bd 4a d2 ee 3d 06 b5 b6 3d 70 43 d4 be
       -0.10501736 0.11661203 0.08921246 -0.414577
000010 5e 9e cc 3c d4 66 a1 3d 2f 00 7c bc 9b 9a d8 3d
       0.02497786 0.07880941 -0.015380903 0.10576364
000020 f7 20 c3 bd 3f 49 06 bd a0 67 a7 bd a6 bb a9 bc
       -0.09527772 -0.032784697 -0.08174062 -0.02071936
000030 df 19 72 be dd 37 19 3d a2 1a 2a 3e 99 4f 3c be
       -0.23642682 0.03740679 0.16611722 -0.18389739
000040 f6 31 8a 3d 1f f7 b3 3c b8 1b f7 3d 2d 70 15 be
       0.067478105 0.021968422 0.12065834 -0.14593573
000050 5d fd 2d be 7e b2 8d 3e 65 74 96 bc 5f 40 a7 bd
       -0.16991182 0.2767524 -0.018366048 -0.08166575
000060 39 0d fc bc e2 c6 c5 bd 7e fb 21 be d2 a3 20 be
       -0.030768024 -0.096570745 -0.15818593 -0.15687492
000070 78 9d c5 bd 92 ea 50 be 50 f3 93 bc 19 cc 6f bc
       -0.096491754 -0.20401981 -0.018060356 -0.014636063
000080 d3 2f ff bd a0 7b c8 bd ff 3d 48 bd f0 e7 0d 3d
       -0.124602936 -0.097892046 -0.04888725 0.03464502
000090 4f 6f 81 3c 1b 2f 78 bc 5e 48 47 3d ca 06 03 3e
       0.015800146 -0.01514795 0.048653 0.12795559
0000a0 74 37 26 3e 03 b2 07 3e 82 9f 38 3e c8 92 18 be
       0.16232091 0.132515 0.18029597 -0.14899743
0000b0 2b ba 39 bd 62 03 21 bd 39 eb 69 3e b3 78 92 3d
       -0.04534356 -0.039309867 0.22843637 0.07151928
0000c0 2c 0c ae 3d 64 04 b9 3d ab 04 af be 4e e1 02 38
       0.08498415 0.090340406 -0.3418325 3.1204247e-05
0000d0 f4 b9 29 bd 45 99 2e 3c 17 66 81 bd 8b 91 8b 3d
       -0.041437104 0.0106566595 -0.063183 0.068148695
0000e0 08 35 31 3d 3e e5 b4 3d 8a e6 54 3e 66 c3 66 3e
       0.043263465 0.08832787 0.20791069 0.22535476
0000f0 4d 90 a3 3c 5b 05 44 3e ac 35 3e 3d 7a 8d 1a bc
       0.019966269 0.19142668 0.046437904 -0.009433145
000100 be 2d 40 be ed 08 0c 3d 01 c3 0f 3e 63 50 ab be
       -0.1876745 0.0341882 0.14039232 -0.33459768
000110 25 ed bd bd bb 60 57 3d 86 a1 33 3d d6 df da 3d
       -0.09273747 0.052582484 0.043855213 0.106872246
000120 43 16 88 3b e3 34 d4 3d 94 8b 52 3e c2 7a 64 bd
       0.0041530444 0.1036165 0.20561057 -0.055781133
000130 5b a9 02 be dd e2 2e be 33 76 a1 bc 5c bb b1 be
       -0.12759916 -0.17078729 -0.019709682 -0.34713256
000140 1e f3 a6 bd 5d 00 1d be 72 fa 78 be b2 f7 85 3d
       -0.0815184 -0.1533217 -0.24314287 0.06541385
000150 f9 6c 25 3d e5 24 40 be 3a 22 81 3d 8c e1 31 3d
       0.040387128 -0.18764074 0.06305356 0.04342799
000160 10 8e 33 3e 8f f0 c1 3d f9 61 f1 bc ff 00 e1 bd
       0.17534661 0.09469711 -0.029465662 -0.10986518
000170 6d eb 29 bd 53 f8 fe 3c a6 bb 64 be 55 66 98 bb
       -0.041484285 0.03112427 -0.22337207 -0.004650871
000180 60 06 3a 3e 49 91 bd 3e d1 09 51 3e 57 41 1b 3e
       0.18166494 0.37024906 0.20413901 0.15161644
000190 9d ed a3 3c 64 73 10 be c2 7a 3b bd c5 53 8f 3c
       0.020010764 -0.14106518 -0.045771368 0.017496
0001a0 c4 d9 33 3e 4c 7f 35 bd 24 02 a3 be 7e 4e 0d 3e
       0.1756354 -0.044310853 -0.3183757 0.13799474
0001b0 78 47 0a 3d 97 39 51 bd af d0 04 3e 9d 71 5b 3c
       0.033759564 -0.051080313 0.12970231 0.013393787
0001c0 b4 7e c2 be 5d 23 83 3d a5 1e 5f 3d 44 97 cc bd
       -0.37987292 0.064032294 0.054472584 -0.09989789
0001d0 25 96 9f bc af 9b 90 3d 75 b1 e4 bd 51 54 96 be
       -0.019480774 0.07060944 -0.1116666 -0.29361203
0001e0 7d 67 47 bd 29 cf 71 3e 15 b6 5b bb be 60 96 3c
       -0.04868268 0.23614182 -0.0033525277 0.018356677
0001f0 04 a7 3b 3e 33 06 15 3d 9f 88 05 3d 6f d4 f8 bd
       0.1832543 0.036382865 0.032600995 -0.121498935
000200 6c 84 a3 bc 05 7c 90 3c 94 f9 cf 3e 35 2f 30 3c
       -0.019960605 0.017637262 0.406201 0.0107534425
000210 b3 51 02 3d 46 46 02 be 11 4a de 3c c3 90 7f bd
       0.031816196 -0.1272212 0.027134927 -0.062393915
000220 aa f2 04 be d0 a6 6f bc d6 7e fe 3c 58 61 6e 3d
       -0.12983194 -0.014627174 0.03106634 0.058198303
000230 2b aa 52 bb 90 c8 39 3d 90 55 57 be 9f 10 53 be
       -0.0032144885 0.045357287 -0.21028733 -0.20611809
000240 7b fe b5 3b ea 79 67 be b7 23 a3 3c c9 e9 a9 bd
       0.005554018 -0.226051 0.019914491 -0.08296544
000250 da 7d 82 be cf 6d c0 bb 24 64 4d 3d 07 a6 91 3e
       -0.25486642 -0.005872465 0.05014433 0.2844698
000260 32 0d 3f 3d c8 c8 f7 3b b1 e3 8a bd bf 7f 6f be
       0.046643443 0.007561777 -0.0678171 -0.23388575
000270 a7 4c c6 bd bb b3 1e bc eb 5b 82 bd 9a ff 48 bd
       -0.09682589 -0.009686406 -0.06365188 -0.049071886
000280 e4 19 47 be b8 f4 9b bd 52 d6 1d 3e 18 62 c7 bc
       -0.1944347 -0.07615036 0.15413788 -0.024338767
000290 d6 3f 96 bd 5e 8c c4 3e 9f 83 a5 3c fc 18 33 bb
       -0.073363945 0.38388342 0.020204363 -0.0027328124
0002a0 26 e6 b4 3d b0 48 77 3d 44 6c a9 3d
       0.0883296 0.060372055 0.08272603

bias f4 [19]
000000 3f 85 b2 3c 8e 86 cd 3c a5 1b 85 bc 83 34 9b bd
       0.021792052 0.025088575 -0.016248534 -0.07578375
000010 e9 40 46 3d 1d e6 cb bd c4 e1 a8 bd 25 41 84 3d
       0.048401747 -0.09956 -0.082461864 0.06457738
000020 25 49 99 bd e0 85 7c 3d bf 18 b3 3c a2 54 01 3d
       -0.07484654 0.06165111 0.021862386 0.031574853
000030 c8 d4 eb bd 6f 9f d7 3d cd a5 d6 bc d2 20 fd bb
       -0.11515194 0.105284564 -0.026202107 -0.0077248598
000040 ed 60 08 bd 2d 50 a6 bd 11 d3 3a 3c
       -0.03329556 -0.08120761 0.011402861

weight f4 [19]
000000 2f 77 8f 3e 37 c0 95 3e 2e 63 2d 3e 8a da c2 3e
       0.28020617 0.2924821 0.16932365 0.38057357
000010 f0 22 70 3e 84 71 95 3e 17 fb 7b 3e ac d0 81 3e
       0.23450828 0.29188168 0.24607502 0.25354517
000020 e0 21 5c 3e 60 d1 20 3e 72 94 ba 3e 31 4e 1e 3e
       0.21497297 0.1570487 0.3644138 0.15459515
000030 cf 79 8f 3e 16 78 89 3e 51 62 73 3e 44 60 76 3e
       0.2802262 0.2684943 0.23767973 0.2406016
000040 38 29 67 3e e8 19 b4 3e d7 8c e3 3e
       0.22574317 0.35176015 0.4444339

bias f4 [19]
000000 57 80 66 be a9 33 8d be 9b 3f c4 3e e0 7f 31 3d
       -0.22509895 -0.27578476 0.38329777 0.04333484
000010 bb 4f 27 3e ae 5e dc bd fc b5 64 3e 30 7d ca 3c
       0.16339009 -0.10760246 0.22335047 0.024717897
000020 56 25 8a 3e 20 7a 9f 3e 3e 73 a1 3d 9d 6b aa 3e
       0.2698161 0.3114786 0.07883309 0.33285227
000030 b3 60 c3 bd ab 4e a1 3d 13 40 c1 3d ea cc 2c 3e
       -0.09539928 0.07876333 0.09436049 0.16875044
000040 6c 5f 3c 3e 7c 04 58 be 32 f7 f0 be
       0.18395776 -0.2109546 -0.47063595

running_mean f4 [19]
000000 1e c4 c1 bb 5f 01 42 3d 19 f5 06 bc 3f 5b aa bd
       -0.0059132716 0.04736459 -0.008237147 -0.08318185
000010 73 4a 22 3c 49 85 c9 bd be 49 e2 bc e4 9f 5f 3d
       0.009905445 -0.09839875 -0.027623054 0.054595843
000020 d1 29 ee 3c c5 cf 91 3d 57 80 8a bc cc c5 28 3d
       0.029072674 0.07119707 -0.0169069 0.04120426
000030 88 e4 05 be b9 c7 06 3e 61 18 05 3c 8d e5 a9 3d
       -0.13075459 0.13162126 0.008123488 0.082957365
000040 46 4d 17 3b fd 4b 8b 3d 9f 73 4a bd
       0.002308683 0.06801603 -0.04942667

running_var f4 [19]
000000 b1 c6 86 3a 70 f5 ec 39 a9 8e 99 3a c5 8d ee 39
       0.0010282603 0.00045196293 0.001171549 0.00045500524
000010 19 99 5b 3b b9 6b 05 3a b6 8a c7 3a 97 b4 e8 3a
       0.0033508001 0.0005089599 0.0015223834 0.0017754015
000020 67 cb 68 3b fc b8 9d 3a 27 25 5e 3b c8 4a 01 3b
       0.0035521628 0.0012033279 0.0033896656 0.001972841
000030 92 21 18 3b db 01 35 3b 80 1f ab 3a 7e 02 a0 3a
       0.002321337 0.0027619514 0.0013055652 0.0012207774
000040 08 7d 32 3b 19 e1 c1 3a 14 73 60 3b
       0.002723517 0.0014791816 0.003424828

weight f4 [27, 19, 1, 1]
000000 fc 3a 03 3e bd 05 e8 3d 0a ed 18 be ca ea f2 bd
       0.1281547 0.113292195 -0.14934173 -0.11861189
000010 a4 7e 0c 3e 71 21 25 3d 5f a0 19 be 07 22 d1 3d
       0.13720185 0.040315095 -0.15002583 0.10211568
000020 28 86 c8 3d d2 73 44 be eb 48 10 be 90 fb 2a 3e
       0.09791213 -0.19184807 -0.14090316 0.16697526
000030 41 c7 3e 3e 89 e9 9a bd 28 9c b3 bc d3 53 3d 3d
       0.18630697 -0.075640745 -0.021925047 0.04622252
000040 18 56 69 be ba e6 aa bd 17 1c fd 3d 6d 53 03 3e
       -0.22786748 -0.08344789 0.12358873 0.12824793
000050 92 7a 9d 3d d6 a5 0c bd ab b0 ae 3e ac 34 c5 3d
       0.07689394 -0.03433784 0.34119162 0.09629187
000060 23 77 b8 bd 1f c7 55 3e 8b 28 b5 3c 57 84 10 3d
       -0.090070985 0.2087674 0.022114059 0.03528246
000070 98 1f 2b 3d 5d 55 62 be 3f be f6 3d 68 8d 44 be
       0.041778177 -0.22102876 0.12048005 -0.19194567
000080 80 c9 8d 3d e4 ca 32 be 89 28 11 3e f5 57 de bd
       0.06923199 -0.17460209 0.14175619 -0.1085662
000090 ba 32 33 3e d2 7f 39 bd 3f 79 91 3e 43 1a b0 3c
       0.1749982 -0.045287915 0.28412816 0.021496898
0000a0 f7 ed 8f 3d 88 ef 4c 3e a6 1d 84 bd 7f 04 ed 3d
       0.0702781 0.20013249 -0.064509675 0.11573123
0000b0 e2 92 47 bd ec 1c c1 bc 20 95 17 be f9 fa ac 3c
       -0.048724063 -0.023573361 -0.1480298 0.021115767
0000c0 1c 76 fc bd d2 38 c2 3d 2f 85 d5 bd 39 bd e1 bd
       -0.12327215 0.09483494 -0.104257934 -0.110224195
0000d0 de f5 a0 be 47 41 be bc f3 f5 05 3e 29 09 df 3d
       -0.31437582 -0.023224486 0.13082103 0.10890419
0000e0 5f 0a 70 3d 11 e0 df 3d fe bf 4b 3e 9c 88 a1 3e
       0.05860364 0.10931409 0.19897458 0.31549537
0000f0 40 e5 46 bd 78 d6 b3 3c 24 6e 75 be 89 c0 6d 3d
       -0.048558474 0.021952853 -0.23967797 0.058044944
000100 03 a3 52 bd e2 a6 03 3e 70 05 23 bd e1 a5 f1 bb
       -0.05142499 0.1285663 -0.039800107 -0.0073745106
000110 68 d7 f6 bd e2 d8 59 be 15 42 96 bd d1 b9 12 be
       -0.12052804 -0.2127414 -0.07336823 -0.14328696
000120 36 c9 75 3d d0 b8 13 3e 58 99 56 3e 43 22 75 3d
       0.060006343 0.14425969 0.20956933 0.059847128
000130 b2 0e 39 3e db ce e0 bd 66 e5 9a bd 1e 42 01 3e
       0.18072012 -0.109769545 -0.075632855 0.12622878
000140 db a8 32 3e 42 80 84 bd 1b ec 6e bd b0 28 86 3c
       0.17447226 -0.06469776 -0.058330636 0.016376823
000150 a5 b5 f2 bd f5 bc 92 be df 9f 2f be 7b 7d 24 3e
       -0.11851052 -0.28659788 -0.1715083 0.16063492
000160 7e e3 b7 bd f7 bc 09 be d8 2a e9 3a b7 30 14 3d
       -0.089789376 -0.1345099 0.0017789258 0.03617927
000170 cf 32 0f 3e 2e da 0f be c0 10 86 be bf 1e 71 bd
       0.13984226 -0.14048073 -0.26184654 -0.058867212
000180 52 7f 1f bd e8 16 8d 3d 68 3b 8a bb ff 13 45 bd
       -0.03893978 0.06889135 -0.0042185076 -0.048114773
000190 fd 9f 75 3d 86 88 83 be 52 8d 74 bd 5c ca 04 3e
       0.05996703 -0.25690097 -0.059705086 0.12967819
0001a0 06 31 d5 3d 59 3e cc 3d 71 3e 50 3c 9c 47 d5 bd
       0.10409741 0.09972829 0.0127102 -0.10414049
0001b0 d0 eb c6 bd 37 54 9c 3d 08 1d d3 bd 57 21 b3 3d
       -0.097129464 0.0763325 -0.10308272 0.087465934
0001c0 c2 09 f2 bd 1b 39 e3 3c 04 9a b6 bd b8 27 65 bb
       -0.118182674 0.027737191 -0.08916095 -0.0034966301
0001d0 90 ba 22 3e b4 45 07 be 7c b9 87 3d e1 ec c7 bd
       0.1589148 -0.13210183 0.06627175 -0.09761978
0001e0 30 f0 e5 bd 82 6b 0f 3e ea 3a bb 3e 60 c1 fe 3d
       -0.11227453 0.14005855 0.36568385 0.12439227
0001f0 c6 82 d4 bd 78 ce 83 3c 22 77 75 3c 38 b2 59 3e
       -0.103765056 0.016089663 0.014982017 0.21259391
000200 36 0f 37 bd e3 8e 19 3e 0f 32 14 3e 44 25 f7 bc
       -0.04469224 0.14995913 0.14472221 -0.030169137
000210 80 2b 44 be e0 55 5d be 9c 50 02 be 53 39 cf bc
       -0.19157219 -0.2161479 -0.12726063 -0.025295889
000220 41 50 7a bc 1a 5e 2a bc 4a 70 b2 3c a2 87 f8 bd
       -0.015277923 -0.010398412 0.02178206 -0.12135245
000230 94 b7 54 3d 39 1d 26 be 56 d7 8c bd 87 d1 b9 bd
       0.051932886 -0.16222085 -0.068770096 -0.09073167
000240 e3 dd 35 3e fa 72 0c bc 77 df f6 bc f7 3a 4d be
       0.17760424 -0.008572334 -0.030135853 -0.20042025
000250 55 a9 f6 bc c5 2d 0b 3e 9d ba 4a be 9f f8 2a bd
       -0.03011004 0.13591678 -0.1979775 -0.04174101
000260 11 29 35 bd 36 6e 3d ba d6 a7 8f 3d a3 4a 7d 3d
       -0.044228617 -0.00072262005 0.07014434 0.061838757
000270 26 ee 34 3e 7d 73 c9 bb 61 6f f5 bd 72 80 15 bb
       0.17668971 -0.0061478005 -0.119841345 -0.0022812155
000280 e9 5c 19 be 47 d6 32 3e b0 ac 9b 3c 08 95 cb 3c
       -0.14976849 0.17464553 0.019003242 0.024851337
000290 65 88 c7 bd 5f b2 15 3d da 8f 8d 3d 30 1f 15 be
       -0.09742812 0.03654706 0.06912203 -0.14562678
0002a0 33 db 03 be 8c 50 09 3e 43 ca 7b be 83 32 bc 3c
       -0.12876587 0.13409632 -0.24588875 0.022973305
0002b0 30 df 0b 3d 33 ce 0a 3e 20 09 f1 3d cb b1 46 3e
       0.034148395 0.13555221 0.117693186 0.1940376
0002c0 a9 ba bc 3c 6a 89 9e 3d 09 cd e7 bd c3 b5 ca bc
       0.023038225 0.077410534 -0.11318404 -0.024744874
0002d0 39 5c 98 3e 2a 3c e8 bd 02 39 0f 3e f5 27 52 bd
       0.2975786 -0.113396004 0.1398659 -0.051307637
0002e0 55 fa 5f 3e 74 35 2d bd e4 92 a5 3c dc df 05 3e
       0.21872838 -0.042287305 0.020211644 0.13073677
0002f0 31 1e ed bd 89 d2 21 bc 97 10 c3 bd d3 5f 03 be
       -0.11578024 -0.009876856 -0.09524649 -0.12829523
000300 b9 8f d4 bd 0a 78 78 3e 39 f5 d4 3d ec 82 6f 3d
       -0.103789754 0.24264541 0.10398335 0.058474466
000310 ca e6 51 3a f7 c7 e5 bc 20 a5 2d be 60 55 f0 bd
       0.00080071075 -0.028049452 -0.16957521 -0.11735034
000320 95 4d 03 3e f4 57 5f be 90 23 87 3d 2c e9 59 be
       0.12822564 -0.21810895 0.0659858 -0.21280354
000330 d5 4f 8b bb ed 25 b2 3d 2e a8 84 3d 2f b4 20 3d
       -0.00425146 0.0869864 0.0647739 0.039234336
000340 6f 35 6b 3d bd 1f 48 3e 59 98 ac 3d 48 58 d0 3b
       0.057424005 0.19543357 0.084274955 0.00635818
000350 f5 28 4a 3e f9 72 06 bd 8e 64 1c be d0 0d 04 3e
       0.19742186 -0.03282449 -0.15272734 0.12895894
000360 09 15 16 be a3 45 22 3e b7 4d 43 3c 24 ef 11 3b
       -0.14656462 0.15846877 0.011920384 0.0022267783
000370 e0 06 4a 3d 20 cb 63 3c 0c be 27 3e 9d b1 81 3c
       0.049322963 0.013903409 0.16381091 0.015831763
000380 bc e0 d4 3d 40 bf 1d be 23 7c ca 3c a2 f2 19 3e
       0.10394427 -0.15404987 0.024717396 0.15033963
000390 74 83 85 bd 73 ad 29 be c2 b3 41 be fe fa 90 be
       -0.06519213 -0.16570072 -0.18916228 -0.28316492
0003a0 2d c8 3d bc 97 55 b6 3b 05 15 3f 3d e1 c9 d9 bd
       -0.01158337 0.0055644023 0.046650905 -0.106342085
0003b0 68 82 9a bd 5f 15 83 3e 57 5b 9f bd c5 b0 29 3e
       -0.07544404 0.25602242 -0.077810936 0.16571338
0003c0 58 ec 0f be 5b be 04 3d 68 45 b8 3d fc 19 76 be
       -0.14055002 0.0324081 0.08997613 -0.2403335
0003d0 4c f8 0a 3e c5 2d 01 be fe 44 a3 3d 8b 48 ba 3d
       0.1357128 -0.12615116 0.079721436 0.09095868
0003e0 ad 2a fa bd 29 56 04 3d ea 2a 47 bd df 4c 30 be
       -0.12215171 0.03230873 -0.04862491 -0.17216824
0003f0 60 d4 16 3d c8 cd 16 be 2f 1d c3 3d 65 3f 13 bd
       0.03682363 -0.14726937 0.09527051 -0.03594913

bias f4 [27]
000000 df 56 3e 3e ba 1e 6c 3d e9 53 82 bd 51 94 eb 3d
       0.18587826 0.05764649 -0.06363661 0.115028985
000010 d9 c2 04 be d2 00 0f 3e d8 bd d0 3c 8b fc a2 3d
       -0.12964953 0.13965157 0.02548115 0.07958325
000020 5d 5b 34 be 13 de c3 3b f4 4d 8c bd b4 e9 97 3d
       -0.17612977 0.005977401 -0.06850806 0.07417622
000030 b5 53 79 bd d3 70 4c be 63 0e 3d be 5a 5d 13 3e
       -0.060870845 -0.19964914 -0.1846252 0.1439108
000040 c7 86 8f 3d 67 07 db bd ee b0 8c 3d 08 d7 90 3c
       0.070081286 -0.10694771 0.06869684 0.01768066
000050 55 0f 33 be a1 9d a7 bd 71 40 1f be 44 9d c7 bd
       -0.17486317 -0.08184362 -0.15551926 -0.09746793
000060 c1 9c 30 bd 77 dd 2c be c9 ba b9 3d
       -0.043118242 -0.16881357 0.090688296

weight f4 [27, 1, 3, 3]
000000 14 35 b0 3c ab 8d b0 bc 75 2b be bc d2 f2 1d bd
       0.021509685 -0.021551928 -0.023214081 -0.03856165
000010 7d a4 7d bc 21 c0 eb 3d 3d 4b 6e 3e d5 34 de 3e
       -0.015481112 0.11511255 0.23270889 0.43399683
000020 ff 69 a8 3b 54 68 83 be 3c bb e6 3d 46 97 21 3e
       0.005139589 -0.25665534 0.11266181 0.15780362
000030 8f 2b b4 be 6a 5b 32 3d a8 2d 1c 3d 1d 0f dc bd
       -0.35189483 0.04354421 0.03812948 -0.1074507
000040 25 2e f5 bc 03 26 18 3e 08 6a a2 3d 33 ce 34 3e
       -0.02992923 0.1485825 0.0793038 0.17656784
000050 6f 69 53 bd c7 6c d7 3c 1e 4f 07 bf 1f 77 ab 3d
       -0.05161422 0.026296986 -0.528551 0.0837233
000060 1d d6 ed 3c 22 12 2b bd 9a 3c 29 bd 5e 9d 0f bc
       0.029032761 -0.04176534 -0.04131756 -0.008765547
000070 56 06 14 be e9 51 ea bd 19 c7 23 3c 23 e4 a4 bd
       -0.14455542 -0.11441404 0.009996199 -0.08051326
000080 80 ed 4b be 43 4c 0a be da fb a1 3d bf ac b9 bd
       -0.19914818 -0.13505654 0.07909365 -0.09066152
000090 d4 2a a0 3d 2d d5 4e 3c 21 73 34 3c 96 7c 14 3e
       0.07820669 0.012624067 0.011013777 0.14500651
0000a0 f1 9f e6 3d 95 da 9b bd 01 33 b9 3d 1c 08 fc bb
       0.11260975 -0.076100506 0.09042931 -0.0076913964
0000b0 e1 f0 42 be 09 fa 30 3e 53 6a 62 3e d4 c3 7a 3e
       -0.190372 0.17282881 0.22110872 0.24488765
0000c0 a8 3e 3d 3d 46 c0 3a 3d 22 91 2e bd 3f aa 18 be
       0.04620233 0.045593522 -0.04261888 -0.14908694
0000d0 b0 3c 20 bd 13 ca 7a bd 83 bf 29 3d f7 65 cf 3d
       -0.039120376 -0.06122787 0.041442405 0.1012687
0000e0 88 5c a7 bc 6a 3e 08 3e 5f 63 48 3e 53 21 c9 3d
       -0.020429865 0.13305059 0.19569157 0.09820809
0000f0 12 f9 cb bd 67 97 0f 3e a8 3c a6 3d f7 5e 1c bd
       -0.09959616 0.14022599 0.08117038 -0.038176503
000100 14 53 2d 3e 87 5d 51 bb b0 1e 6e 3d b5 e6 a8 3e
       0.16926223 -0.0031946616 0.058134735 0.32988515
000110 54 ed 23 be 06 31 ac bd 35 89 f5 bd 9b 38 16 bd
       -0.16008502 -0.08407788 -0.11989061 -0.036675077
000120 81 7d 12 bd f4 3d b3 bd 69 cb 6a bd 62 1c 02 bd
       -0.03576422 -0.08752051 -0.057322893 -0.03176535
000130 dc 41 7f 3d 05 83 27 be 8f e0 46 bd 54 22 03 be
       0.062318668 -0.16358574 -0.048554 -0.12806064
000140 ad 9b 20 be 98 a9 a4 be 5c 71 09 3e 1f 27 bc 3b
       -0.15684386 -0.3216064 0.1342215 0.0057419683
000150 c9 00 7b be e1 9e 3b 3e 05 12 cb 3b c8 65 0d be
       -0.24512018 0.18322326 0.0061972165 -0.13808358
000160 9b 4f d6 bd 95 ed 34 be 92 9a d2 bd ce e8 b5 bd
       -0.10464402 -0.17668755 -0.10283388 -0.088822946
000170 2d 6a b2 bc d9 36 d8 bd f0 24 81 bc 8d 29 89 3d
       -0.021779144 -0.10557336 -0.015764683 0.06697378
000180 54 70 97 be 4a 9c 11 be 24 19 31 3c 88 cd 08 be
       -0.29577887 -0.14219776 0.010809217 -0.13359654
000190 3c 10 08 bc 3a eb bb 3c ab 76 a2 be 1a 71 81 3d
       -0.008304652 0.022939313 -0.3173116 0.063204005
0001a0 22 d8 a8 bc 7a d6 95 be ac bb e0 bc 8e 87 ca 3d
       -0.020610873 -0.29265195 -0.027433239 0.09889136
0001b0 02 d6 e2 3e b2 6c ad 3d 4f f8 88 bd 18 74 3f 3e
       0.443039 0.084679976 -0.06687986 0.1869663
0001c0 03 d8 b4 bd 64 f4 86 3d 23 41 60 3d 95 0d 08 3d
       -0.088302635 0.065895826 0.05474962 0.033216078
0001d0 27 e1 31 bd 61 4b b6 bc d7 fa f1 3c 69 e2 1a 3d
       -0.043427613 -0.02225274 0.029538555 0.037813578
0001e0 f0 95 18 3e fa 21 c5 3d 95 6b 16 bb 70 33 8b 3e
       0.14900947 0.09625621 -0.0022952307 0.2718768
0001f0 61 ad 1e 3d 7a aa d3 3d 69 cf 08 3d 4d b0 17 3e
       0.038739566 0.1033525 0.033400927 0.14813347
000200 29 8d 7f 3e a5 e9 7d 3d 4c 5b 0e 3e 17 fb 1d bd
       0.24956192 0.0619904 0.13902014 -0.038569536
000210 d9 da 3f bb 8b 55 d0 bc 4d 37 ce 3d da 60 92 3c
       -0.002927473 -0.025431415 0.100691415 0.017868448
000220 9c 4b af bc 73 16 80 3d b3 5f ca 3d 21 e9 6e be
       -0.021398358 0.06254282 0.098815344 -0.23331119
000230 92 7f 2d bd 12 5b ad bd a5 52 38 be 5b a8 fa bb
       -0.04235799 -0.08464636 -0.18000276 -0.007649464
000240 36 b0 02 3e f7 c7 28 bc 18 60 52 bd ab 25 c6 3d
       0.12762532 -0.010301582 -0.051361173 0.09675153
000250 29 b7 9b 3e c1 f3 d5 3a 38 45 42 bd 2e 6d 18 3d
       0.30413178 0.0016323255 -0.047429293 0.037213497
000260 e7 c9 eb 3d 5e ec c6 bd e5 a6 66 3e df cb 95 3d
       0.11513119 -0.09713052 0.22524603 0.07314276
000270 98 5e 88 be 5b 96 d2 bd 78 eb 34 3d 16 9a 4a be
       -0.2663467 -0.10282584 0.044169873 -0.19785342
000280 45 e8 0f be be c0 32 3d 9f a2 42 bd 77 d5 94 bc
       -0.14053448 0.043640845 -0.04751837 -0.018168194
000290 72 8f 73 bd 68 82 15 3e 0f 1d 87 3e 1c 32 be 3b
       -0.059462972 0.14600527 0.26389357 0.0058043133
0002a0 ab 96 44 bd f9 c5 7b 3e ac 28 cc bd 2b 71 88 3d
       -0.04799525 0.2458724 -0.09968695 0.0666221
0002b0 bf 84 40 be c3 97 5b be b9 26 bd 3d 7e d6 80 bd
       -0.18800639 -0.21444611 0.092359014 -0.06290911
0002c0 80 4a d8 bd c2 5d dc 3d 2e 5c c7 bd 6e a4 f4 bd
       -0.10561085 0.107600704 -0.09734379 -0.11945425
0002d0 d0 a3 40 3e 76 b5 46 bd f6 66 0d bf d1 70 b9 3d
       0.1881249 -0.0485129 -0.5523523 0.09054721
0002e0 ee ab 11 3e a1 5b 86 bd b5 43 8f 3d a9 7b 8f 3d
       0.14225742 -0.065604456 0.06995336 0.07006008
0002f0 80 72 e2 3d ba 6d 65 be 4c 82 9a 3d d5 97 58 bd
       0.110569954 -0.22405139 0.075443834 -0.052879173
000300 44 cd 2e be 22 e2 68 be 9a 1e e1 3c 98 bd bf bc
       -0.1707049 -0.22742513 0.027480412 -0.023405835
000310 bc d3 20 3e af 90 44 3c 7a 42 34 3d 27 e2 7f 3e
       0.1570577 0.011997386 0.04400871 0.24988614
000320 ca f1 a9 3d ad 42 44 3e 47 26 92 bc 79 8c a9 3d
       0.08298071 0.1916606 -0.017840518 0.08278746
000330 89 50 fa bd ed e3 85 bd 1a 9b 91 3c 9b 5b fa bd
       -0.12222392 -0.06537614 0.017774154 -0.122245036
000340 be 1d 1d 3d 86 fe b0 bc bd fe 8c bc d5 d7 1a 3d
       0.038358442 -0.021605741 -0.017211312 0.03780349
000350 ef 3f a5 3e 65 a2 3f bd 4c 21 56 3e 07 3f 68 3d
       0.3227534 -0.04678573 0.20911139 0.056700733
000360 75 d9 f5 3d bb 32 6d be 0d 78 3a bd a1 32 a5 3d
       0.12004367 -0.23163883 -0.045524646 0.08066297
000370 e3 9c 54 be b7 a0 33 3e 0d 3a d4 3d e4 f5 d9 3d
       -0.20762973 0.17541777 0.10362635 0.10642603
000380 48 92 28 3e cb e0 82 3c 80 87 b9 be 07 f2 80 3d
       0.16462052 0.01597633 -0.3623619 0.06296163
000390 95 fd 25 3e 45 5d b0 3b a3 fa 3a be f6 4a 97 bc
       0.16210015 0.0053822123 -0.18259673 -0.018468361
0003a0 58 88 41 3d ab cb a1 bd 39 1f b0 bd 5d 8c d2 3b
       0.04724917 -0.07900175 -0.08599705 0.006425424
0003b0 ef 8d 20 3e e2 0a d0 bc 24 93 0d 3e 5d 06 65 3e
       0.15679143 -0.025395814 0.13825661 0.22365709
0003c0 58 c5 4e 3d 56 c8 8f 3e 9c db 50 3e
       0.05048117 0.28082532 0.20396274

bias f4 [27]
000000 9a ca 95 3c bf 8d b3 bd 12 b7 7c 3d 6d 02 24 be
       0.018285085 -0.0876727 0.061698027 -0.1601655
000010 70 95 52 be b7 74 39 3d 01 4c d4 3d 64 7f 2e 3e
       -0.20564818 0.045277324 0.10366059 0.17040783
000020 e8 34 1e 3d e7 81 6b bd 86 4c cb bd 15 ab 58 bd
       0.038624674 -0.05749693 -0.09926705 -0.05289753
000030 93 f3 4c 3d df e4 1c bd eb ed 69 3d 0d 98 28 3d
       0.050036978 -0.038304206 0.057111662 0.041160632
000040 3c a9 46 bc 5d 52 a2 3d 92 32 28 be 31 9d 23 bd
       -0.01212531 0.07925866 -0.16425541 -0.03994483
000050 39 ec 93 3c 29 65 c4 3d bf 12 18 bc d3 55 de 3d
       0.018056976 0.09589607 -0.009281813 0.108562134
000060 ca 5c bc bc b8 49 17 3e 56 af b7 bd
       -0.022993464 0.14774215 -0.089689896

weight f4 [27]
000000 50 c6 8d 3e 75 2f 83 3e cd bb 67 3e 42 b4 51 3e
       0.27690363 0.25622144 0.22630234 0.20478919
000010 d6 18 6c 3e d2 bd 74 3e 75 09 82 3e ea b5 8d 3e
       0.23056349 0.23900536 0.2539784 0.27677852
000020 39 af 53 3e 04 83 b7 3e 7a 94 97 3e d0 cd 3f 3e
       0.20672311 0.35842144 0.29605466 0.18730855
000030 eb 1d a0 3e b0 d5 63 3e 56 39 8d 3e e2 ad 2f 3e
       0.31272826 0.22249484 0.27582806 0.17156175
000040 bd 75 8d 3e ec e3 66 3e 2d 1b 82 3e e9 33 3e 3e
       0.2762889 0.22547883 0.25411358 0.1857449
000050 2d 04 75 3e 19 98 4e 3e 14 7e 44 3e c4 b7 a0 3e
       0.23927374 0.20175208 0.1918872 0.31390202
000060 a5 6d 95 3e bf de 8b 3e 7a 2b 74 3e
       0.29185215 0.2731838 0.2384471
