archs/basicSR_models/weights/wavenet_net_g_92504_BEST_PSNR_22.21_SSIM_0.81.pth (torch, 376578 bytes, 138 tensors)

conv_1.weight f4 [32, 3, 3, 3]
000000 14 61 0f 3e f9 d2 9c bd f8 fd 22 3e bd 80 23 3e
       0.14001876 -0.07657427 0.15917194 0.15967079
000010 3c f0 58 3e db ec c0 bd 3c f2 af bd 4f 03 01 3e
       0.21185392 -0.094201766 -0.085911244 0.12598918
000020 6f 47 fc bd 34 1b 1d 3e 98 a2 32 3d c8 81 70 3c
       -0.123183124 0.15342408 0.043612093 0.01467938
000030 0a b0 32 be 20 c3 5a 3d b7 5c a2 3d 86 1f 7f 3b
       -0.17449966 0.053408742 0.0792784 0.0038928702
000040 5c 7c 25 3e 96 dc 1a 3d 68 08 3b be d3 07 06 3e
       0.1616072 0.037808023 -0.18264925 0.13088922
000050 02 67 60 3d 25 05 00 be 7d 6e 3b be b4 d0 c2 3d
       0.054785736 -0.12501962 -0.18303867 0.09512463
000060 86 94 14 3e 02 21 2b be a9 ac d2 bb 0d 4e 7f 3d
       0.14509782 -0.1671181 -0.006429274 0.062330294
000070 d8 b8 bb bd 79 1f 17 bd b7 1a cd bd 2e fc a0 bd
       -0.091661155 -0.03689525 -0.10014861 -0.078605995
000080 43 be 26 be f4 88 da 3b 85 75 b6 3d 88 ff 98 3d
       -0.16283517 0.006669158 0.08909134 0.07470614
000090 4f ee 30 3e 95 1d 21 be e7 1b be bc f3 90 3b 3e
       0.17278408 -0.15733941 -0.023206664 0.18317012
0000a0 10 0a 27 3d 90 3f 43 bd e0 14 1d be 73 7d b9 3d
       0.04078108 -0.04766804 -0.15339994 0.09057131
0000b0 6d 95 14 3e 9e ca 26 3e 00 54 1c 3e 83 c4 39 3d
       0.14510126 0.1628823 0.15266418 0.045353424
0000c0 5b 3d 21 3e a1 3d 99 bc 99 ce 24 3e d4 19 e9 3b
       0.15746062 -0.018706145 0.16094436 0.0071136747
0000d0 1a d7 36 bb 7f a7 73 bd a5 69 ef 3d de 23 fb 3d
       -0.0027899207 -0.05948591 0.11690072 0.122627005
0000e0 ed 58 14 3e f1 e4 aa bd be df 4f bd 41 79 3e 3e
       0.14487047 -0.08344448 -0.050750487 0.18600942
0000f0 2d 22 b2 bd 59 80 a1 bd d4 3d 2e bd ff c2 12 bd
       -0.08697925 -0.078858085 -0.042539433 -0.035830494
000100 d1 24 96 bd 89 72 30 3e 30 69 09 3d 99 48 0d 3e
       -0.07331241 0.17231192 0.03354758 0.13797225
000110 35 19 27 3e 66 f8 ed bd c6 41 0b 3e 59 0c b1 bd
       0.1631821 -0.11619644 0.1359931 -0.08644933
000120 4b 40 e6 bb c9 9c 28 3e 47 9a 45 3e d5 c5 47 3e
       -0.0070267073 0.16466059 0.19297133 0.1950906
000130 b4 99 26 3e 22 8f 5f 3e 7c fe 5d bd 08 0b 92 3c
       0.1626957 0.21831945 -0.054197773 0.017827526
000140 13 5c 37 bd 38 bf d9 ba ff ec dc bc 5d 10 a8 3d
       -0.044765543 -0.0016612774 -0.026968477 0.08206246
000150 f6 a7 e2 3d 0b 00 0b be d2 01 ad bd f7 ae 4e bd
       0.11067192 -0.13574235 -0.08447613 -0.05045983
000160 48 ad 44 3d 58 4f 45 bd ed 6c d6 bd 93 d3 09 bd
       0.048016816 -0.04817137 -0.10469995 -0.03364904
000170 aa 39 b8 bd d3 55 6f bb e9 c7 15 be 08 fe e7 bc
       -0.089953735 -0.003651966 -0.14627041 -0.028319374
000180 cf 49 89 bd f0 6a 7c bc ad 20 25 3e bb 5b 92 3d
       -0.06703531 -0.015406355 0.16125746 0.071464024
000190 67 cf a8 bd f6 dc 3c be f4 06 2a be 9f f5 34 be
       -0.08242684 -0.18443665 -0.16604215 -0.17671822
0001a0 30 3a 71 bd 54 d4 cc bd 6b 4c 1a be 38 2f 14 3d
       -0.058893383 -0.10001436 -0.15068214 0.036177844
0001b0 58 6b 01 3d f3 94 24 bc 49 16 28 bd 67 d4 0d 3e
       0.03159651 -0.010045278 -0.041036878 0.13850556
0001c0 69 d9 29 be 49 14 1c 3c c6 ba 87 3d f4 07 ff 3d
       -0.16586842 0.009526321 0.06627421 0.12452689
0001d0 25 db 14 be 1e c1 a9 3c 0b 34 42 3e 48 fd 6e 3d
       -0.14536722 0.020721968 0.18965165 0.058347017
0001e0 ee e9 bf 3d fd 06 69 bd a0 72 15 3e da f2 15 bd
       0.093707904 -0.05689143 0.14594507 -0.036608554
0001f0 7b 2c 84 bd e4 3c 49 3e 7b c4 97 3d 41 df 14 bc
       -0.064537965 0.19652134 0.074105226 -0.009086431
000200 d5 73 0f be 65 cb d6 bc c2 68 16 be 35 59 03 be
       -0.1400903 -0.026220033 -0.146884 -0.12826999
000210 52 dc 10 bd ae 7d 6c 3b 81 1f 28 be 32 6a 34 3e
       -0.035366364 0.0036085653 -0.16418268 0.17618635
000220 e8 35 f4 3d 40 92 39 be 9b ff ff 3d 82 6b e5 bd
       0.11924344 -0.18122196 0.12499925 -0.11202146
000230 35 7f 23 be fb df 27 3e 5b 19 8e bd 6e 25 99 bd
       -0.15966494 0.16394036 -0.0693843 -0.07477842
000240 f8 4c 4a 3d cd 5b d0 3d 4f 2c b5 bc 10 d2 db bc
       0.04938981 0.101737596 -0.022115855 -0.026833564
000250 08 37 c9 39 ac ee 0d be 6f 5a 0e be 6b 4f 1e 3d
       0.0003837871 -0.13860577 -0.13901685 0.038649958
000260 28 be 1d bc 6b bf 07 3e c5 8c 55 bd 9f 1d 33 be
       -0.009627856 0.13256614 -0.0521362 -0.17491768
000270 24 6c 0e bc 18 6a 3c be da 3a 04 bd df af d6 3d
       -0.008692775 -0.18399847 -0.032282688 0.104827635
000280 73 65 a9 3c fa df 0a 3e 38 8c e7 3c ee 16 8c 3d
       0.020678258 0.13562003 0.028265104 0.06840311
000290 ae 2c 20 3e e2 92 96 3c 09 ab 8a 3c fd fe 99 bd
       0.15642044 0.018380586 0.016927259 -0.07519338
0002a0 78 fd fa 3d da 1a 11 3e 67 3e e7 bd 9f 0b 17 3e
       0.122553766 0.141704 -0.11291199 0.14750527
0002b0 32 2c 0e 3d 78 3a 1b bd 7b 90 50 be 7f 1b 5f be
       0.034710117 -0.037897557 -0.20367615 -0.21787833
0002c0 87 d7 29 be 6c 52 33 be b7 73 1c be 67 a7 9e bd
       -0.16586123 -0.1751191 -0.15278517 -0.07746773
0002d0 6a af 09 be a9 15 03 be 66 27 91 3c 51 37 19 be
       -0.13445821 -0.12801231 0.017718982 -0.14962508
0002e0 b4 e7 62 bc 33 b1 23 3d 5f 86 66 3d b4 65 d9 3d
       -0.013849188 0.039963912 0.05628049 0.106151015
0002f0 b0 a3 de 3d f7 d1 93 bd 16 4a fb bc 25 2e 6a 3c
       0.10871065 -0.07217782 -0.030674975 0.014293228
000300 68 06 35 3e c0 f8 ec 3d 38 fb 92 bd 52 1e 66 bb
       0.17678225 0.11570883 -0.071768224 -0.0035113287
000310 3c dd 2a 3d 01 a1 a2 3d b3 62 78 bd 20 0a 24 be
       0.04171489 0.07940865 -0.060641002 -0.16019487
000320 75 57 0e be 24 5d ad 3b 5b ab e8 bd f8 2e 1f 3d
       -0.1390055 0.0052906442 -0.113608085 0.038863152
000330 b7 59 a0 3d a3 0d 84 bc a5 75 9c 3d 63 c0 29 3e
       0.07829612 -0.016119784 0.076396264 0.16577296
000340 94 3a 0a 3e dc 62 18 be f0 9c 47 3e 7a f7 cf 3d
       0.13498908 -0.14881462 0.1949346 0.10154624
000350 e5 29 15 be d0 56 99 3d 0d 43 d1 bd 2b a7 4a 3e
       -0.14566763 0.07487261 -0.10217867 0.19790332
000360 e7 c6 9b 3d 18 7f 30 be a0 8c 3a be 5f 83 e6 bc
       0.07606297 -0.17235982 -0.18217707 -0.028138814
000370 ba b5 b2 bd 03 4b ca 3c a0 09 24 be 00 13 da 3d
       -0.08726068 0.024693971 -0.16019297 0.10648155
000380 af 5f 9a bc 4f 04 f0 bc 26 67 04 be 6b a7 78 bc
       -0.018844454 -0.02929893 -0.12929973 -0.015176634
000390 46 c4 04 3e 83 f9 42 3e 3e 3c f1 bd fb 10 8b bd
       0.12965497 0.19040494 -0.117790684 -0.06790348
0003a0 bf ba 7b 3d 81 5a d0 3d f3 01 31 be eb 00 83 bd
       0.06145739 0.10173512 -0.172859 -0.063966595
0003b0 df 41 16 be ba f5 31 3e 0b f2 1d bd 20 18 c5 3d
       -0.14673565 0.17378893 -0.03856091 0.09623742
0003c0 a3 6a d2 3d 9b 39 fb 3c bf 41 f4 3c 73 09 9e 3d
       0.102742456 0.030667117 0.029816506 0.07716646
0003d0 10 96 1d bd 0e 47 9f 3d 84 f3 48 bd ec 6c 42 bd
       -0.03847319 0.077772245 -0.04906036 -0.047467157
0003e0 04 3e f2 3c 1f d9 46 be 74 25 03 be 48 1e 1b be
       0.029570587 -0.19418763 -0.12807256 -0.1514827
0003f0 a4 c5 73 bd 80 e5 b7 bc f2 62 b9 3d 23 79 24 be
       -0.059514657 -0.022448301 0.090520754 -0.16061835

encoder.0.0.wfb.norm.weight f4 [32]
000000 c5 38 68 3f 40 85 67 3f fe 43 63 3f 3f fa 60 3f
       0.90711623 0.904377 0.8877562 0.87881845
000010 d0 fe 60 3f ca ca 78 3f 9f 7a 6a 3f 21 9e 65 3f
       0.87888813 0.9718443 0.91593355 0.8969441
000020 49 21 6a 3f ee 28 68 3f a9 82 73 3f d5 1e 66 3f
       0.9145704 0.90687454 0.95121247 0.89890796
000030 77 af 6e 3f 4b 33 66 3f 16 10 65 3f f7 ac 5f 3f
       0.9323649 0.89922017 0.8947767 0.873733
000040 99 f0 67 3f 29 1f 6a 3f d8 51 6f 3f 31 e6 70 3f
       0.906015 0.91453797 0.9348426 0.94101244
000050 00 c8 64 3f 03 7a 6a 3f 0f 7a 65 3f 9d e2 67 3f
       0.89367676 0.91592425 0.8963937 0.9058016
000060 02 c1 71 3f da 09 6e 3f c6 e2 6b 3f 6c a5 5e 3f
       0.9443513 0.9298378 0.92142904 0.86971164
000070 7d aa 66 3f 5a ca 61 3f 71 9d 60 3f d5 3c 63 3f
       0.90103894 0.8819939 0.87740237 0.887647

encoder.0.0.wfb.norm.bias f4 [32]
000000 43 10 02 bd 47 86 11 bd ca 83 5d bd b6 a5 7e 3d
       -0.03175379 -0.035528447 -0.054080762 0.062169753
000010 40 38 b1 bc fe 6f 4c 3a b8 4e 53 3c 47 c1 e0 bc
       -0.021633267 0.00077986706 0.012897186 -0.027435912
000020 05 32 a7 3c 2b 1f 12 3d 43 42 da 3c 35 1b 5a bd
       0.020409593 0.035674255 0.026642924 -0.053248603
000030 d9 eb bc bc 59 03 62 bc 07 1d 0d 3d c9 ce 5e bd
       -0.02306168 -0.013794743 0.03445151 -0.054396424
000040 32 95 05 bd 6f 71 12 3d c9 a2 5d 3c b8 1c 10 bb
       -0.032612987 0.03575271 0.013527581 -0.0021989774
000050 e2 0d 0a 3d 60 fa 0a bd ab b7 dd 3a 21 19 4c bc
       0.033704646 -0.033930182 0.0016915699 -0.012457163
000060 ba 6a ad 3b e1 0d 41 bc 4c e9 07 3d c1 b6 75 3c
       0.005292264 -0.011783094 0.033181474 0.014997185
000070 da 59 16 bd 2e c5 18 3d a5 5b 20 3d b8 dd 00 bd
       -0.036706783 0.03729742 0.0391499 -0.031461447

encoder.0.0.wfb.fcs.0.weight f4 [32, 32, 1, 1]
000000 8d 84 68 bd 89 48 d6 3d 64 5c 15 be 23 74 12 be
       -0.056767035 0.10463054 -0.14586025 -0.14302115
000010 e3 b9 08 be dd 81 19 be cc 8d 0d 3e 27 2a 0f 3e
       -0.1335216 -0.14990945 0.13823622 0.13980924
000020 8d c4 e8 bd ca af 3a 3d eb dd ab bd bd 18 f7 3c
       -0.11365614 0.0455778 -0.08391937 0.030163163
000030 76 d0 4e bd 43 58 dc bd b8 1d 01 3e e1 d0 be bd
       -0.050491773 -0.10759022 0.12608993 -0.09317184
000040 18 97 6a 3d 6c 1f f6 3c dc d3 9b bd 2d 1a ac bd
       0.057273 0.03004428 -0.07608768 -0.0840343
000050 aa 73 95 bd 43 e3 cf bd ca d9 c4 3d 6c 7d ca bd
       -0.07297452 -0.101507686 0.096118525 -0.098872036
000060 2b 03 fc bd d4 82 db bd b2 51 54 3d 4a dd 96 3d
       -0.12305292 -0.10718313 0.051835723 0.07366426
000070 a0 0f a4 3d 57 cc 1b bd ea fe 10 3e d7 6a 73 bd
       0.08010793 -0.03803667 0.14159742 -0.059428062
000080 45 b6 a4 bd 2b 12 c0 bb 2a 6f f4 3c 62 8f b9 3d
       -0.08042578 -0.005861541 0.029838163 0.09060551
000090 9d 60 30 bd 99 4f d5 bd d1 b9 d4 bd 95 8f 8c bd
       -0.043060888 -0.10415573 -0.10387004 -0.068633236
0000a0 96 cf 4a 3e 41 35 1e 3e 0e d0 bb bd 9b 96 4a 3c
       0.1980575 0.15450002 -0.09170543 0.012365009
0000b0 ed 5e 5c 3d 9f 74 1e 3e 8b ff 9f ba 85 f6 b3 bc
       0.053801466 0.15474175 -0.0012206895 -0.021968136
0000c0 3a 57 54 bd 5b a8 07 3e 0b 26 d0 bd 67 2a 8c bd
       -0.051841 0.13247816 -0.10163506 -0.06844025
0000d0 aa 73 ca bd 6f 9a 97 bc ed 34 07 be 7b 1f de bd
       -0.098853424 -0.018506257 -0.13203783 -0.10845848
0000e0 c7 22 b0 bd fb e6 92 3d 49 f0 d8 bd 49 01 a4 bd
       -0.08600383 0.07172962 -0.10592706 -0.080080576
0000f0 b5 ed 11 bb bf 02 dc 3c d7 43 19 be d7 11 9a bd
       -0.0022266929 0.026856778 -0.14967285 -0.07522934
000100 bb e6 d3 bd 5b 13 98 3d f1 7a 26 3d 63 3f 44 bb
       -0.10346743 0.07425567 0.04064459 -0.0029945008
000110 b4 3a 2e be 18 d4 0c be 33 b2 c6 3c 23 76 2e be
       -0.17014581 -0.13752782 0.024254894 -0.17037253
000120 25 7a c4 bd 2c 53 02 be cc 20 5a 3c de 70 f7 3b
       -0.0959361 -0.1272704 0.013313483 0.0075512966
000130 86 40 b2 bd ee bb 7c bd 24 f6 23 3e 73 33 05 be
       -0.08703713 -0.06170266 0.16011864 -0.13007908
000140 bc 58 ab bb b4 6c 24 bd 11 43 50 bd 7d 17 2b be
       -0.005229084 -0.04014273 -0.05084521 -0.16708179
000150 7c d6 0c be e7 40 99 bd ff 05 06 be 08 46 e9 bc
       -0.13753694 -0.07483082 -0.13088225 -0.028475776
000160 21 d0 d5 bd e1 fe 82 bc 81 b3 c9 bb b9 cb ad bd
       -0.10440088 -0.015990676 -0.0061554317 -0.08486123
000170 5f b4 57 3d 43 fd f0 bd 9c 56 01 3c 70 20 85 3d
       0.05266225 -0.11767056 0.007894184 0.065003276
000180 10 14 81 3d f2 52 b8 bd e9 bc 04 be 6a d4 fe 3d
       0.06302655 -0.090001956 -0.12962689 0.124428585
000190 1d da 7a 3c df 7a 74 3d 99 75 81 ba 3e 9e 8b 3d
       0.015310791 0.05968749 -0.0009876966 0.06817292
0001a0 8f 08 e4 bc f7 24 e6 bd 35 76 32 be 34 21 3b bd
       -0.027836112 -0.11237519 -0.17427905 -0.04568596
0001b0 2a 7d 20 bd 77 2f 30 3e 2e 0b a2 bd de 62 a3 bd
       -0.039181866 0.17205606 -0.079122886 -0.07977842
0001c0 58 67 30 3e 5e bf 0d be 17 fc ab bd 60 3d 1d be
       0.17226923 -0.13842532 -0.08397692 -0.15355444
0001d0 c9 3e f2 bd 63 e7 13 be 48 6c d3 bd 01 74 05 3e
       -0.118283816 -0.14443736 -0.103233874 0.13032533
0001e0 7f 96 e3 3c e0 1a 1b 3d ac 80 c1 3d 3d 2e f2 bd
       0.027781723 0.037867427 0.0944837 -0.118252255
0001f0 dc 28 f1 bd 2e b9 cf bd e6 04 84 bb 82 91 2d 3e
       -0.117753714 -0.10142742 -0.0040289043 0.16950038
000200 40 f9 0c 3d fa 93 e1 3d 75 69 85 bd 4a d8 08 be
       0.03441739 0.110145524 -0.06514255 -0.13363758
000210 f9 f0 18 3e bf 74 38 3d b0 ab 9a 3c fa ca 5a 3d
       0.14935674 0.045033213 0.018880695 0.05341623
000220 52 0e 5d bd 2d fd 84 bd 8f d4 61 bd 06 2e 0b bd
       -0.053968735 -0.06493602 -0.055134352 -0.03397944
000230 d7 d2 a4 bd 1f f8 f0 bd d1 42 3d 3d d9 54 11 be
       -0.08048027 -0.11766075 0.0462063 -0.14192523
000240 0a 2e b2 bc c7 b0 bc bd 00 e3 88 bd 14 73 af bd
       -0.021750469 -0.09213405 -0.06683922 -0.08566871
000250 05 ff 0d 3d 9c 16 0c bd 84 a0 24 3e b1 47 07 be
       0.034667034 -0.03420125 0.16076857 -0.13210942
000260 e7 14 05 be db 73 1d bd 8f 10 7c 3c 41 be f2 3d
       -0.12996255 -0.038440567 0.015384807 0.11852694
000270 e2 9f 01 3c 55 11 94 3d 41 4f 8c 3d 94 77 63 bd
       0.007911654 0.07229868 0.06851054 -0.05553396
000280 fd 5d 07 3e 2d 14 d4 bc 50 29 ab 3b d4 15 5b 3c
       0.13219447 -0.025888527 0.0052234307 0.013371903
000290 73 e3 ef 3c dd 51 ad 3c fc a6 ab 3c c0 96 e8 bd
       0.02928326 0.0211572 0.020953648 -0.11356878
0002a0 9b 20 a8 bd 66 c1 97 3d 5c 0b af 3c a2 76 c6 bd
       -0.08209344 0.07409935 0.021367721 -0.09690596
0002b0 d4 4a c2 bd 2c 38 1d be 49 1d 6a bd cf 22 a6 bc
       -0.094869286 -0.15353459 -0.057156835 -0.02028027
0002c0 6f ce 11 3d 62 50 98 bd f0 2b 34 3c 08 98 38 bd
       0.03559726 -0.07437207 0.010996804 -0.045066863
0002d0 7f ed ca bd 6f 3d 83 bc 42 72 80 bd 31 47 06 be
       -0.0990858 -0.016020505 -0.06271793 -0.13113095
0002e0 bc 01 eb bd d4 6a b8 3d e4 73 09 3e a8 6d c3 bd
       -0.1147494 0.09004751 0.13423115 -0.095424
0002f0 e2 7f 1d bd f5 97 2b bd da e5 95 3d dd e6 78 bd
       -0.038452037 -0.041892964 0.07319231 -0.060767043
000300 8e 07 46 bc b4 83 36 bd 81 34 ab 3d bd 75 89 bd
       -0.012086762 -0.044559196 0.08359624 -0.0671191
000310 e4 a3 05 3c c2 0d 02 3d 16 0c fa 3b 94 7b 1e 3d
       0.00815675 0.0317514 0.0076308353 0.038692072
000320 61 30 85 bd 7d 56 6d bd cd b4 49 bd 7a 61 68 bd
       -0.06503368 -0.05794381 -0.04924469 -0.056733586
000330 18 c2 ca 3d 3d 74 ca bd e1 7a ff bd 47 7f 98 bd
       0.09900302 -0.09885452 -0.12474609 -0.07446151
000340 ee 6c cb bd 38 b1 5b 3c a9 13 f9 3c 50 f1 78 bc
       -0.09932886 0.013408951 0.030404883 -0.015194252
000350 62 8d ab bc de b5 1f bd dd 5e b9 bd c0 41 04 be
       -0.02094144 -0.0389918 -0.09051297 -0.12915707
000360 88 d7 1d 3d 52 38 6e bd 6b 98 2d 3d cf d7 99 bd
       0.038535625 -0.05815918 0.042381685 -0.07511865
000370 8f bb 87 bc ac a6 49 3d 5a 2a 19 bc 9f b2 b2 3d
       -0.016568927 0.049231216 -0.009348476 0.087254755
000380 51 f4 b7 3d 9d 3f 96 3d 26 18 b5 3b 59 59 93 3c
       0.089821465 0.07336352 0.0055265604 0.01798694
000390 e5 ef 01 3e 1c 04 18 bd d3 d2 4e bd 72 5c fd 3d
       0.12689169 -0.037113294 -0.050494026 0.12371148
0003a0 9d 8c c9 3d 3b c3 7c bd 8b b5 bd 3d 4d 05 20 3e
       0.09841273 -0.061709624 0.09263142 0.15627022
0003b0 5a 4b 20 bc e1 c1 8a bd 1d b2 6f bd 30 b4 f1 bd
       -0.00978359 -0.06775261 -0.05851947 -0.11801946
0003c0 f4 06 19 3e 43 54 b8 3d 62 bd 4e bd 1f f8 24 bd
       0.14944059 0.09000447 -0.05047358 -0.04027569
0003d0 69 52 08 bd ff 72 b7 3b 91 0f 21 be af 24 25 be
       -0.033281717 0.0055984254 -0.15728594 -0.16127275
0003e0 0e e9 8e bd ff 48 46 bd 9f c4 49 bd 63 ea 0d be
       -0.069780454 -0.04840946 -0.049259778 -0.13858943
0003f0 02 12 b1 3d 84 d0 96 bd fe 37 93 bd f5 9f 9a bc
       0.08646013 -0.0736399 -0.07188414 -0.018875102

encoder.0.0.wfb.fcs.1.weight f4 [32, 32, 1, 1]
000000 0e 2d c9 bd 06 6d 1b bd 12 36 06 be 65 7b 18 3e
       -0.098230466 -0.03794577 -0.13106564 0.14890821
000010 2a 62 3a 3e 3b 08 f5 bb c6 9f 42 bd 54 5e 12 bd
       0.18201509 -0.007477788 -0.047515653 -0.03573449
000020 60 03 c7 3c fc b1 0e 3e a4 88 10 bd 8a 9e d2 bd
       0.024293602 0.13935083 -0.03528656 -0.10284145
000030 0d 4f 3c be c4 90 22 be b4 79 ed bd de f7 1e bd
       -0.1838953 -0.15875536 -0.11595479 -0.038810603
000040 87 c2 22 3c 78 64 19 3e 1a bb c5 3c d2 e8 a3 bd
       0.009934074 0.14979732 0.024137069 -0.08003391
000050 ac 84 17 be 68 df 15 be 41 12 12 3e 82 38 ab 3d
       -0.14796704 -0.14636004 0.14264776 0.083603874
000060 35 1d 25 bd 63 98 4a 3e 4d f1 09 3e fa 0c bc bc
       -0.040311057 0.19784693 0.13470955 -0.022955406
000070 84 7e 97 bc 82 1f 0b 3e e5 86 d6 bd d6 19 ba 3d
       -0.018492945 0.13586238 -0.10474948 0.09086959
000080 76 73 fc bd d8 00 19 be 53 01 08 3e 7a 4f 08 be
       -0.1232671 -0.14941728 0.13281755 -0.13311568
000090 66 e6 ef bd 30 19 ac 3c 7e 0e 97 bd 84 48 1d bd
       -0.11713867 0.021008104 -0.07375811 -0.038399234
0000a0 7d be 49 bd fe 0c cc b9 62 da 17 3e b9 ce 92 bd
       -0.04925393 -0.00038919592 0.148294 -0.071683355
0000b0 78 39 c1 bc 88 93 1d be 04 34 08 be 5d 0d a2 3d
       -0.023586974 -0.1538831 -0.13301092 0.07912705
0000c0 d1 be 15 3d 73 39 9f 3d 54 98 02 bd ec c6 fb bc
       0.03655893 0.077746294 -0.031883553 -0.030734502
0000d0 45 b1 c4 bd 8e 29 8e 3d 4d d0 a8 3b 1c a1 a4 3d
       -0.09604124 0.0694152 0.0051517845 0.08038542
0000e0 4b ce f3 bd be 60 13 3e f5 b0 e1 bd ad 8b 0f be
       -0.11904582 0.14392373 -0.1102008 -0.14018126
0000f0 0a 18 d1 bd 4e c7 05 3e 35 4a 18 be 6b dd 9c bd
       -0.10209663 0.1306431 -0.14872058 -0.076594196
000100 ed 1f d5 bd 93 c1 b8 bd 5f d1 1a 3e 69 91 31 3d
       -0.1040648 -0.09021296 0.15118931 0.043351565
000110 c5 8a 37 be c1 d2 8d 3d 6f a4 0c 3d 4d aa a4 3b
       -0.1792403 0.06924964 0.034336504 0.0050251842
000120 6a 5e fb 3c ab 64 89 3d 2e 5a a3 3d a5 c6 76 bd
       0.030684669 0.06708654 0.07976185 -0.060248036
000130 12 af 4a bd c7 a0 b8 bd 2e 8d 01 bc f5 8e 8d bd
       -0.049483366 -0.09015041 -0.007907195 -0.069120325
000140 ef 70 c5 bd d9 55 98 3d ba 9d 3a 3e bd 8d 08 3d
       -0.09640681 0.07438249 0.1822423 0.033338297
000150 cb 02 a5 bd 14 b1 0a be a2 7e f8 bd 65 2b 08 bd
       -0.08057173 -0.13544112 -0.12133528 -0.03324451
000160 04 28 b9 bb 7a 23 8a bd ab 91 51 3d c4 4b f6 bd
       -0.005650522 -0.06745048 0.05116431 -0.1202617
000170 22 24 61 bd 44 5d f1 bb de 38 91 bc bd 04 62 3d
       -0.0549661 -0.0073658545 -0.017727312 0.0551803
000180 ec 8e 0b be c2 7d a6 bd cc b9 20 be d2 87 fb bd
       -0.13628739 -0.08129455 -0.15695876 -0.12281765
000190 0e 74 ed 3d 01 13 9c 3b 58 8e 2a be 69 ff c6 bc
       0.11594401 0.0047630076 -0.16655862 -0.02429171
0001a0 53 fe 81 3c 05 36 33 bc 40 1a 04 3d fa b4 9b bb
       0.015868342 -0.010938172 0.032251596 -0.0047517987
0001b0 47 0e 15 bd 86 e5 12 bd a2 96 2e bd 7e 47 65 3c
       -0.03639057 -0.03586342 -0.042624123 0.013994096
0001c0 ce 1c b9 bc 35 7d b2 bd 52 df 0b 3e 19 18 25 bd
       -0.022596743 -0.087152876 0.13659409 -0.040306184
0001d0 b1 d3 42 bd 14 58 16 3e 35 0c 9f 3d a1 cf 43 3d
       -0.047565166 0.14682037 0.07766 0.047805432
0001e0 e0 48 a8 bd 4f 97 e3 bc f2 de c7 3d 01 93 e9 3b
       -0.08217025 -0.02778211 0.0975932 0.00712812
0001f0 fb 42 b2 bc 60 ea 8a 3d ef d7 b7 3d 3e c3 db bd
       -0.021760454 0.06782985 0.08976733 -0.10730599
000200 5f 8d e4 3d 23 4a 14 be d3 32 0a 3e bd 1a 16 3d
       0.11159777 -0.14481406 0.1349595 0.036646593
000210 bd 9c 3c bd e4 60 d5 3d 33 6d b6 3d b5 d4 f2 bd
       -0.046047915 0.10418871 0.08907547 -0.11856977
000220 2f 5e 83 3c 4f fa 0a be b5 d1 d2 bd 9f f5 18 3c
       0.016036121 -0.13572048 -0.10293905 0.009335904
000230 19 e4 be 3d 72 92 d1 bb 52 fd cb 3d 4b 89 1e be
       0.0932085 -0.0063956315 0.099604264 -0.1548206
000240 68 6e c4 3a d1 2a 13 be 4b a0 60 3d b5 f6 90 3c
       0.0014986517 -0.14371802 0.054840367 0.017695764
000250 88 72 eb bc f4 eb 25 3e 20 b8 36 3d 7a 56 d1 bc
       -0.028741136 0.1620329 0.04460919 -0.02555393
000260 97 28 cf 3c 8d 4e 11 3e bb 76 05 3e 22 a6 30 bd
       0.02528791 0.14190121 0.13033573 -0.043127187
000270 47 cf b3 bd 13 1f df bd 0e 32 e2 bd ff eb 64 3d
       -0.087797694 -0.10894599 -0.110447034 0.055889126
000280 c0 36 2a bd 18 d1 08 3e 21 f6 fc bd 74 58 92 bc
       -0.04155612 0.13361013 -0.12351633 -0.017864443
000290 ec 59 fb 3b ec 8e 5d 3d 08 2d cc 3d 8a 88 e3 ba
       0.0076706316 0.05409138 0.099695265 -0.0017359417
0002a0 5a 04 1b 3e 05 e7 ec bd d3 0d c8 bb 34 28 00 3e
       0.15138379 -0.11567501 -0.0061051636 0.12515336
0002b0 9f e9 0e 3e 3f 82 11 3d fe 23 0c bb 76 10 bc 3d
       0.13956307 0.035524603 -0.0021383758 0.09182827
0002c0 52 22 ef bd f0 5b 57 3d 8b 87 dd 3d 72 36 2c be
       -0.11676468 0.052577913 0.108168684 -0.16817644
0002d0 47 4e 8a bd 72 d7 20 3d 9c d0 37 3d ad 6d e1 bd
       -0.067532115 0.039267965 0.04487668 -0.11007247
0002e0 ba e1 17 3a 84 e7 04 3e e4 5f 75 bd 19 25 21 bd
       0.0005793829 0.12978941 -0.0599059 -0.03934202
0002f0 2e df 8a bc ab a9 2d bd 30 a0 e1 3d dd e2 ef 3d
       -0.016952123 -0.042398136 0.110168815 0.117131926
000300 de bb 0e 3d 21 6e cd bd ec de 2a be 4e 27 f4 bd
       0.034847133 -0.10030771 -0.166866 -0.11921559
000310 b4 41 03 be f2 24 e9 3b 8b 76 93 3c b2 f4 65 3d
       -0.12818033 0.007115 0.018000862 0.056141563
000320 9d 51 0c be 8f 7b a8 3c e3 1d b9 bd c4 0e b7 3d
       -0.13703008 0.02056673 -0.090389036 0.08938363
000330 5e 27 d2 bd 6c ff 02 3d fe 6d de bd 67 76 92 3d
       -0.10261415 0.03198187 -0.10860823 0.0715149
000340 bd 43 b9 bd 8e 3e 7e bd e5 f7 f1 bc 3e 59 0a be
       -0.09046123 -0.062071376 -0.02953715 -0.13510606
000350 4b 1c 00 bd f6 4a 19 bc 48 ac f3 3c 80 02 d7 3d
       -0.031276982 -0.009356251 0.029745236 0.10498524
000360 92 d1 ab bd c6 33 11 3e 9d 8b 87 bd a7 12 b2 bc
       -0.08389582 0.14179906 -0.06618426 -0.02173741
000370 1a 74 1e bc bc d7 24 3d 6d aa 24 3e 7b 23 dc 3d
       -0.009671235 0.040244803 0.16080637 0.10748955
000380 11 41 d7 3c 5d fa 14 be 6d 02 2b bd ef 57 f5 3d
       0.026276143 -0.14548631 -0.04175036 0.119796626
000390 af 86 f2 bd 08 c3 a6 bd f2 a0 40 bd f2 22 bc bd
       -0.11842095 -0.08142668 -0.04702849 -0.09186353
0003a0 52 ff e7 38 db c9 f1 bd 26 18 2a be e6 a1 57 3d
       0.000110624955 -0.11806079 -0.16610774 0.052644633
0003b0 35 ad a9 3d d5 bd 95 ba 67 c4 76 bb e6 fa 02 3e
       0.0828499 -0.0011424372 -0.0037653686 0.12791023
0003c0 ba 7b da bd 4c bf 69 3d aa b1 89 bd 19 2a c3 3d
       -0.1066813 0.0570672 -0.0672334 0.09529514
0003d0 e6 51 6d bd c2 15 3d bd 4d 04 21 3e bf 6d 06 3c
       -0.057939433 -0.046163328 0.15724297 0.008204876
0003e0 28 02 22 be eb f1 1c bc 3b af 45 3d fb fb 1b 3e
       -0.15821135 -0.009579162 0.048262816 0.15232842
0003f0 e1 03 ec 3d ea c1 f1 bd f6 db bf bd 24 c6 f5 bc
       0.11524177 -0.11804564 -0.09368126 -0.030001707

encoder.0.0.wfb.fcs.2.weight f4 [32, 32, 1, 1]
000000 2f 8f d4 bc 5f 7f d9 3d 52 0f cc 3d 96 d9 93 bd
       -0.025947182 0.10619997 0.099638596 -0.072192356
000010 39 41 ad 3d 6f af 89 3d 0c f5 b4 bd 13 39 14 bd
       0.08459706 0.067229144 -0.088358015 -0.036187243
000020 71 34 0d bd 20 8f 38 3d b3 c6 2d 3d b9 ab fd 3d
       -0.03447384 0.04505837 0.042425822 0.12386269
000030 49 f7 95 3c 4d 8f fd 3d 32 11 12 3e e8 d3 0f 3e
       0.018306391 0.12380848 0.14264372 0.1404568
000040 34 fa 0b be b8 84 84 bc ee 5d e5 3d 43 1a c5 3d
       -0.13669664 -0.016176566 0.11199556 0.0962415
000050 1d 76 79 bd 26 18 d6 bd 9f 38 91 bd f4 1b 13 3d
       -0.060903657 -0.10453825 -0.07090878 0.03591533
000060 96 a4 59 bc 5d b2 01 be 31 b5 5d bd ef 7f 04 be
       -0.013283869 -0.12665696 -0.054127876 -0.12939428
000070 87 74 01 3e 58 25 0c 3e a5 45 16 bd 50 af 05 3e
       0.12642108 0.1368612 -0.036687512 0.13055158
000080 b3 2e c5 bd e9 4a b4 bd a9 f0 21 bd 6e 0f dc 3d
       -0.09628048 -0.088033505 -0.039536152 0.107451305
000090 27 45 e8 3d f9 d9 bc 3d b8 8d 13 3e 51 41 e3 bd
       0.11341315 0.092212625 0.1440953 -0.110964425
0000a0 37 3c 9e bd 8b 2e df bd 6b 80 b4 bd 21 0a 99 3d
       -0.07726329 -0.10897549 -0.08813556 0.07472635
0000b0 66 c4 aa bc 6b ca 8e 3d 3c 33 81 bd c2 a8 92 3d
       -0.020845603 0.06972202 -0.063086 0.07161094
0000c0 d1 6d 8a 3c f3 ad b0 bd e3 2c 57 bd 75 12 1b be
       0.016898068 -0.08626928 -0.05253304 -0.1514376
0000d0 4a 60 1b be 71 8f 0f 3e b4 4a e4 3d 82 a4 4d 3d
       -0.1517345 0.14019562 0.11147061 0.050205715
0000e0 54 9e e6 3d f6 b0 f4 3d 4a ef 08 3e 8f 59 c5 bd
       0.112606674 0.11947815 0.13372532 -0.096362226
0000f0 45 fc 9a 3d db 15 07 be 1b 57 f5 3c f0 18 e0 bd
       0.07567648 -0.13191931 0.029948762 -0.109422565
000100 77 20 dc bb 3a ec b1 bc 2e 35 e1 bd ed 88 cf bd
       -0.0067177373 -0.021719087 -0.10996471 -0.101335384
000110 51 a9 b7 3d 88 bf 09 3d c3 42 d3 bd 4b 54 10 be
       0.089678414 0.033629924 -0.10315468 -0.14094655
000120 1b 69 8f 3b 68 38 0b bc f6 3d 2d bd 6f 84 08 3d
       0.004376543 -0.008497335 -0.04229542 0.033329424
000130 a6 67 97 3d 3c cb 51 bd ca 17 9c 3d 67 34 5e bd
       0.07392816 -0.05121921 0.07621725 -0.054249194
000140 3f ed c8 bd 94 58 9f ba ef ce eb 3c f1 c5 4c bd
       -0.09810876 -0.0012157136 0.028785197 -0.04999346
000150 6d 37 08 be e7 54 27 3e 72 94 92 3d 22 27 fd bd
       -0.13302393 0.16340981 0.0715722 -0.123609796
000160 11 9b 4d 3d 61 3f da 3d 37 7c 0e be 59 d8 99 bd
       0.05019671 0.1065662 -0.13914572 -0.07511968
000170 69 f8 3d 3c e5 02 02 3d 9d 81 72 bc 73 10 ff bd
       0.01159487 0.03174104 -0.01480141 -0.12454309
000180 25 f2 10 bc 92 99 39 3c 9c 5e 90 3d 1d 4b 4b bd
       -0.008846794 0.011328118 0.07049295 -0.04963218
000190 44 45 00 3e ba ac 4a 3c 00 fd c5 3d c7 74 f3 bd
       0.12526423 0.012370283 0.096673965 -0.11887508
0001a0 e9 4e 25 3e 41 d3 94 3c 6f 5d af bb 17 cc 49 bd
       0.16143383 0.01816714 -0.0053517143 -0.0492669
0001b0 05 73 10 3e f1 60 d8 3c 9f 58 04 3e e3 01 8b 3d
       0.14106376 0.026413413 0.12924431 0.06787469
0001c0 1e 50 27 3e 40 8b ae 3c 36 11 60 3e 34 a9 6a 3d
       0.16339156 0.021306634 0.21881565 0.05729027
0001d0 73 98 12 3e 38 76 14 be e2 07 8b bd f4 38 62 bd
       0.14315967 -0.14498222 -0.06788613 -0.055230096
0001e0 ba 90 04 bd b7 c4 70 3d 34 3c 06 be de 8c 92 bb
       -0.032364585 0.058781352 -0.13108903 -0.004472359
0001f0 b3 2f d8 3d 5c d7 ad 3d d2 e8 16 3c 1a 6e ab bd
       0.10555973 0.08488342 0.009210782 -0.083706096
000200 7e a3 15 bd 3a 94 13 be d6 a3 14 3e f9 ad 03 3e
       -0.03653287 -0.14412013 0.14515623 0.12859334
000210 3e 28 c3 3c 22 3a dc 3d 84 88 88 bc 0a 8b fe bd
       0.0238229 0.107532755 -0.016666658 -0.12428863
000220 42 e5 82 bd c0 b3 07 3e 7e ae 33 3e 46 be b8 3c
       -0.06391384 0.13252163 0.17547032 0.022551667
000230 54 36 b9 3d 30 1a e1 bd f7 af bf bc 08 34 d9 3d
       0.090435654 -0.10991323 -0.023399336 0.10605627
000240 74 04 2e 3b 83 4d e7 bd e8 99 81 bd 34 74 ec 3d
       0.0026552947 -0.11294081 -0.063281834 0.115456015
000250 4e 02 08 bd 6c 00 06 3e be a3 16 be 3e 8c 0a bd
       -0.033205323 0.13086098 -0.147109 -0.03382515
000260 61 fd 9c bd db 07 c2 3d c8 8f 3f 3d c3 59 c6 bc
       -0.07665516 0.094741546 0.04676798 -0.024212724
000270 03 54 02 bd 93 06 5b 3d 67 c7 94 3d a2 c6 c0 3d
       -0.0318184 0.053473067 0.072645955 0.09412886
000280 28 00 01 3e 61 cc fc bc cb ff 7b bd 4d 05 02 3d
       0.12597716 -0.030859174 -0.06152324 0.031743336
000290 d0 a6 7f 3d 5b 26 9b 3c af d5 dc bd f2 8a 03 be
       0.062414944 0.018939188 -0.107829444 -0.12845972
0002a0 4e f6 1b be 22 39 b5 3d 02 59 8b 3c 4c 24 21 3e
       -0.15230677 0.08848788 0.017010216 0.15736502
0002b0 64 05 2e 3c 14 94 9d 3d f9 63 d5 bd a5 2e db 3d
       0.010621402 0.07694259 -0.10419459 0.10702256
0002c0 66 f8 a9 3d 2b 08 1d 3e 3c 55 f4 bc 68 49 bb bd
       0.08299331 0.15335147 -0.0298258 -0.091448605
0002d0 a7 3f 02 be 61 29 19 bd 8d ec a2 3d bb 26 21 3e
       -0.12719594 -0.037392978 0.07955275 0.15737431
0002e0 8c 9f df bd 57 3c bf bd 73 c4 16 be 81 54 07 be
       -0.10919103 -0.09337681 -0.14723377 -0.1321583
0002f0 6f 13 b0 3a fe c2 13 3e 0a 75 ee 3d d6 00 04 be
       0.0013433526 0.14429852 0.11643417 -0.12890944
000300 95 c8 48 3d f5 05 76 3d af ac ce 3d aa 6d 90 3d
       0.049019415 0.060064275 0.100915305 0.07052167
000310 82 10 c9 ba 29 f9 c1 bd 3e 8d d7 bd d1 27 96 bd
       -0.0015340003 -0.09471352 -0.10524987 -0.07331813
000320 31 6e 0b 3e 4f 61 06 bd 9d b3 4e 3d 74 33 0e bc
       0.13616253 -0.032807644 0.05046426 -0.00867926
000330 7d bb 2e be 6a ea 6c bd d2 ad fd 3d a6 f9 05 bd
       -0.17063709 -0.057840742 0.12386669 -0.032708786
000340 85 12 09 be 1a 23 11 3e 95 0c ec 3c 63 4e 72 bd
       -0.13385971 0.14173546 0.028814593 -0.059156787
000350 40 a2 db bd cc 6b 83 3d d5 39 f7 3d 27 30 1c 3d
       -0.10724306 0.06417045 0.120715775 0.03813186
000360 2c 77 d4 bd cf 1b 01 be 90 05 08 3e db 33 f1 3c
       -0.10374293 -0.12608264 0.13283372 0.029443672
000370 9a 5a 2a be fa e7 18 be 9f b8 9d bb cf cb 04 3e
       -0.16636124 -0.14932242 -0.0048132683 0.12968372
000380 0c 52 ed bd 8d 35 06 3d d2 15 fa bc aa 7d 22 3e
       -0.11587915 0.032765914 -0.030527983 0.1586825
000390 8a 73 b3 3d d1 92 35 3d 4f 21 cb 3d 9c 5e d7 bd
       0.08762272 0.04432947 0.099184625 -0.10516092
0003a0 04 91 df bd 7f 1c 86 3c 6b e3 8d 3d e8 32 e2 bd
       -0.109163314 0.01637101 0.06928142 -0.11044866
0003b0 54 0e 1c be e7 41 ed bd 49 0a 46 bd ec 71 5c bd
       -0.15239841 -0.115848355 -0.048349652 -0.053819582
0003c0 3a 64 5f bc fe 70 16 3e ac ef 13 3d f8 6e a3 bb
       -0.013634736 0.1469154 0.03611724 -0.0049875937
0003d0 4b bc 9d 3b a5 07 13 3e 31 09 a1 3c c0 9c 9d 3c
       0.004813706 0.14358385 0.019657703 0.019239783
0003e0 e9 fa a4 bd 62 bd 39 3e c6 7e 0f be 15 85 94 3b
       -0.0805567 0.1813865 -0.14013204 0.004532466
0003f0 05 e7 4c 3d 03 f0 ec bd 26 77 0c 3e 54 8a 21 3e
       0.050025005 -0.11569216 0.13717327 0.15775424

encoder.0.0.wfb.fcs.3.weight f4 [32, 32, 1, 1]
000000 4e 2c 10 3e 27 ab e3 3c 71 0a e0 bd e4 47 87 bd
       0.14079401 0.027791573 -0.109394915 -0.06605509
000010 91 30 1c be 45 03 f3 3d 2f 21 83 3d fc b7 3e 3d
       -0.15252902 0.11865858 0.06402814 0.04656218
000020 9e 8a 71 3b ab 07 ae 3d fa d2 18 be e6 52 82 3d
       0.0036856304 0.08497556 -0.14924231 0.06363468
000030 71 ef 2a 3e 26 8d d1 3d 3c 62 d3 3b a9 d2 c7 3d
       0.16692902 0.10232 0.0064509194 0.09756977
000040 00 99 7a 3d f8 8b b2 3d 96 be 0e 3e 72 ec e8 bd
       0.06118107 0.08718103 0.1393989 -0.11373223
000050 c4 c3 ce 3c ab d2 f7 3d 6b fc 14 be 6c 18 94 bd
       0.025239833 0.121007286 -0.14549415 -0.072312206
000060 00 76 9f bd d2 6a d4 bd cf de c3 bd 1f 43 47 bd
       -0.077861786 -0.10371937 -0.09563982 -0.048647996
000070 96 0e ec bd 33 46 dd bc 5a f0 db 3c ac 17 18 bc
       -0.115262195 -0.027011013 0.026848007 -0.009282988
000080 91 c3 84 3d d7 23 37 bc 24 43 1e be 47 51 4e bd
       0.06482614 -0.0111779785 -0.154553 -0.05037048
000090 94 9b 57 ba 6a f6 c7 3c 0d b2 23 3d a5 a0 aa 3d
       -0.0008224782 0.024409492 0.039964724 0.08331422
0000a0 12 24 a7 bc d3 2c 55 bd fb e7 58 3d 43 ba 7f 3b
       -0.020402942 -0.0520447 0.05295561 0.0039020933
0000b0 75 03 38 bd 60 47 9f bd 74 64 40 bd b4 2f 97 3d
       -0.044925172 -0.077772856 -0.0469708 0.073821455
0000c0 84 f2 3a be c0 04 9d bd 58 d1 ad 3d 6a 1f ca bd
       -0.18256575 -0.076669216 0.08487195 -0.09869273
0000d0 09 bb f2 3d c2 53 0e be 39 a6 b9 bd c8 e2 d9 bd
       0.118520804 -0.13899139 -0.090649076 -0.10638958
0000e0 23 1b 31 3e 69 c1 2b 3d 82 51 73 3d 36 b1 80 bd
       0.17295508 0.041932497 0.059403904 -0.062838
0000f0 6b 42 0d 3d 5c bf 74 bb 3d ca 1a bd 85 96 e0 3c
       0.03448717 -0.0037345504 -0.037790526 0.027415523
000100 14 96 0e 3d 19 92 a0 bd 31 84 26 3b 43 8c 68 3d
       0.034811094 -0.07840366 0.0025408382 0.05677439
000110 53 ed 27 be fc 1a fb 3d ea de 7e 3d 85 77 4f 3e
       -0.16399126 0.12261006 0.062224306 0.20260437
000120 d2 7c f8 bb 90 96 34 3d 19 e4 d0 bd 0c fc ec bd
       -0.007583239 0.0440889 -0.10199756 -0.115715116
000130 c9 ca ed bc 9b 44 cb 3c 5b e6 c1 3d be 9c a4 bd
       -0.02902736 0.024812987 0.09467765 -0.08037709
000140 d1 fb 4d 3d 7f 1b 2f bc 33 43 5b 3d 5a e0 cb 3d
       0.05028898 -0.010687708 0.053530883 0.09954901
000150 0a 98 e4 bd c4 54 c1 3d e7 ef 6b bc 72 c1 40 3d
       -0.11161812 0.09439996 -0.014400459 0.047059484
000160 e1 09 05 3e 44 40 31 be ff 60 9f bb 42 7e f6 bc
       0.1299205 -0.17309672 -0.0048638578 -0.030089501
000170 37 88 3f be 58 49 23 3e 41 b1 2d be 93 d0 12 3d
       -0.18704306 0.15945947 -0.16962148 0.035843443
000180 77 f8 22 3e e5 4b dd 3d 6f 8c 46 3d 4e f6 b8 3d
       0.15915094 0.10805491 0.04847377 0.09031354
000190 9d 4e 73 bb 7d 7e 20 3d 0f a3 7e 3d 65 97 ec bd
       -0.0037125715 0.03918313 0.062167224 -0.11552314
0001a0 90 73 f0 bc 83 6d b6 bc 39 00 9e 3d c7 4c 42 3e
       -0.02935198 -0.022269016 0.07714886 0.189746
0001b0 0e f6 b2 3d 18 b9 a1 bd 2f ca 55 3d 7b 69 e9 bd
       0.087383375 -0.07896632 0.05219477 -0.11397072
0001c0 f4 5b 39 3c dc ad 6b bd f5 06 5f bd 3d bc 2d bc
       0.011313427 -0.057538852 -0.054449994 -0.010603962
0001d0 eb 67 d4 3d 77 76 8a bd 49 16 f0 bd 1d 6e 6d 3e
       0.10371383 -0.067608766 -0.117230006 0.23186536
0001e0 91 49 98 3d b4 21 2d 3d b3 9e f4 bd 09 a3 9c 3d
       0.07435907 0.04226847 -0.11944332 0.07648284
0001f0 e7 45 b9 bd ac 41 d8 3b dc d6 f8 bd 5a 41 d6 3d
       -0.09046536 0.0065996256 -0.12150356 0.104616836
000200 1c 1e ba 3c 28 23 d9 3d 4d 17 c9 bd b0 78 b2 bd
       0.022719435 0.10602409 -0.098188974 -0.087144256
000210 57 44 c3 3a b4 4a ef 3d c7 37 ff 3d f4 9f 49 3d
       0.0014897686 0.1168417 0.124618106 0.04922481
000220 1c 6f 29 3d 83 90 3f 3d ce 08 88 3d f3 59 de bc
       0.041365728 0.046768676 0.06642304 -0.0271425
000230 8e 26 3f bc 7f 23 02 3e 49 d0 bf 3d 59 47 05 bd
       -0.011666907 0.12708853 0.09365899 -0.032538746
000240 23 2e b8 3d 51 8d 01 be 28 6c 79 bd 8a 95 1e 3c
       0.08993175 -0.12651564 -0.06089416 0.009679208
000250 fb 65 cd bc 6b d7 9b 3d 6d db 22 3d 06 0d e6 3d
       -0.025073042 0.07609447 0.039760042 0.11232953
000260 85 34 8d 3d 55 56 2b 3d d7 3a ad 3d 8e ac 93 3d
       0.06894783 0.04183038 0.084584884 0.072106466
000270 f7 80 9d bd 98 96 00 be fa d9 ef 3d 1c 31 dd 3d
       -0.07690614 -0.12557447 0.117114976 0.108003825
000280 af c1 3d 3d ee 23 6e 3d 55 3d f8 3d 06 ab 0b 3e
       0.04632729 0.058139734 0.12121073 0.13639459
000290 9d a4 84 bb 88 b8 0b 3e 9e c4 fb bd cf 52 fd 3d
       -0.0040479437 0.13644612 -0.12293361 0.1236931
0002a0 89 77 15 3e de 23 18 bd 8a 03 80 ba 47 0f 95 3d
       0.1459638 -0.03714358 -0.000976668 0.072783045
0002b0 e7 de f5 bc de 74 1e be 1a 24 ed 3d 5d 1d 0b 3e
       -0.030013515 -0.15474269 0.115791515 0.1358542
0002c0 5d a7 15 3e 83 0a 23 be bd ef 41 3e a8 f4 00 3e
       0.14614625 -0.15921979 0.18939109 0.12593329
0002d0 7a 01 59 3d c8 07 6b bc a8 2d 92 3d 33 b9 0b be
       0.052979924 -0.014345117 0.071376145 -0.13644867
0002e0 9e e5 59 bd 0d 04 0d bb 33 94 48 bd 23 89 a5 bd
       -0.053197496 -0.0021517307 -0.04896946 -0.080827974
0002f0 5c 67 a9 bc b9 74 a3 bb 14 ea 1b 3e d6 80 8a bc
       -0.020679168 -0.0049882797 0.15226012 -0.016907137
000300 29 5a 03 be 43 07 04 3e 00 8f 9b 3b 05 9c 26 bb
       -0.12827362 0.12893395 0.0047472715 -0.0025422585
000310 38 59 81 3c d0 1f e0 3d 2f c9 aa 3c 87 c1 2a 3d
       0.015789613 0.10943568 0.020847885 0.04168847
000320 15 3b b8 bd 6c 77 9c bd 8e 01 25 3d 37 44 e8 bd
       -0.08995644 -0.076399654 0.040284686 -0.11341136
000330 a9 89 b0 bd ae 62 bd 3d 68 08 0a 3d cd 4a d4 bd
       -0.086200066 0.09247337 0.033699423 -0.103658296
000340 56 d7 75 3d d1 ec 9a 3d c4 47 18 bd bf 59 84 bd
       0.060019813 0.075647004 -0.037177816 -0.0646243
000350 b9 cd bd 3b 71 6a b0 bd 78 cd b6 bd 17 3d 20 3e
       0.0057923463 -0.08614052 -0.08925909 0.15648304
000360 f6 e2 15 be b0 b9 eb 3d d7 77 06 be 07 22 d0 3d
       -0.1463736 0.115100265 -0.13131653 0.1016274
000370 65 59 00 3e 42 0d f5 bc e9 ce ed 3c 41 92 ee bd
       0.12534101 -0.029913548 0.029029327 -0.116489895
000380 c5 9f 65 3d 01 4c 8b ba e0 de 0f 3e 91 55 f0 bd
       0.05606057 -0.0010627509 0.14049864 -0.117350705
000390 02 04 f9 3d ab e9 66 3d 38 bc bf bc cc 92 72 3d
       0.121589676 0.056375187 -0.02340518 0.059222028
0003a0 e4 0c 19 3e 55 d3 92 bd 7e 8d 3c be 63 7a ba bc
       0.14946324 -0.07169215 -0.1841335 -0.022763437
0003b0 ac 7a 4a bd 18 8a b3 bc 9f bb ee 3d cb 0d 70 be
       -0.049433395 -0.021916434 0.1165688 -0.23442762
0003c0 16 68 57 bd 0a 4c 49 bc 49 d3 b1 bd 8b 25 aa bc
       -0.0525895 -0.0122861955 -0.086828776 -0.020769855
0003d0 77 10 59 3d 63 1f b6 bd 66 88 16 bc fa 52 95 bd
       0.052994218 -0.08892705 -0.009187793 -0.07291217
0003e0 5d e5 a2 bd 13 e5 f7 bb ab 1b 9e 3d 06 d8 4d be
       -0.07953904 -0.0075651496 0.07720121 -0.20101938
0003f0 84 68 34 3d c1 27 4d be ef ff a1 bc 98 5d c6 bd
       0.044044986 -0.20034696 -0.019775359 -0.0968582

encoder.0.0.wfb.fcs.4.weight f4 [32, 32, 1, 1]
000000 5d 65 a1 3c ee a4 86 3d c2 7a 09 be c6 91 86 bd
       0.019701654 0.065744266 -0.13425735 -0.06570773
000010 c9 f7 08 3d 89 86 dd be 15 43 18 be 5f cc 92 bd
       0.03343943 -0.43266705 -0.1486934 -0.07167887
000020 15 0b 56 3e 49 c0 1d 3e 5d 58 a5 3d e2 3d c2 bd
       0.20902665 0.15405382 0.080734946 -0.094844595
000030 91 a7 1a be 4a b6 18 be 93 90 ed 3d 5d b6 00 3e
       -0.15102984 -0.14913288 0.11599841 0.12569566
000040 66 d0 d8 3d 5d fa 05 be 58 a5 89 bd 7c 77 0b 3e
       0.10586624 -0.13083787 -0.0672099 0.13619798
000050 9f ce 22 3e 8e 69 f9 3d 78 29 65 bd 26 15 84 3d
       0.15899132 0.12178336 -0.05594775 0.06449346
000060 09 10 1e 3e 90 37 b9 3d 0b 8f 78 bc 1d f4 d8 bd
       0.15435804 0.09043801 -0.015170823 -0.10593436
000070 cb 90 31 b8 83 0b 25 3e a1 a5 34 be a3 29 bc bd
       -4.2334937e-05 0.16117673 -0.17641307 -0.09187629
000080 02 a5 47 3d e3 d4 1b 3d 73 d0 f5 3d 62 48 1a be
       0.048741348 0.03804482 0.12002649 -0.15066674
000090 28 7a 3d 3d 94 1d 93 be 47 49 14 be 8c d1 9d 3b
       0.046259075 -0.28733504 -0.14481078 0.0048162397
0000a0 8e 73 32 bc 09 6d 13 3e ee 91 ae 3d 43 27 34 3c
       -0.010891808 0.14397062 0.08523928 0.010995689
0000b0 6e 6c a9 bd d4 65 93 bd d9 9a 07 be de 41 d2 3d
       -0.082726344 -0.071971565 -0.13242663 0.102664694
0000c0 66 7f 8b 3d 50 14 30 bc 38 5f 66 bd 48 21 bc 3d
       0.06811409 -0.01074703 -0.05624315 0.091860354
0000d0 bf 85 81 bd 61 6a 58 3e 72 b1 d4 3d 13 1d 9d bd
       -0.06324338 0.2113433 0.103854075 -0.07671561
0000e0 fa 10 c3 bd 5e 6a 89 bb 7e 59 0a be 1a 30 81 3e
       -0.095247224 -0.004193588 -0.13510701 0.2523201
0000f0 2b 57 97 bb de ed 9d bd 58 5a 1a 3e 32 ac 8d 3d
       -0.0046185455 -0.07711385 0.15073526 0.06917609
000100 88 21 12 3d 96 69 e8 bd 8d 5a 9b bd c8 37 33 3d
       0.03567651 -0.11348264 -0.075856306 0.04375437
000110 f5 14 19 be e0 49 29 3e bf 2c 09 bd a6 45 56 be
       -0.149494 0.16532087 -0.03348994 -0.20925006
000120 10 b5 b4 3c 4b a7 10 3e c1 5b 36 3e a1 bd c5 3d
       0.022058994 0.14126317 0.17808439 0.096553095
000130 2f ba 8c 3d 39 5d 3c be 85 40 57 3e 94 e3 da bd
       0.06871449 -0.18394937 0.21020706 -0.10687938
000140 c8 a1 52 be 0e b9 32 3e 12 82 32 3e 77 ce bc 3d
       -0.20569527 0.17453405 0.1743243 0.092190675
000150 f0 67 d5 bd b7 50 50 bd bd 67 eb 3d 04 cd 92 3d
       -0.10420215 -0.050858226 0.11494396 0.0716801
000160 dc b2 d6 bc d5 16 06 3c 42 a5 1b bc bc a8 77 3d
       -0.026208334 0.0081841545 -0.00949985 0.060463652
000170 9b 9f 44 be 9c 9c 15 3e bb fc 8b bd 68 7a 45 bc
       -0.1920151 0.14610523 -0.06835314 -0.01205311
000180 f9 9f ac 3d 82 94 4d bd 55 89 06 3e 16 1f 82 3d
       0.0842895 -0.050190456 0.13138326 0.063535854
000190 aa b0 b3 3d 55 53 44 bd 26 5b 03 be c0 80 87 3d
       0.0877393 -0.047931034 -0.12827739 0.06616354
0001a0 7d 74 0d 3e c0 da 83 3c 61 15 79 3d 35 bd 3b bc
       0.13813968 0.016095519 0.060811404 -0.011458685
0001b0 53 45 11 3e e2 d1 ba 3d 6a d8 87 bd b5 da 45 3d
       0.14186601 0.09122063 -0.066330746 0.04830428
0001c0 1f 6e da 3d 42 26 50 be f7 2b 9e 3d 8f 46 2c 3e
       0.10665535 -0.20327094 0.077232294 0.16823791
0001d0 95 17 0d 3d a7 99 18 3e 28 d6 3a be 1c bc b3 3d
       0.034446318 0.14902364 -0.18245757 0.087761134
0001e0 4c 21 51 be 32 a2 89 3d 35 d1 13 be bb 2d 1b 3b
       -0.20422858 0.067203894 -0.14435275 0.002367838
0001f0 5f 01 2f 3e 46 6d 5f 3d 48 7c 49 be f3 b5 14 3b
       0.17090367 0.05454757 -0.19676316 0.0022691458
000200 51 b2 da bd 70 ff 04 be d1 8a d4 3d 01 77 30 bd
       -0.106785424 -0.12988067 0.1037804 -0.04308224
000210 ba 74 e0 bd 75 0a 04 be 57 e8 a6 3d 5b cb 0b 3d
       -0.10959764 -0.12894614 0.08149784 0.03412948
000220 0c e4 f2 3d ce 87 99 3b fc ef 66 3c d1 e4 06 3e
       0.11859903 0.0046853786 0.014095303 0.13173224
000230 67 1f 10 bd 19 83 9d bd 47 23 33 3e ed 84 70 3c
       -0.035186198 -0.076910205 0.17493926 0.0146801295
000240 f6 2a 96 bc 85 4f 75 bc fe 0b be 3d b6 56 8d 3c
       -0.018331032 -0.014972572 0.09279631 0.017253261
000250 0a ca 9e 3d 2f d9 34 bd 6a 31 df 3d e5 6f 18 bd
       0.0775338 -0.044152435 0.10898097 -0.037216086
000260 49 06 71 3d fd 90 6b bc 9c 89 63 3d 83 28 75 bc
       0.058843885 -0.01437783 0.055551156 -0.014963272
000270 81 94 8d bd 6e 6e 0d bd 67 44 c6 bd f5 d4 bd bd
       -0.069130905 -0.034529142 -0.096810155 -0.09269134
000280 d5 8a 8a bd 81 43 76 bd 52 66 a1 3d 8a 9b 03 be
       -0.06764761 -0.06012297 0.07880844 -0.12852302
000290 4d 2e 9f 3c 76 85 15 3e e8 6e f2 3c 86 6f 83 3e
       0.019431258 0.14601693 0.0295939 0.25671023
0002a0 ac b0 3d bd c0 ba 8d bd 82 66 d7 3c 1c 9c 1d 3e
       -0.046311066 -0.06920385 0.026293997 0.15391582
0002b0 c0 f6 07 3e 03 de 2f 3e b7 c8 2d 3d 5b 91 29 be
       0.13277721 0.17174534 0.042427745 -0.16559355
0002c0 5c 34 b9 3c 81 b4 c1 3d f6 24 4d be 3e 77 89 3d
       0.022607975 0.094582565 -0.2003363 0.06712197
0002d0 7a 2c a0 bd 31 7b e3 3d 10 83 e0 bd 6e 66 bc 3c
       -0.07820983 0.11107481 -0.10962498 0.022998061
0002e0 98 2f 24 be b7 ad 42 3d e3 2b bc 3c f2 a6 4e 3e
       -0.1603378 0.04752895 0.022970146 0.20180872
0002f0 b0 82 f1 bd f2 16 e3 3c 6f 6e 4d 3d f5 71 9f 3d
       -0.11792505 0.027720902 0.050154146 0.077854075
000300 21 af 3d be 13 ac ef bd 9b a8 a7 3d 29 78 a4 3c
       -0.18523838 -0.117027424 0.08186456 0.020076828
000310 89 f8 20 be 9b d8 a4 3d 8f 9f 30 bc 07 2d 55 bd
       -0.15719809 0.08049127 -0.010780229 -0.052044895
000320 b5 30 d4 3c b7 1b 94 3c cb bc 15 be f1 42 eb 3d
       0.025902132 0.018079622 -0.146228 0.114873774
000330 e6 3b 26 3e ac 0f 9b bb 89 1d 04 3e 9d 76 6b bd
       0.16233787 -0.004732093 0.12901892 -0.057486165
000340 88 59 3a be cb d2 a2 3d 8b 3d 11 3c 82 81 f9 bd
       -0.18198216 0.07950362 0.008864771 -0.12182905
000350 37 a7 20 3d 1a 98 1a be 46 a6 ec 3b ef 8f 40 3d
       0.03922197 -0.15097085 0.00722197 0.047012266
000360 d3 24 0e 3d 6a c7 2e bd d4 09 2e 3e b5 d5 b0 3d
       0.034703087 -0.042670645 0.16995937 0.086345114
000370 de ee 01 bd 9a a7 09 be 8e 77 08 3e d4 04 4b bd
       -0.031721942 -0.13442841 0.13326856 -0.04956515
000380 52 44 27 be ef 19 7a bc 31 16 39 3e 6c 72 b6 bd
       -0.16334656 -0.015264972 0.18074872 -0.08908543
000390 2e a9 c3 3a 95 15 58 3d c2 86 50 be ab 77 43 be
       0.0014927739 0.052754957 -0.20363906 -0.19088618
0003a0 da 86 fa bd 1a ec 83 bd 90 7b 06 3e 2f 5b 87 bd
       -0.12232752 -0.06441517 0.13133073 -0.06609189
0003b0 6a a0 14 3d 4b 6f 19 be f4 9c d2 3d 38 45 75 3e
       0.036285795 -0.14983861 0.10283843 0.23952186
0003c0 0d b5 61 3d cb b3 70 3d c0 d6 af bd be d1 b7 bb
       0.055104304 0.058765214 -0.08585882 -0.00560972
0003d0 61 36 f4 3d dd cc 49 3d af d4 b3 bd d7 a1 ff bd
       0.119244345 0.04926764 -0.087808006 -0.124820404
0003e0 4c 17 87 3e 5a 02 30 be 39 f4 d4 bd 89 d7 01 3e
       0.26384962 -0.17188397 -0.10398144 0.12679876
0003f0 4a c8 e2 bd 46 d5 fc 3c 72 9a 9a 3d 86 ad 08 3e
       -0.11073358 0.030863415 0.07548989 0.13347444
