archs/basicSR_models/onnx/pmrid_d2_lowlight.onnx (onnx, 276275 bytes, 115 tensors)

conv0.conv.weight f4 [8, 3, 3, 3]
0.067367606 0.1861771 0.10975933 0.22385699 0.16556688 0.24091475 0.15655597 0.35713208
0.28939644 0.123936825 0.28086817 0.2636776 0.30298835 0.32765013 0.48899677 0.3914412
0.22576943 0.382894 -0.23569477 -0.28807878 -0.28756005 -0.4649431 -0.4688334 -0.41020644
-0.46267134 -0.47960195 -0.3737802 0.04519751 0.08685873 0.12802875 0.18777452 0.29246402
0.15449052 -0.13725701 0.09605054 -0.1147455 0.035299648 0.2277871 -0.15729941 0.4236673
1.2062255 0.22981773 -0.2661617 0.18949294 -0.44622043 0.19242579 0.39676988 0.07396721
0.34276 0.95004946 0.124814734 0.17279442 0.17319298 -0.13404748 0.17936365 0.3636115
0.1940092 0.22759257 0.39831537 0.38969958 0.0679252 0.0015581856 0.24070969 0.045524094
0.04505953 0.16254422 0.064309336 -0.12557082 -0.16044652 0.12410308 0.16746019 -0.14125857
-0.083538935 0.121894285 -0.09988966 -0.032810602 -0.16609646 0.07933969 -0.07615177 -0.07660587
-0.1219183 -0.15426038 0.18076862 0.21230611 0.13749084 -0.37181365 -0.29404843 0.441583
-0.10607746 -0.1230517 -0.29019472 0.2835241 0.33995613 -0.23096994 -0.58220214 -0.31062537
0.22402677 0.022054343 -0.3073963 -0.17381467 0.20530087 0.41957283 0.090674356 -0.17581566
-0.2634341 0.3347889 0.17746142 0.033270214 0.32650018 0.26884976 0.27907407 0.2739357
0.3226313 0.08933919 0.24390806 0.020498874 0.13296959 -0.54294276 -0.71641165 0.016539587
-0.89003 -1.1423342 -0.5176999 -0.37793037 -0.34445748 0.047535855 -0.010185097 -0.17547816
0.08208297 -0.3176154 -0.5186112 0.0857308 0.17240271 -0.15158547 0.2165753 0.17112398
-0.09909272 0.43373847 -0.2207324 -0.6832955 -0.26322213 0.4488741 -0.002630528 -0.11636834
0.81165695 -0.57101715 0.14281411 -0.28043017 -1.832059 -1.4305907 -0.035522964 -1.3294313
-0.88979346 0.32182145 -0.36602467 -0.08064633 -0.13235782 -0.8552148 -0.51024055 -0.010274754
-0.86455077 -0.36384782 0.056509085 0.08507845 0.014406639 0.7284878 0.16011997 0.09064032
0.014619328 0.13728008 0.0006964679 -0.08873903 -0.0836845 -0.14455487 0.4223642 -0.117404446
-0.00020682161 -0.3398686 -0.1021132 -0.16322108 -0.07740868 -0.07962061 0.2317716 0.3762582
0.017439647 -0.100108825 -0.09477929 0.025897808 0.111084536 0.031149624 -0.1202989 -0.19780774
-0.39161423 -0.38082492 -0.2259912 -0.2992665 -0.17922693 -0.18105504 0.19428949 -0.07769173
0.12268268 0.2613353 -0.21367732 0.31979403 0.2870506 -0.047756318 0.39269614 -0.0013761988
-0.043574825 0.21146801 0.16169009 -0.2459128 -0.16146626 0.053873453 -0.037434906 0.05491661
00000000: 07f8 893d 36a5 3e3e 80c9 e03d c43a 653e
00000010: 5d8a 293e 5bb2 763e 3550 203e 04da b63e
00000020: c52b 943e 97d2 fd3d f4cd 8f3e c000 873e
00000030: 4a21 9b3e c2c1 a73e c95d fa3e fb6a c83e
00000040: 1a30 673e af0a c43e f859 71be 107f 93be
00000050: 123b 93be 060d eebe ee0a f0be 9406 d2be
00000060: 42e3 ecbe 638e f5be 1e60 bfbe 0621 393d
00000070: fde2 b13d f819 033e f747 403e d8bd 953e
00000080: c332 1e3e 1a8d 0cbe 25b6 c43d b0ff eabd
00000090: 5d96 103d 0641 693e 1913 21be ecea d83e
000000a0: 9965 9a3f 5755 6b3e 5946 88be 700a 423e
000000b0: 0177 e4be 440b 453e 6c25 cb3e 1f7c 973d
000000c0: 3d7e af3e 7136 733f de9e ff3d 05f1 303e
000000d0: 8059 313e be43 09be 1bab 373e 492b ba3e
000000e0: 59aa 463e 070e 693e feef cb3e b486 c73e
000000f0: 5e1c 8b3d 083c cc3a 9a7c 763e 7977 3a3d
00000100: 5790 383d fe71 263e 9db4 833d a395 00be
00000110: 184c 24be c129 fe3d af7a 2b3e 16a6 10be
00000120: 7616 abbd b6a3 f93d f392 ccbd 6964 06bd
00000130: 3115 2abe d97c a23d 76f5 9bbd 8ae3 9cbd
00000140: 4db0 f9bd 6ff6 1dbe 691b 393e c666 593e
00000150: 66ca 0c3e 5c5e bebe 848d 96be 2b17 e23e
00000160: 243f d9bd 8802 fcbd 6794 94be 122a 913e
00000170: bb0e ae3e 6283 6cbe 330b 15bf 4a0a 9fbe
00000180: 4667 653e 4fab b43c 0c63 9dbe 79fc 31be
00000190: 643a 523e 40d2 d63e 7ab3 b93d 0509 34be
000001a0: d6e0 86be 7369 ab3e 72b8 353e 5946 083d
000001b0: 082b a73e ada6 893e cce2 8e3e 4d41 8c3e
000001c0: ee2f a53e 77f7 b63d 09c3 793e 41ed a73c
000001d0: 2e29 083e 4cfe 0abf c166 37bf 077e 873c
000001e0: 02d9 63bf 0238 92bf fb87 04bf 1780 c1be
000001f0: bb5c b0be f5b4 423d 65df 26bc 8cb0 33be
00000200: 1e1b a83d 7c9e a2be b4c3 04bf a193 af3d
00000210: 568a 303e 3939 1bbe eac5 5d3e 203b 2f3e
00000220: 20f1 cabd f812 de3e ad07 62be 74ec 2ebf
00000230: 0dc5 86be d3d2 e53e f064 2cbb 8652 eebd
00000240: c0c8 4f3f 2e2e 12bf dd3d 123e 8b94 8fbe
00000250: e980 eabf 991d b7bf 8780 11bd ce2a aabf
00000260: 81c9 63bf c8c5 a43e 9667 bbbe e729 a5bd
00000270: cf88 07be 5bef 5abf 209f 02bf 7157 28bc
00000280: 3353 5dbf 434a babe 1276 673d 9c3d ae3d
00000290: d309 6c3c 2d7e 3a3f 7df6 233e a2a1 b93d
000002a0: e885 6f3c 2693 0c3e 2b93 363a cfbc b5bd
000002b0: c762 abbd 3106 14be 1f40 d83e be71 f0bd
000002c0: 41de 58b9 4203 aebe ba20 d1bd 6d23 27be
000002d0: 7188 9ebd 2110 a3bd 8955 6d3e eaa4 c03e
000002e0: 97dd 8e3c db05 cdbd a51b c2bd a427 d43c
000002f0: 4a80 e33d 7f2d ff3c 455f f6bd 1d8e 4abe
00000300: a981 c8be 7cfb c2be 3d6a 67be 7539 99be
00000310: 4487 37be 7e66 39be d3f3 463e d71c 9fbd
00000320: 0f41 fb3d becd 853e 3ace 5abe 0bbc a33e
00000330: 4cf8 923e 219c 43bd 780f c93e 9261 b4ba
00000340: 847b 32bd 128b 583e 1692 253e 91d0 7bbe
00000350: 6957 25be 69aa 5c3d 5855 19bd 3df0 603d

conv0.conv.bias f4 [8]
0.066287935 0.003878284 -0.14526732 0.00073064613 0.09981331 0.09983924 -0.3020575 0.09717605
00000000: f8c1 873d cf2a 7e3b f5c0 14be d588 3f3a
00000010: ec6a cc3d 8478 cc3d 48a7 9abe 3d04 c73d

enc2.0.conv1.depthwise.weight f4 [8, 1, 5, 5]
0.098397516 0.08030112 0.24577224 0.22048308 0.24352343 0.29689398 0.16316171 -0.0044272444
0.2229928 0.19176985 0.20780957 0.2551041 0.23521572 0.17282854 0.07552707 0.13301368
-0.12109462 0.17015776 0.13365166 0.066080876 -0.04911509 0.098932214 0.08028961 -0.15656313
-0.11146982 0.13436301 -0.17849885 -0.12551554 0.059706543 0.09472211 -0.13358836 0.030230287
-0.21237163 0.09312792 -0.06310678 -0.023891428 -0.057427384 -0.2770015 0.00024837884 -0.23914705
-0.18397036 -0.026863243 -0.023648677 0.024798606 -0.2466583 -0.036577933 0.11657489 0.042227257
-0.26608068 -0.07030301 0.08441808 -0.08589325 0.14106151 0.04930206 -0.033572268 0.1472307
0.10564281 0.17071965 0.10965943 -0.12680425 0.16421752 0.14235915 0.08278866 -0.05616085
0.08037932 0.28335008 0.071404606 -0.027399871 -0.094616815 0.08842732 0.13630249 0.06387961
0.09842003 0.12402866 0.16316581 -0.17041665 -0.54120386 -0.39262176 -0.49742413 -0.305556
-0.7863883 -0.7234812 -0.75085455 -0.68134373 -0.81928515 -0.7672638 -0.6591445 -0.6945301
-0.7833747 -0.304287 -0.7349421 -0.8524914 -0.68662447 -0.64488024 -0.63607854 -0.39496708
-0.6099231 -0.6216729 -0.48983917 -0.5246727 -0.019945092 -0.16625163 0.27845478 -0.02473572
0.084278345 -0.05194918 0.09281368 0.30217674 0.18388931 -0.17296444 -0.23406038 0.28753352
0.2756409 0.1419391 -0.024751842 -0.07974145 0.0036435747 0.24189134 0.057569537 0.06040207
-0.255963 0.037922554 0.21624039 0.06402842 -0.063106 -0.25581223 -0.1930441 -0.3557286
-0.3225654 0.15470162 -0.29877004 -0.26046863 -0.3875225 -0.35485107 -0.16459283 -0.17987671
-0.07000223 -0.19698876 -0.47593278 -0.34533587 0.075189956 -0.2620816 -0.19107786 -0.21261825
-0.18103877 0.16058804 -0.12764518 -0.08288408 0.094340995 0.2619905 0.18364456 0.013381865
0.23409261 0.1925756 0.10611193 -0.014888181 -0.029602015 -0.08825532 -0.06799492 0.04306483
0.0975 0.07526182 0.06352259 -0.11181134 0.05660947 0.030320756 -0.061741542 -0.11836307
0.21315034 0.0702417 0.07118891 -0.053018373 0.19487463 -0.043262724 0.24952018 0.07418954
-0.066045195 0.013641366 0.3094578 0.14054735 0.10394056 0.031062668 0.019306606 0.19572899
-0.03525265 0.13622606 0.29439977 0.18802942 0.041371796 -0.14408796 0.106162444 0.2574439
0.35210145 -0.009990046 0.18084666 0.05501618 0.24691042 0.36434084 0.045617014 -0.08548119
00000000: a384 c93d ea74 a43d b8ab 7b3e 51c6 613e
00000010: 355e 793e 7d02 983e dd13 273e 6b12 91bb
00000020: 3958 643e 515f 443e 08cc 543e 019d 823e
00000030: 64dc 703e f7f9 303e f0ad 9a3d bd34 083e
00000040: 7500 f8bd d63d 2e3e fbdb 083e 6955 873d
00000050: e82c 49bd f99c ca3d e16e a43d 1652 20be
00000060: 4a4a e4bd 7596 093e 67c8 36be 2587 00be
00000070: d98e 743d aafd c13d 63cb 08be 82a5 f73c
00000080: f377 59be dab9 be3d 213e 81bd f5b7 c3bc
00000090: fa38 6bbd 24d3 8dbe d838 8239 f7e2 74be
000000a0: ba62 3cbe 4e10 dcbc dfba c1bc 7226 cb3c
000000b0: fe93 7cbe bed2 15bd d1be ee3d 7df6 2c3d
000000c0: ba3b 88be 06fb 8fbd 63e3 ac3d cde8 afbd
000000d0: 6e72 103e f5f0 493d 1383 09bd a5c3 163e
000000e0: 425b d83d 22d1 2e3e 2095 e03d f9d8 01be
000000f0: a328 283e 99c6 113e 1a8d a93d eb08 66bd
00000100: ea9d a43d 4313 913e 943c 923d b275 e0bc
00000110: 76c6 c1bd 6219 b53d e192 0b3e 50d3 823d
00000120: 7190 c93d bd02 fe3d f014 273e b481 2ebe
00000130: 568c 0abf b805 c9be 60ae febe d671 9cbe
00000140: be50 49bf 1036 39bf 0138 40bf 8b6c 2ebf
00000150: acbc 51bf 676b 44bf b2bd 28bf bacc 31bf
00000160: 3f8b 48bf 81cb 9bbe 2a25 3cbf e03c 5abf
00000170: 9fc6 2fbf df16 25bf 0bd6 22bf 2039 cabe
00000180: ec23 1cbf f525 1fbf 33cc fabe f350 06bf
00000190: e463 a3bc de3d 2abe a091 8e3e 91a2 cabc
000001a0: 209a ac3d aac8 54bd 1915 be3d e9b6 9a3e
000001b0: 7b4d 3c3e 971d 31be 86ad 6fbe 9837 933e
000001c0: ce20 8d3e 7c58 113e 60c4 cabc 7c4f a3bd
000001d0: 0ac9 6e3b 5db2 773e 09ce 6b3d 2968 773d
000001e0: 950d 83be ae54 1b3d 1f6e 5d3e 5521 833d
000001f0: b83d 81bd d2f9 82be 5aad 45be 0f22 b6be
00000200: 4b27 a5be 1a6a 1e3e 63f8 98be 255c 85be
00000210: 5969 c6be 0aaf b5be 068b 28be 9a31 38be
00000220: 545d 8fbd 6cb7 49be 76ad f3be ddcf b0be
00000230: 31fd 993d 8f2f 86be eaa9 43be 99b8 59be
00000240: 3a62 39be 3171 243e 6bb5 02be 21bf a9bd
00000250: da35 c13d 9e23 863e 520d 3c3e 9c3f 5b3c
00000260: f9b5 6f3e 8a32 453e 3651 d93d 8fed 73bc
00000270: ed7f f2bc 35bf b4bd ec40 8bbd bf64 303d
00000280: 14ae c73d de22 9a3d 2218 823d 58fd e4bd
00000290: 55df 673d 3c63 f83c b3e4 7cbd 5668 f2bd
000002a0: 1544 5a3e e1da 8f3d 7ecb 913d cb29 59bd
000002b0: 378d 473e 4134 31bd 3882 7f3e b0f0 973d
000002c0: b442 87bd 0980 5f3c 4171 9e3e a5eb 0f3e
000002d0: cade d43d 2377 fe3c e328 9e3c 2e6d 483e
000002e0: 1565 10bd d87e 0b3e 91bb 963e c98a 403e
000002f0: 7975 293d cb8b 13be b26b d93d b0cf 833e
00000300: a446 b43e 4aad 23bc de2f 393e a558 613d
00000310: 16d6 7c3e e28a ba3e e8d8 3a3d c310 afbd

enc2.0.conv1.pointwise.weight f4 [8, 8, 1, 1]
-0.6184463 -0.049983267 -0.6209098 -0.39670923 0.18437733 -0.5894123 0.14739797 0.0076878113
-0.025035169 -0.24796371 -0.024029274 -1.1158004 -0.41182965 -0.1223083 -0.0703598 0.043694325
0.36571765 -0.0068439567 0.2795025 -0.3371088 -0.6736611 -0.05292334 -0.09466547 0.8524581
-0.12614603 0.0756799 -0.15834342 -0.09249793 -0.17357342 -0.16977331 -0.10586335 -0.16941038
-0.39697185 -0.12530743 0.1178381 -0.6296379 -0.066884965 0.26448908 -0.2809568 0.21613066
0.12073368 -0.072633706 0.26690924 -0.42574313 -0.89099365 -0.18813474 0.10371316 0.19806051
0.34000644 0.56506085 0.077925846 0.4173131 0.12063766 -0.029403448 -0.29610583 0.14777039
0.1985933 0.13331242 0.092081964 -0.96838486 -0.33343825 -0.23118426 -0.19605272 -0.30151874
00000000: 7f52 1ebf 41bb 4cbd f2f3 1ebf 791d cbbe
00000010: 69cd 3c3e b9e3 16bf 7eef 163e 09ea fb3b
00000020: 8e16 cdbc 33ea 7dbe 0ad9 c4bc 8cd2 8ebf
00000030: 56db d2be c67c fabd cc18 90bd d2f8 323d
00000040: 583f bb3e 4543 e0bb f41a 8f3e 8699 acbe
00000050: 0e75 2cbf 25c6 58bd f8df c1bd b23a 5a3f
00000060: 6d2c 01be 10fe 9a3d c724 22be 8e6f bdbd
00000070: 3bbd 31be 0ed9 2dbe e2ce d8bd ea79 2dbe
00000080: e53f cbbe 9750 00be 1a55 f13d f32f 21bf
00000090: fcfa 88bd 1d6b 873e 92d9 8fbe 5b51 5d3e
000000a0: 3843 f73d fbc0 94bd 54a8 883e 01fb d9be
000000b0: 2918 64bf 65a6 40be 9167 d43d 60d0 4a3e
000000c0: 5315 ae3e d4a7 103f 9697 9f3d 10aa d53e
000000d0: e110 f73d 80df f0bc 2f9b 97be 1f51 173e
000000e0: 0b5c 4b3e 0d83 083e 7895 bc3d 12e8 77bf
000000f0: 6bb8 aabe 91bb 6cbe 0bc2 48be aa60 9abe

enc2.0.conv1.pointwise.bias f4 [8]
-0.06290355 -0.053939525 -0.34462622 -0.23316076 0.17241634 -0.20910305 -0.10756007 0.027726296
00000000: 94d3 80bd b1ef 5cbd d972 b0be b2c1 6ebe
00000010: e98d 303e 1c1f 56be 7448 dcbd 4222 e33c

enc2.0.conv2.depthwise.weight f4 [8, 1, 5, 5]
-0.26213753 -0.17148589 0.14462844 -0.20898838 -0.2315859 -0.15063353 0.039691992 0.6020196
0.24246165 -0.094987206 0.15366377 0.5718356 0.61625576 0.5097995 0.32735798 -0.0036918516
0.24059117 0.46281597 0.38799676 0.061428476 -0.3938362 0.10373159 0.045715414 0.043943815
-0.3675924 -0.2188414 -0.14074428 -0.0781201 -0.046830613 -0.13952059 -0.070183255 -0.18215457
-0.19355457 0.058429964 -0.11355989 -0.248193 0.25658986 0.16716301 0.14640531 -0.21597593
0.07757514 0.030364508 0.25111386 0.110553615 0.020756898 -0.089033246 -0.06987971 -0.13303086
-0.1072732 -0.10290359 0.13834135 -0.062830254 -0.11204859 -0.015045244 0.08874753 -0.18320224
-0.24867332 -0.36369142 -0.2933334 -0.0917753 -0.13768506 -0.15464257 -0.34759352 -0.11224515
-0.16913556 -0.25888085 -0.20740171 -0.31738257 0.049482163 -0.019352065 0.035143644 -0.25954205
-0.33631608 -0.17068815 0.10223141 0.09412706 0.08316124 0.14102817 -0.17418183 -0.13057049
0.11068151 -0.09998411 -0.0688914 0.19722235 -0.09275608 0.06501407 0.07494916 0.104884714
0.18631613 0.02905273 0.0109910965 -0.07805582 0.15919177 0.15434542 -0.0074629458 -0.079339206
0.14183347 -0.15118957 -0.1250425 -0.004993543 -0.09065754 0.0826631 -0.10776411 0.07596897
-0.20197232 0.13623306 0.004630405 0.30847463 0.111996025 -0.08186544 0.108182624 0.049243797
0.3100011 0.31042588 0.0864916 -0.12494036 -0.10481545 0.21885453 0.02961164 -0.092268065
-0.043967653 0.14173095 -0.034081303 0.13008142 -0.0838037 0.17255743 0.23595966 0.19087292
-0.088374786 0.19784324 0.20299834 0.08037382 0.14894663 -0.0074312566 0.16649558 -0.06111978
0.29460615 -0.033316325 0.023810474 0.20515876 0.019148897 0.15973079 -0.0502302 -0.0013833301
0.025394684 0.27781537 0.15883672 0.11670731 0.111589484 0.003908186 -0.20164418 0.04341629
0.14698361 0.12657411 -0.16179477 -0.14119674 0.17082149 0.39382678 0.17893985 -0.06645007
0.18315345 0.31549558 0.4652546 0.5697553 0.21631159 0.21115534 0.68119353 0.5600437
0.6753887 -0.022503003 0.00053179666 0.13374855 0.22469343 0.42483702 -0.008458407 0.038162377
-0.10119362 -0.18503292 -0.043607447 -0.08874624 0.029433671 -0.3001344 -0.25251848 0.16345154
-0.123632245 -0.059189625 -0.1513355 0.17641649 -0.082890704 0.03000525 0.15327686 -0.026539527
0.0595837 0.018496826 -0.052659012 -0.12849163 -0.016423076 0.11516575 -0.079615384 0.026685704
00000000: e436 86be ff99 2fbe 7a19 143e 0d01 56be
00000010: db24 6dbe ad3f 1abe 1294 223d f51d 1a3f
00000020: de47 783e a788 c2bd 095a 1d3e d163 123f
00000030: f0c2 1d3f 3882 023f 779b a73e fef2 71bb
00000040: 885d 763e 37f6 ec3e 83a7 c63e 6d9c 7b3d
00000050: e6a4 c9be 3a71 d43d 1640 3b3d 6efe 333d
00000060: 1235 bcbe f617 60be 451f 10be 6efd 9fbd
00000070: 75d1 3fbd 7cde 0ebe 3dbc 8fbd ba86 3abe
00000080: 2b33 46be 4254 6f3d 1692 e8bd 4e26 7ebe
00000090: bf5f 833e c82c 2b3e 46eb 153e cb28 5dbe
000000a0: b7df 9e3d fdbe f83c ff91 803e ef69 e23d
000000b0: 5f0a aa3c 1057 b6bd 181d 8fbd 3e39 08be
000000c0: 0db2 dbbd 1ebf d2bd 5ba9 0d3e 26ad 80bd
000000d0: bb79 e5bd 5480 76bc 44c1 b53d 5e99 3bbe
000000e0: 38a4 7ebe c335 babe cc2f 96be b0f4 bbbd
000000f0: 50fd 0cbe 9f5a 1ebe c7f7 b1be c9e0 e5bd
00000100: df31 2dbe 088c 84be 1d61 54be f87f a2be
00000110: cfad 4a3d 3988 9ebc c8f2 0f3d b2e2 84be
00000120: 9f31 acbe e0c8 2ebe b45e d13d b0c5 c03d
00000130: 7150 aa3d b069 103e b95c 32be 45b4 05be
00000140: fdac e23d 78c4 ccbd ef16 8dbd a8f4 493e
00000150: e6f6 bdbd 1926 853d f27e 993d cccd d63d
00000160: a8c9 3e3e feff ed3c 0014 343c bbdb 9fbd
00000170: 2b03 233e ba0c 1e3e ba8b f4bb 987c a2bd
00000180: cb3c 113e 70d1 1abe 240b 00be e0a0 a3bb
00000190: a9aa b9bd 454b a93d 6eb3 dcbd 9f95 9b3d
000001a0: d5d1 4ebe ae80 0b3e a7ba 973b 63f0 9d3e
000001b0: 2c5e e53d 11a9 a7bd da8e dd3d ddb3 493d
000001c0: 77b8 9e3e 24f0 9e3e 8222 b13d bbe0 ffbd
000001d0: 7ca9 d6bd 671b 603e 1c94 f23c 0af7 bcbd
000001e0: 6d17 34bd eb21 113e d698 0bbd 1034 053e
000001f0: 46a1 abbd e5b2 303e 699f 713e 3174 433e
00000200: d7fd b4bd 6b97 4a3e ccde 4f3e 089b a43d
00000210: 7785 183e e681 f3bb d17d 2a3e bc58 7abd
00000220: 9ed6 963e b376 08bd 2f0e c33c 2315 523e
00000230: 26de 9c3c 7890 233e 2fbe 4dbd db50 b5ba
00000240: 8308 d03c d13d 8e3e 18a6 223e 3e04 ef3d
00000250: 0789 e43d 3e10 803b d07b 4ebe 48d5 313d
00000260: df82 163e a59c 013e 87ad 25be e195 10be
00000270: d4eb 2e3e aaa3 c93e 023c 373e f916 88bd
00000280: 948c 3b3e a388 a13e da35 ee3e 7cdb 113f
00000290: c980 5d3e 1b39 583e b362 2e3f 065f 0f3f
000002a0: 46e6 2c3f 3858 b8bc 4568 0b3a 61f5 083e
000002b0: 0916 663e 3d84 d93e 2195 0abc 2750 1c3d
000002c0: 9a3e cfbd 4579 3dbe b99d 32bd 97c0 b5bd
000002d0: e21e f13c 37ab 99be 1a4a 81be d75f 273e
000002e0: e732 fdbd d270 72bd b1f7 1abe 86a6 343e
000002f0: 9ac2 a9bd 92cd f53c 9cf4 1c3e 6c69 d9bc
00000300: 0a0e 743d a886 973c fab0 57bd 4f93 03be
00000310: b089 86bc 05dc eb3d 640d a3bd fa9b da3c

enc2.0.conv2.pointwise.weight f4 [32, 8, 1, 1]
0.57562536 0.3755191 0.4606333 -0.09267447 0.29935718 -0.18237495 -0.31062338 0.2786548
0.4623607 -0.1446232 -0.3244311 -0.0026453948 -0.070883684 0.115545884 0.405906 -0.14483121
-0.61031336 -0.06340585 -0.27836555 -0.3416166 -0.7867469 -0.008530693 0.26428387 0.17869528
0.34569293 0.10081066 0.23239923 -0.08502086 -0.037287813 0.11459146 -0.3723301 -0.4981417
0.41047928 0.030624628 -0.54019785 0.053089146 0.29035455 -0.22894287 -0.062975794 -0.19810301
0.8338537 -0.18308827 -0.0042154333 0.15768509 0.115154915 -0.054845028 -0.38097757 0.16219936
-0.10265806 0.40342596 0.14095706 0.32054132 0.087524034 -0.34360683 -0.009066496 -0.27445754
0.3296775 0.45032728 0.02384265 -0.025776811 0.20936614 -0.1302324 0.24329205 -0.20130973
-0.58634645 0.51742303 0.03241754 -0.11826041 -0.3481202 -0.210996 -0.013633931 0.3246448
0.69870836 0.13980553 -0.38790315 -0.2593483 -0.077799514 0.20544764 -0.08306984 0.84960663
-0.2678216 -0.32055902 -0.58753026 0.10780963 0.026297115 0.15821654 -0.45205197 -0.06894049
0.74583536 -0.5202627 -0.64585537 -0.22116403 -0.49071708 -0.39140463 0.19362228 0.11148798
-0.40094045 -0.8566273 -0.1825596 -0.03215126 0.2982238 -0.8679601 0.2611835 -0.4034406
0.031202067 -0.21829084 0.2287893 -0.08871792 0.3016513 0.15986143 -0.20837174 -0.32635525
0.26039848 -0.09443435 -0.12013058 0.08171908 -0.043369934 0.13448638 0.55143255 -0.12440244
0.08956582 -0.095278494 0.20731014 -0.32560733 0.16180053 0.13858485 -0.10439825 -0.08784667
0.6650888 -0.14993052 -0.36800626 0.3029925 0.24347033 -0.14570248 -0.23374574 -0.1495663
-0.14136678 0.14690988 0.23223507 -0.14824682 -0.05877726 0.060526762 -0.27389327 -0.22769752
-0.18580283 -0.21209304 0.28035626 0.04088831 0.35324508 -0.20020042 -0.16222402 0.22149618
-0.99237746 0.30236486 0.19584352 0.20169634 -0.231812 -0.29970655 -0.6017885 0.011870278
0.6805979 -0.39984044 -0.013971643 -0.004917603 0.21435633 -0.6487272 0.15291454 -0.34159175
0.06991635 -0.18256523 0.27588135 0.10750489 -0.21401098 -0.10363194 -0.34423417 0.53329283
-0.12422134 -0.23597233 0.0323538 -0.10061687 0.054404132 0.24420477 -0.9099354 0.30656314
-0.21813443 0.31069046 -0.0754399 -0.13422984 -0.37767503 -0.07439272 -0.06760171 -0.07015057
-0.71463907 -0.07004538 0.75861895 0.015420297 -0.47161323 -0.40977296 0.83838844 -0.15068209
-0.5992345 -0.24854279 -0.13023809 -0.3282547 -0.40284684 -0.041213438 -0.21983758 -0.24485981
-0.15907724 0.14486228 0.08729969 -0.1589557 -0.31983766 -0.07072547 0.0019260535 0.32234153
0.55027354 0.1466241 0.228468 0.26201236 0.09398761 -0.1261059 0.26726255 0.25693998
-0.44746405 -0.37166873 0.07133359 0.07252348 -0.28234014 0.27745044 0.045424063 -0.17205955
0.09429333 -0.21897413 -0.68441963 -0.21181802 -0.1504022 -0.63762456 0.6090339 -0.3094657
-0.06541742 -0.15546635 -0.2545728 0.17159797 0.10832791 -0.28070337 0.1655536 0.15941133
0.7111 -0.6507324 -0.46165383 0.03133428 -0.30373174 -1.1075585 1.3431567 0.33778605
00000000: 2f5c 133f 0a44 c03e 21d8 eb3e 1dcc bdbd
00000010: 5845 993e 80c0 3abe 070a 9fbe d8ab 8e3e
00000020: 8bba ec3e 1b18 14be d51b a6be 5c5e 2dbb
00000030: 772b 91bd 52a3 ec3d e9d2 cf3e a24e 14be
00000040: 7f3d 1cbf edda 81bd ee85 8ebe 5fe8 aebe
00000050: 3f68 49bf 52c4 0bbc 3750 873e e5fb 363e
00000060: aafe b03e d275 ce3d 10fa 6d3e 6b1f aebd
00000070: 1bbb 18bd edae ea3d 0da2 bebe 6e0c ffbe
00000080: 572a d23e 80e0 fa3c 684a 0abf 0174 593d
00000090: 5aa9 943e 0070 6abe 74f9 80bd 84db 4abe
000000a0: 7077 553f 7e7b 3bbe 9e21 8abb 3378 213e
000000b0: 57d6 eb3d 2ea5 60bd 7e0f c3be 9717 263e
000000c0: 643e d2bd d98d ce3e 0c57 103e fe1d a43e
000000d0: cd3f b33d 3ced afbe a48b 14bc b385 8cbe
000000e0: 7dcb a83e 4c91 e63e a951 c33c e429 d3bc
000000f0: 1464 563e a45b 05be 8d21 793e 2324 4ebe
00000100: cd1a 16bf d675 043f 41c8 043d 8432 f2bd
00000110: d03c b2be 560f 58be da60 5fbc d837 a63e
00000120: 8dde 323f 2e29 0f3e 3e9b c6be 4dc9 84be
00000130: 5a55 9fbd de60 523e 8520 aabd d27f 593f
00000140: ea1f 89be 5020 a4be 6268 16bf 4ccb dc3d
00000150: 0c6d d73c 8403 223e 5b73 e7be ac30 8dbd
00000160: 11ef 3e3f f02f 05bf c756 25bf d378 62be
00000170: 453f fbbe 3066 c8be eb44 463e cf53 e43d
00000180: 1148 cdbe ed4b 5bbf e7f0 3abe 0ab1 03bd
00000190: cab0 983e a232 5ebf d8b9 853e c48f cebe
000001a0: 7a9b ff3c a287 5fbe be47 6a3e beb1 b5bd
000001b0: 0a72 9a3e b7b2 233e 675f 55be 0918 a7be
000001c0: f352 853e cc66 c1bd 0607 f6bd 555c a73d
000001d0: aca4 31bd ccb6 093e af2a 0d3f b5c6 febd
000001e0: 496e b73d 5f21 c3bd 1c49 543e 01b6 a6be
000001f0: 0aaf 253e 30e9 0d3e c0ce d5bd f4e8 b3bd
00000200: 4243 2a3f 6387 19be 516b bcbe d521 9b3e
00000210: 4950 793e 0833 15be 0b5b 6fbe e827 19be
00000220: 74c2 10be 8b6f 163e 08cf 6d3e 04ce 17be
00000230: 6dc0 70bd e9ea 773d bd3b 8cbe 8a29 69be
00000240: 1943 3ebe eb2e 59be db8a 8f3e 807a 273d
00000250: 8adc b43e 5701 4dbe 0e1e 26be e5cf 623e
00000260: 730c 7ebf 91cf 9a3e 348b 483e 7c89 4e3e
00000270: 2060 6dbe 2373 99be d00e 1abf 8e7b 423c
00000280: aa3b 2e3f e3b7 ccbe 51e9 64bc d823 a1bb
00000290: 3a80 5b3e fc12 26bf a195 1c3e 1de5 aebe
000002a0: 4e30 8f3d 61f2 3abe 5240 8d3e 862b dc3d
000002b0: b225 5bbe fc3c d4bd 763f b0be e185 083f
000002c0: c267 febd bba2 71be 6b85 043d 3810 cebd
000002d0: ded6 5e3d d110 7a3e 87f1 68bf d8f5 9c3e
000002e0: a25e 5fbe d212 9f3e 3c80 9abd 8c73 09be
000002f0: 9f5e c1be 365b 98bd c472 8abd 1aab 8fbd
00000300: 96f2 36bf f473 8fbd da34 423f 6aa5 7c3c
00000310: 4a77 f1be c3cd d1be a0a0 563f 684c 1abe
00000320: 6f67 19bf 0082 7ebe 225d 05be 0011 a8be
00000330: f141 cebe 6ccf 28bd 1a1d 61be 88bc 7abe
00000340: 25e5 22be c756 143e 2eca b23d 48c5 22be
00000350: c3c1 a3be 84d8 90bd a273 fc3a f309 a53e
00000360: bade 0c3f a124 163e 84f3 693e 7c26 863e
00000370: 937c c03d e821 01be a3d6 883e a38d 833e
00000380: 021a e5be 5d4b bebe 5817 923d 3187 943d
00000390: e38e 90be fc0d 8e3e 950e 3a3d 6130 30be
000003a0: dd1c c13d c13a 60be 2036 2fbf d3e6 58be
000003b0: 0903 1abe 5d3b 23bf a5e9 1b3f 4a72 9ebe
000003c0: 91f9 85bd 9232 1fbe 5e57 82be 61b7 2f3e
000003d0: 06db dd3d 5ab8 8fbe e286 293e b93c 233e
000003e0: a60a 363f 6696 26bf e45d ecbe 6058 003d
000003f0: ba82 9bbe 7ac4 8dbf 8fec ab3f 4bf2 ac3e

enc2.0.conv2.pointwise.bias f4 [32]
0.0710628 -0.2078283 -0.29610512 -0.30561405 0.1704569 -0.015422949 0.026744679 0.10052133
-0.11968964 -0.28401747 0.25535864 0.010665607 0.24345392 0.26216462 -0.46028158 0.0428074
0.19278777 -0.21533614 0.3047358 0.19519995 -0.31695887 0.22923192 0.058336906 -0.04326502
0.2584059 0.039365046 0.10922321 -0.44788995 -0.04878325 -0.01562371 0.2716177 0.30338797
00000000: 6089 913d f1d0 54be 179b 97be 7279 9cbe
00000010: 418c 2e3e 89b0 7cbc a817 db3c 21de cd3d
00000020: d81f f5bd bd6a 91be 5ebe 823e ccbe 2e3c
00000030: fc4b 793e 713a 863e 07aa ebbe d056 2f3d
00000040: 286a 453e 1481 5cbe 5506 9c3e 7fe2 473e
00000050: 6f48 a2be c6bb 6a3e aef2 6e3d a936 31bd
00000060: c74d 843e 3e3d 213d 6bb0 df3d d551 e5be
00000070: f2d0 47bd 97fa 7fbc 7a11 8b3e ab55 9b3e

enc2.0.proj.depthwise.weight f4 [8, 1, 3, 3]
-0.5993271 -0.6840923 -0.45521602 -0.07516608 -0.2269966 -0.6883607 -0.63487726 -0.39161795
-0.6503395 0.2558854 0.20318194 0.43413192 0.18532749 0.69611126 0.5095823 0.33871156
0.47109807 0.1282517 0.31513053 0.21251705 0.44741252 -0.18868762 0.36966047 0.2603571
-0.14329463 0.14558388 0.35292736 -0.55277985 -0.82948196 -0.9978974 -1.178602 -1.4301808
-1.1484946 -0.83506346 -0.91678345 -0.7036673 -0.044719778 0.56592697 0.84399813 0.2004367
0.21462339 0.7269939 -0.114356995 0.08819106 0.05074456 -0.28064236 -0.2800297 -0.005818912
-0.40096605 -0.7080829 -0.15328668 -0.54817826 -0.16111583 -0.19777139 0.7476832 0.31073782
0.5462835 0.3724377 0.31112263 0.5307024 0.14066675 0.39271647 0.27624115 -0.10441379
-0.19382738 -0.26468387 -0.34047082 -0.21744111 -0.39870533 -0.25830832 -0.7221449 -0.5262844
00000000: 806d 19bf ac20 2fbf 1312 e9be acf0 99bd
00000010: cc71 68be 6838 30bf 5187 22bf 2682 c8be
00000020: a67c 26bf 6903 833e ed0e 503e 8a46 de3e
00000030: 7dc6 3d3e 5934 323f fc73 023f 9a6b ad3e
00000040: c433 f13e 6a54 033e ca58 a13e 129e 593e
00000050: 4113 e53e 5437 41be 2344 bd3e 874d 853e
00000060: d4bb 12be f113 153e e5b2 b43e fb82 0dbf
00000070: ee58 54bf 3476 7fbf 6edc 96bf 2a10 b7bf
00000080: df01 93bf b8c6 55bf 52b2 6abf 8a23 34bf
00000090: 162c 37bd 97e0 103f 4310 583f 473f 4d3e
000000a0: 3cc6 5b3e 461c 3a3f 0034 eabd 849d b43d
000000b0: 87d9 4f3d 5bb0 8fbe 0e60 8fbe 92ac bebb
000000c0: 6c4b cdbe ec44 35bf 2ff7 1cbe 6955 0cbf
000000d0: 8cfb 24be 9584 4abe 2b68 3f3f 0719 9f3e
000000e0: 3cd9 0b3f 27b0 be3e 774b 9f3e 1ddc 073f
000000f0: f20a 103e 2212 c93e 7b6f 8d3e e6d6 d5bd
00000100: af7a 46be a584 87be 3152 aebe e2a8 5ebe
00000110: 1b23 ccbe fd40 84be 7dde 38bf 93ba 06bf

enc2.0.proj.pointwise.weight f4 [32, 8, 1, 1]
0.56225294 0.45753482 -0.48930043 -0.3896517 0.116721675 0.44512075 -0.16194439 -0.026505353
0.31102085 0.33143786 0.06802637 -0.2815779 0.2294253 0.50914896 -0.2926913 -0.21037823
-0.42199925 0.061895274 0.18906319 0.034324583 0.076222084 0.49212095 0.28460598 -0.35603964
0.6126049 0.17626306 0.4119447 -0.06327775 0.07226771 -0.15479994 0.4539496 -0.3997484
0.51546323 -0.8721182 -0.36169827 -0.3903616 -0.09727467 -0.1792688 -1.1734612 -0.3941076
-0.4008221 0.15042943 -0.24728262 -0.19193786 -0.22107014 -0.079930015 -0.21891135 0.9360787
-0.49330273 0.3292824 0.19215958 -1.0436473 0.8455339 0.24475293 0.0057482505 0.81323224
0.21668805 -0.36200118 -0.5984111 0.5812752 0.21600932 0.63218856 -0.22791032 -0.19992772
0.3232387 0.30902404 0.26505095 0.19800776 -0.27136675 -0.4761806 0.36422652 0.93625396
0.4274171 0.37829986 -0.042664513 0.77585113 -0.3740962 0.097220294 -0.0011510603 -0.66558665
-0.060186043 0.58164847 0.11438676 -1.0197867 -0.07534844 0.859998 -0.15530923 0.25849786
0.47326228 -1.80788 -0.4906992 0.11691899 0.24827167 -0.99804515 0.26753104 -0.25933924
0.12021252 -0.48955372 -0.6679526 -0.7663693 -0.8104917 -0.457242 0.15411942 -0.28556815
0.010031037 0.11568415 -1.0067712 -0.63099027 -2.5053945 -0.34180295 0.6017937 -0.7037735
-0.05183359 -0.032861546 -0.052479062 -0.3615131 0.5550878 0.14752646 0.032385968 0.09582733
0.010966419 -0.5878416 -0.8210271 -0.5484013 0.5109437 -0.16268659 -0.53129935 -0.3195291
0.25622097 0.2914645 0.19116525 -0.9290502 0.07561817 0.44910362 -0.0068783704 -0.42659917
0.3075153 -0.021992385 -0.17847528 -0.29229385 -0.40601164 0.31221083 0.20420416 -0.19856727
0.5406757 0.35999772 0.26370212 -1.2892168 -0.5392716 0.8405154 0.2361361 0.20270336
-0.061835844 -0.06670703 -0.66480327 0.43889186 0.23130685 1.2488266 0.03296307 0.84052
-0.38476917 0.22927928 -0.47014955 -1.1391442 -0.0038388353 0.06721428 0.03956264 0.3954522
0.33291838 0.08397586 -0.30692536 1.2744639 -0.32530156 0.11389507 0.35976756 -0.6335189
-0.1149439 0.32655782 -0.42059872 -0.1696246 -0.7472775 -0.43861744 -0.012999573 0.46482334
-0.29382077 0.1764262 0.3884456 -0.57352847 0.413838 0.6299904 0.17561881 0.8972181
-0.11257448 0.024267662 -0.17094228 0.74438065 -0.051284857 0.21936058 -0.79296756 0.5857836
-0.07642805 0.09677504 0.2917992 -0.96744317 0.85757864 -0.590206 -0.81342304 0.4473828
0.28050616 -0.18295743 -0.40052536 0.3452033 -0.029071394 0.50728106 -0.20578061 -0.08056169
-0.04338354 0.4946583 0.37083954 -0.38442174 -0.4380543 0.1767612 0.05439379 0.7807677
0.10123857 -0.24653192 0.6580237 0.11318615 0.43683395 0.21450086 0.54297256 -0.16621505
0.5343043 -0.115572415 -0.22710891 -0.4120701 -0.10064502 0.164824 0.12992617 -0.7101067
-0.4798217 -0.2877125 -0.2714549 -0.80868864 -0.44318455 -0.1572597 -0.04651491 -0.098505914
0.18039863 -0.9044161 -0.7710891 -0.6766337 0.2617462 -0.18144776 -0.6499046 0.09673199
00000000: cfef 0f3f 0142 ea3e 9685 fabe 6d80 c7be
00000010: c60b ef3d dee6 e33e c0d4 25be c121 d9bc
00000020: 203e 9f3e 39b2 a93e 6951 8b3d fa2a 90be
00000030: 77ee 6a3e 9657 023f a2db 95be 646d 57be
00000040: 4910 d8be e685 7d3d c899 413e ef97 0c3d
00000050: 531a 9c3d 47f7 fb3e e0b7 913e d44a b6be
00000060: add3 1c3f 4e7e 343e 6aea d23e c497 81bd
00000070: 1801 943d e083 1ebe 156c e83e d3ab ccbe
00000080: 66f5 033f 2343 5fbf 8430 b9be 7add c7be
00000090: f137 c7bd 3e92 37be fa33 96bf 79c8 c9be
000000a0: 8e38 cdbe 2c0a 1a3e a837 7dbe 5c8b 44be
000000b0: 3660 62be 59b2 a3bd 4c2a 60be dba2 6f3f
000000c0: 2d92 fcbe b497 a83e 7bc5 443e 3c96 85bf
000000d0: e974 583f 83a0 7a3e d25b bc3b fd2f 503f
000000e0: 79e3 5d3e 3858 b9be 7831 19bf 74ce 143f
000000f0: 8c31 5d3e 1cd7 213f 5361 69be dab9 4cbe
00000100: 8b7f a53e 6638 9e3e c2b4 873e 8cc2 4a3e
00000110: 95f0 8abe f2cd f3be e67b ba3e 57ae 6f3f
00000120: 6ad6 da3e 85b0 c13e fcc0 2ebd 2e9e 463f
00000130: 8a89 bfbe 6f1b c73d 2ddf 96ba e363 2abf
00000140: a485 76bd eae6 143f 9b43 ea3d 5f88 82bf
00000150: 4850 9abd d428 5c3f 6209 1fbe d559 843e
00000160: 6f4f f23e 9d68 e7bf ed3c fbbe 3973 ef3d
00000170: ee3a 7e3e e37f 7fbf d4f9 883e 1dc8 84be
00000180: fb31 f63d c9a6 fabe f1fe 2abf c730 44bf
00000190: 627c 4fbf a01b eabe 7bd1 1d3e fd35 92be
000001a0: 3859 243c d0eb ec3d e1dd 80bf 9488 21bf
000001b0: 6258 20c0 cc00 afbe 270f 1a3f 802a 34bf
000001c0: 754f 54bd d499 06bd 49f4 56bd 3f18 b9be
000001d0: 3c1a 0e3f 2d11 173e 26a7 043d 1f41 c43d
000001e0: 7fac 333c c97c 16bf d52e 52bf 0764 0cbf
000001f0: 35cd 023f 5097 26be 3c03 08bf 5199 a3be
00000200: 652f 833e d63a 953e d3c0 433e 3cd6 6dbf
00000210: b3dd 9a3d e9f0 e53e f463 e1bb 356b dabe
00000220: a572 9d3e 6029 b4bc 39c2 36be 8aa7 95be
00000230: c2e0 cfbe 19da 9f3e e51a 513e 3855 4bbe
00000240: b969 0a3f 9f51 b83e f703 873e 0e05 a5bf
00000250: b40d 0abf 042c 573f a9cd 713e 7891 4f3e
00000260: 9547 7dbd b29d 88bd 8c30 2abf 6fb6 e03e
00000270: b4db 6c3e 8dd9 9f3f 4904 073d 522c 573f
00000280: 7700 c5be 30c8 6a3e 71b7 f0be 7acf 91bf
00000290: f894 7bbb a4a7 893d 6f0c 223d b678 ca3e
000002a0: 4774 aa3e 89fb ab3d 5225 9dbe a221 a33f
000002b0: ed8d a6be d241 e93d 7433 b83e 4b2e 22bf
000002c0: b567 ebbd 9632 a73e b758 d7be 12b2 2dbe
000002d0: 944d 3fbf 7792 e0be 29fc 54bc 53fd ed3e
000002e0: ad6f 96be 12a9 343e 57e2 c63e c3d2 12bf
000002f0: 93e2 d33e 0d47 213f 6bd5 333e 16b0 653f
00000300: 738d e6bd facc c63c 7e0b 2fbe bb8f 3e3f
00000310: 1210 52bd 0fa0 603e ecff 4abf eaf5 153f
00000320: 4f86 9cbd fe31 c63d b466 953e 5baa 77bf
00000330: 468a 5b3f be17 17bf 7e3c 50bf 5c0f e53e
00000340: 819e 8f3e 3159 3bbe a911 cdbe 7dbe b03e
00000350: 2227 eebc 2cdd 013f 27b8 52be 87fd a4bd
00000360: f0b2 31bd da43 fd3e aede bd3e edd2 c4be
00000370: a748 e0be e300 353e 06cc 5e3d 64e0 473f
00000380: 2b56 cf3d dd72 7cbe 3e74 283f 24ce e73d
00000390: b3a8 df3e 1da6 5b3e 4000 0b3f 4734 2abe
000003a0: 2bc8 083f 3bb1 ecbd 3d8f 68be dafa d2be
000003b0: fa1e cebd 9fc7 283e 5e0b 053e 8dc9 35bf
000003c0: 31ab f5be 0e4f 93be 23fc 8abe 3806 4fbf
000003d0: 16e9 e2be b008 21be 6b86 3ebd 78bd c9bd
000003e0: 6bba 383e d087 67bf 1866 45bf de37 2dbf
000003f0: 9903 863e 71cd 39be 2660 26bf 6c1b c63d

enc2.0.proj.pointwise.bias f4 [32]
0.19706124 -0.004162752 -0.38379022 -0.1894466 0.34674737 -0.014031641 -0.07873898 0.2595102
-0.2959785 -0.47374249 0.02217172 0.27569908 0.16296571 0.17356287 -0.7920363 0.0886952
0.09520903 -0.25073987 0.041622743 0.13009593 0.012545086 -0.007244679 0.08451089 -0.3186929
0.26539102 -0.099144585 -0.027193563 -0.44062003 -0.1807092 0.051488426 -0.37383524 0.0061366647
00000000: 6cca 493e b267 88bb 2780 c4be 4afe 41be
00000010: df88 b13e f8e4 65bc e741 a1bd 85de 843e
00000020: 7e8a 97be 608e f2be 78a1 b53c 6e28 8d3e
00000030: 7ce0 263e 77ba 313e e4c2 4abf d4a5 b53d
00000040: f4fc c23d fa60 80be 9c7c 2a3d de37 053e
00000050: e889 4d3c c664 edbb 0c14 ad3d b72b a3be
00000060: 55e1 873e 510c cbbd 09c5 debc f398 e1be
00000070: d50b 39be 87e5 523d 5567 bfbe 1316 c93b

enc2.1.conv1.depthwise.weight f4 [32, 1, 5, 5]
0.03169189 0.052007824 -0.12113498 -0.2275356 0.0017872206 -0.19588561 -0.11838731 -0.3548737
-0.3477784 -0.12249748 -0.032696504 0.14363205 -0.15728918 -0.08139641 -0.12775144 0.01785997
-0.10028717 -0.070662 0.05833061 -0.13068862 0.10872099 0.022591 -0.089383304 -0.107534006
-0.29977033 0.39599606 -0.07060075 -0.0075265993 -0.06499381 0.065618366 -0.25951964 -0.34895557
-0.38765743 -0.17794111 -0.13929833 -0.23113227 -0.13211402 -0.05445641 -0.20368382 -0.040050033
0.09755631 -0.13444729 0.071118966 -0.10260547 0.1528499 -0.002211968 -0.11930933 0.14621106
0.08695167 -0.050645046 -0.041825585 0.13726652 0.15565605 0.37241143 0.24628767 -0.0002863576
0.025029818 0.35000145 0.20462434 0.15572646 0.1973036 0.28956583 0.14142978 0.055907153
-0.025885906 0.15747403 0.17188163 -0.10794463 -0.015030121 0.12439983 -0.27102703 -0.003321283
0.14808159 0.012488097 -0.09902514 0.26659486 0.046890546 0.46408567 0.22634782 0.03396695
0.25844643 0.33071095 0.44113305 0.481079 0.088418566 0.029535947 -0.088977896 0.042396553
0.22169213 -0.102225944 -0.17380801 -0.40026918 0.12503631 -0.10443427 -0.13149793 0.04974588
0.04088001 0.13962796 0.1872052 0.06205158 0.090941384 0.22762041 -0.15538517 -0.01271374
0.17934695 -0.16499949 0.047002777 -0.10738461 0.04044168 0.24151582 -0.03970008 0.15723605
-0.06445285 0.2608771 0.32424888 -0.13916977 -0.20176971 0.06320586 0.21993905 0.22178787
-0.1285632 -0.22230266 -0.026889127 0.1846143 0.4865836 -0.034938738 0.02209218 0.2880723
0.18726583 0.11721132 0.005971895 0.1250041 -0.014656218 0.04037981 0.18799013 -0.1450024
0.036017403 -0.16312315 -0.037007213 0.06454617 -0.20768501 0.038159005 -0.0732194 -0.019624647
-0.00800796 -0.26374802 -0.23009494 -0.14750394 -0.047532603 0.123410925 -0.12838584 0.14412744
0.04321941 0.018947108 0.21735653 0.100373775 0.12476983 0.11216447 -0.011452548 0.08115937
0.17593984 0.28478622 0.11770087 0.1750934 0.22322589 -0.108864695 0.12823173 0.19098522
0.12620968 0.058708437 0.15638207 -0.098432876 -0.009584416 0.17171009 -0.046460968 0.085870124
-0.054101586 -0.17647181 -0.098685 0.19930236 -0.04000955 -0.0882784 -0.05439343 0.070797056
0.118407816 0.1785355 -0.037698768 -0.26737508 -0.29206648 -0.13730572 0.0929719 -0.003498971
-0.17678672 -0.20887423 -0.14829479 -0.0061276895 -0.13438247 -0.12573673 -0.2565404 0.03153165
-0.20355514 0.031146938 -0.08716862 -0.13427743 -0.24719645 -0.101471156 -0.04818422 -0.08778744
0.11972057 0.0050931587 -0.19290894 -0.34032163 -0.1516787 0.046146564 -0.22876364 -0.21312512
-0.43310893 -0.42391688 -0.014171797 -0.16161396 -0.66405326 -0.5452516 -0.12429515 -0.24145128
-0.31941083 -0.5431813 -0.2865872 -0.45372725 -0.12010809 -0.4762796 -0.47053638 -0.31272364
-0.017453242 -0.22441067 -0.5627236 0.019678399 0.13656983 0.00807265 -0.14828868 -0.36873212
-0.0019616024 0.04596233 0.16037753 -0.027528478 0.091075025 0.097927205 0.09369604 0.01619848
-0.1724006 0.01614546 0.16498077 0.06928809 -0.185184 0.08583085 0.14302002 0.095665276
00000000: 5bcf 013d 2806 553d 9e15 f8bd 18ff 68be
00000010: 2c41 ea3a 3d96 48be 0c75 f2bd 01b2 b5be
00000020: 0310 b2be f5df fabd c5ec 05bd 4814 133e
00000030: 6a10 21be 29b3 a6bd 46d1 02be 124f 923c
00000040: 5c63 cdbd 3db7 90bd 14ec 6e3d 3dd3 05be
00000050: 1ca9 de3d c310 b93c 980e b7bd ca3a dcbd
00000060: 7f7b 99be ffbf ca3e 2097 90bd b1a1 f6bb
00000070: 7a1b 85bd ec62 863d c2df 84be 4eaa b2be
00000080: 097b c6be 3236 36be 39a4 0ebe f0ad 6cbe
00000090: e648 07be af0d 5fbd 7e92 50be 810b 24bd
000000a0: 9acb c73d 8dac 09be d2a6 913d d122 d2bd
000000b0: af84 1c3e aaf6 10bb 7358 f4bd 5ab8 153e
000000c0: b813 b23d 2e71 4fbd 4e51 2bbd 988f 0c3e
000000d0: 4d64 1f3e b6ac be3e d632 7c3e 4422 96b9
000000e0: 550b cd3c 6433 b33e 0b89 513e c276 1f3e
000000f0: f409 4a3e f941 943e f8d2 103e e6fe 643d
00000100: ae0e d4bc df40 213e bd01 303e 1312 ddbd
00000110: e640 76bc 57c5 fe3d 0ec4 8abe e2a9 59bb
00000120: b3a2 173e e09a 4c3c b1cd cabd 1f7f 883e
00000130: 4d10 403d a39c ed3e b9c7 673e ee20 0b3d
00000140: 1753 843e f252 a93e 31dc e13e fd4f f63e
00000150: cb14 b53d 5ff5 f13c 0b3a b6bd 02a8 2d3d
00000160: 4303 633e d65b d1bd bafa 31be 15f0 ccbe
00000170: 8509 003e a2e1 d5bd 65a7 06be 56c2 4b3d
00000180: cc71 273d a2fa 0e3e b8b2 3f3e cc29 7e3d
00000190: 7a3f ba3d 5315 693e 4a1d 1fbe 4a4d 50bc
000001a0: baa6 373e a0f5 28be fc85 403d 76ec dbbd
000001b0: 2da6 253d ec4f 773e 8d9c 22bd 7d02 213e
000001c0: dbff 83bd af91 853e f303 a63e 8582 0ebe
000001d0: b89c 4ebe 1372 813d b437 613e 5c1c 633e
000001e0: 12a6 03be 4fa3 63be 9646 dcbc 880b 3d3e
000001f0: 7c21 f93e ec1b 0fbd a9fa b43c 367e 933e
00000200: 9dc2 3f3e 7d0c f03d e3af c33b 1301 003e
00000210: a220 70bc 4d65 253d 7c80 403e 827b 14be
00000220: fc86 133d c109 27be e094 17bd c830 843d
00000230: 61ab 54be 9e4c 1c3d 0ef4 95bd dec3 a0bc
00000240: d233 03bc fb09 87be 029e 6bbe 460b 17be
00000250: 8cb1 42bd debe fc3d 9477 03be 2596 133e
00000260: d606 313d f736 9b3c b692 5e3e c490 cd3d
00000270: 5387 ff3d 7cb6 e53d 78a3 3bbc e236 a63d
00000280: 9329 343e 80cf 913e 270d f13d af4b 333e
00000290: 5495 643e 74f4 debd 2e4f 033e a191 433e
000002a0: 1c3d 013e 4278 703d 9f22 203e 2d97 c9bd
000002b0: f407 1dbc c5d4 2f3e db4d 3ebd addc af3d
000002c0: a099 5dbd 07b5 34be 5c1b cabd eb15 4c3e
000002d0: 0ee1 23bd 4ecb b4bd a5cb 5ebd 0cfe 903d
000002e0: cc7f f23d 03d2 363e 066a 1abd 63e5 88be
000002f0: bd89 95be df99 0cbe 0d68 be3d fe4e 65bb
00000300: 9407 35be 20e3 55be 97da 17be c9ca c8bb
00000310: 8f9b 09be 21c1 00be 4359 83be 5527 013d
00000320: c270 50be dd27 ff3c 7685 b2bd 0680 09be
00000330: 1121 7dbe 1cd0 cfbd d15c 45bd e7c9 b3bd
00000340: 0f30 f53d 83e4 a63b ec89 45be a33e aebe
00000350: a951 1bbe 2e04 3d3d 0441 6abe 793d 5abe
00000360: 74c0 ddbe a20b d9be d330 68bc 217e 25be
00000370: 65ff 29bf 9c95 0bbf 758e febd 013f 77be
00000380: d189 a3be ee0d 0bbf 8fbb 92be f04e e8be
00000390: 3bfb f5bd ebda f3be 25ea f0be 501d a0be
000003a0: 1afa 8ebc e9cb 65be a70e 10bf 9834 a13c
000003b0: f6d8 0b3e 2643 043c fdd8 17be 75ca bcbe
000003c0: 3a8e 00bb ff42 3c3d 023a 243e 6783 e1bc
000003d0: 8b85 ba3d 0f8e c83d b6e3 bf3d adb2 843c
000003e0: c889 30be 7c43 843c b8f0 283e eae6 8d3d
000003f0: e0a0 3dbe 16c8 af3d d773 123e 28ec c33d

enc2.1.conv1.pointwise.weight f4 [8, 32, 1, 1]
-0.15456 -0.10979337 -0.34532264 0.41747528 -0.087525465 0.11082701 0.11584351 0.36127847
0.20727573 -0.18039867 -0.08518827 -0.22051628 0.40167513 -0.14578184 0.7198781 0.15065253
0.055423133 0.09115807 -0.102950625 0.24833024 -0.2986064 -0.21049696 -0.053794347 0.755022
0.03827418 0.23423356 0.077925526 -0.24875498 0.4265898 0.0732335 -0.092053294 -0.13012
0.08878524 -0.13531224 0.042088203 -0.07664946 -0.61737245 -0.0060518323 0.17249548 -0.2753061
-0.05679415 0.4807511 -0.009458718 -0.5924329 -0.047037017 -0.032440662 -0.15722549 0.016258022
0.03963826 -0.021069216 0.01685671 0.18893872 0.0136363385 -0.4141805 -0.017112996 -0.2849361
-0.012232496 -0.08535204 0.022073556 0.1730329 0.18031432 0.16101195 0.16319163 0.09258739
0.019969745 0.19378889 0.31666675 -0.45449674 -0.2438973 -0.045281354 0.14369942 0.4259147
0.3848364 0.09590538 0.017740928 0.12379688 -0.08264957 -0.0037198733 0.38069415 0.057382938
-0.03330419 0.01956792 -0.0034327763 0.12008176 0.06265182 -0.007109623 0.061742857 -0.27320316
0.041607965 0.014454333 0.048039496 -0.11035582 0.64365184 0.26453057 0.24282242 0.009785314
-0.03149514 0.7630278 -0.04322049 -0.5342598 -0.06984597 -0.24426275 0.18840371 0.104627155
-0.41705525 0.11673252 -0.013305653 -0.5025731 0.1052634 -0.006396965 -0.09980202 -0.51011765
0.020786555 0.04733029 0.020426078 -0.13642885 -0.13005888 0.20079462 0.0013577051 -0.0019491104
0.044409562 0.32643884 -0.21148397 0.28636238 -0.6560068 -0.10075288 0.17051226 -0.0856269
0.054254297 -0.7769941 0.28894907 0.09956175 0.03076611 -0.27224007 -1.9200805 -0.15313467
-0.07754541 1.1221102 0.19000717 0.0049467096 0.04258918 0.005448232 0.16609795 0.030526156
0.076895185 0.098048486 -0.21750888 -0.38635874 -0.48094347 0.008350878 -0.6318609 0.2424063
0.016659532 0.1637341 0.026315682 0.5033702 -0.5486347 -0.35098758 -0.055201095 -0.0034881667
0.65148646 0.3738615 -0.12784187 -0.30636275 -0.67538005 0.107103646 0.14079042 0.31076178
0.41655034 0.5473179 -0.033242803 -0.3578578 -0.87793565 0.059545726 -0.017705007 -0.0891907
0.15869932 0.045070548 0.0014809825 -0.09849848 0.1002875 -0.32753497 0.024987388 -0.28102806
0.0014796486 -0.07475273 0.026987769 0.4973787 -0.6657985 -0.19543956 0.065063834 -0.0013303037
-0.1511984 0.013668836 0.088884644 -0.1503317 -0.04246796 0.3733169 -0.38987043 -0.1395861
0.0060853204 0.2692766 0.11184129 -0.010022532 -0.34265152 0.006761951 -0.5487008 -0.19081572
0.2041675 0.04835779 -1.0915492 0.3359548 -0.061797544 0.33909568 0.21351165 -0.3960751
-0.81176376 -0.0684926 0.045897115 -0.10543334 -0.63718766 -0.46620128 -0.19629742 0.17723517
0.10281719 0.08203117 -0.04658564 -0.20773146 -0.08982379 0.25220755 0.05488968 -0.011378416
-0.012412707 0.1474302 -0.08440588 -0.13546328 0.14897159 -0.086201616 0.077614 -0.0774624
-0.0723336 0.13348928 0.025249444 -0.27495208 0.0062249205 -0.30589402 -0.05872246 -0.1657606
-0.15239836 -0.024538502 0.0076723634 0.45929 0.09635654 -0.16640766 0.046045974 0.011384797
00000000: fa44 1ebe 59db e0bd 21ce b0be 52bf d53e
00000010: 8d40 b3bd 45f9 e23d 5d3f ed3d 7ef9 b83e
00000020: 1740 543e 6eba 38be 3077 aebd 05cf 61be
00000030: 5da8 cd3e d647 15be ee49 383f a844 1a3e
00000040: 5e03 633d 15b1 ba3d c7d7 d2bd 484a 7e3e
00000050: f0e2 98be 848c 57be 7657 5cbd 1f49 413f
00000060: 63c5 1c3d ecda 6f3e 6b97 9f3d a0b9 7ebe
00000070: fa69 da3e 72fb 953d 7086 bcbd 2d3e 05be
00000080: 09d5 b53d 4b8f 0abe ae64 2c3d 64fa 9cbd
00000090: 1f0c 1ebf 734e c6bb a8a2 303e ecf4 8cbe
000000a0: fca0 68bd 0225 f63e bdf8 1abc afa9 17bf
000000b0: e3a9 40bd 80e0 04bd b8ff 20be 8b2f 853c
000000c0: ba5b 223d 5999 acbc 1517 8a3c 2779 413e
000000d0: f36a 5f3c 770f d4be 8e30 8cbc 25e3 91be
000000e0: cf6a 48bc 0dcd aebd 9ad3 b43c 892f 313e
000000f0: 51a4 383e 51e0 243e b51b 273e 759e bd3d
00000100: 9797 a33c 9870 463e 2522 a23e ccb3 e8be
00000110: 37c0 79be f178 39bd f125 133e 7e11 da3e
00000120: 4709 c53e 0a6a c43d 6c55 913c 3889 fd3d
00000130: 2e44 a9bd 1ec9 73bb 58ea c23e 5f0a 6b3d
00000140: f969 08bd e74c a03c 6ef8 60bb 6ded f53d
00000150: 994f 803d d7f7 e8bb 14e6 7c3d 49e1 8bbe
00000160: 1d6d 2a3d ded1 6c3c 10c5 443d 3b02 e2bd
00000170: 5ec6 243f 8d70 873e 71a6 783e 9552 203c
00000180: 0c01 01bd ca55 433f f807 31bd 40c5 08bf
00000190: 670b 8fbd 0420 7abe e7ec 403e c346 d63d
000001a0: 4488 d5be 7611 ef3d f4ff 59bc a1a8 00bf
000001b0: 5694 d73d a29d d1bb 0065 ccbd 1297 02bf
000001c0: 9148 aa3c 68dd 413d 9754 a73c 01b4 0bbe
000001d0: 282e 05be 1b9d 4d3e 06f5 b13a 4b79 ffba
000001e0: cde6 353d fe22 a73e 418f 58be 179e 923e
000001f0: 10f0 27bf 8757 cebd c49a 2e3e 285d afbd
00000200: c139 5e3d 16e9 46bf 22f1 933e 08e7 cb3d
00000210: 3609 fc3c 0d63 8bbe 33c5 f5bf 56cf 1cbe
00000220: 21d0 9ebd 4fa1 8f3f 3d91 423e 0218 a23b
00000230: fe71 2e3d 1587 b23b 9515 2a3e fd11 fa3c
00000240: 397b 9d3d a5cd c83d a6ba 5ebe d0d0 c5be
00000250: 393e f6be 1fd2 083c a3c1 21bf 5b39 783e
00000260: 9279 883c e9a9 273e fc93 d73c dfdc 003f
00000270: 5373 0cbf a5b4 b3be 8b1a 62bd ba99 64bb
00000280: d1c7 263f c66a bf3e fbe8 02be 94db 9cbe
00000290: b5e5 2cbf 2859 db3d 5d2b 103e 2b1c 9f3e
000002a0: 1646 d53e 071d 0c3f 9b29 08bd 2339 b7be
000002b0: 64c0 60bf 38e6 733d 170a 91bc 9da9 b6bd
000002c0: 1382 223e e59b 383d 871d c23a 92b9 c9bd
000002d0: 8863 cd3d aab2 a7be 5ab2 cc3c e9e2 8fbe
000002e0: c5f0 c13a f617 99bd 7415 dd3c 6ca8 fe3e
000002f0: c571 2abf 4f21 48be 3040 853d 965d aeba
00000300: c1d3 1abe 41f3 5f3c 2709 b63d 8ef0 19be
00000310: e2f2 2dbd 6523 bf3e 199d c7be a9ef 0ebe
00000320: 5e67 c73b 9fde 893e 0c0d e53d 8c35 24bc
00000330: 0570 afbe 5b93 dd3b a877 0cbf 3265 43be
00000340: 4911 513e d112 463d e2b7 8bbf 4402 ac3e
00000350: 6c1f 7dbd f39d ad3e cca2 5a3e 5bca cabe
00000360: c0cf 4fbf d945 8cbd 9dfe 3b3d 6fed d7bd
00000370: bb1e 23bf efb1 eebe 3102 49be 237d 353e
00000380: d291 d23d f5ff a73d 96d0 3ebd 8eb7 54be
00000390: 89f5 b7bd 5921 813e 00d4 603d 896c 3abc
000003a0: ab5e 4bbc f1f7 163e fddc acbd e3b6 0abe
000003b0: 028c 183e 798a b0bd 17f4 9e3d 9ba4 9ebd
000003c0: a323 94bd 6ab1 083e ecd7 ce3c 85c6 8cbe
000003d0: 6bfa cb3b 249e 9cbe f686 70bd 26bd 29be
000003e0: 510e 1cbe f804 c9bc 7368 fb3b 0f28 eb3e
000003f0: 9456 c53d c566 2abe b49a 3c3d 4d87 3a3c

enc2.1.conv1.pointwise.bias f4 [8]
-0.07725629 -0.19407782 0.16704424 0.06605371 0.22239801 -0.057006396 0.29941547 -0.13545953
00000000: 8c38 9ebd 56bc 46be a50d 2b3e 2b47 873d
00000010: 4ebc 633e 8a7f 69bd fc4c 993e e7b5 0abe

enc2.1.conv2.depthwise.weight f4 [8, 1, 5, 5]
-0.13694684 0.04020146 -0.14475296 0.1753505 0.120141014 0.05294194 0.04534186 0.22964013
0.27128047 0.051932197 0.27784452 0.121885695 0.050735336 0.12909733 0.023287538 0.014059885
0.032248195 -0.13169344 -0.17734617 0.04923327 0.110386744 0.29566357 0.08147537 0.2591071
0.22498678 0.08162921 -0.06688824 -0.018153986 0.032519404 0.060463738 -0.020002643 -0.15273394
-0.0317733 0.08161277 0.053204894 0.020655477 0.104538 0.09739917 -0.08675006 0.026245927
0.044801667 -0.19109382 -0.17188711 -0.28209773 -0.016155848 -0.25192535 -0.17336592 -0.11251155
0.10223749 -0.10552213 0.19826727 -0.04250793 -0.11406831 0.20576894 0.19127673 -0.001454287
0.06330316 -0.0077592484 -0.15441556 0.09001492 0.13340108 -0.15224753 0.038801655 -0.0634255
0.069175854 -0.019167833 0.15844883 0.14676397 -0.13967888 0.14320102 0.14110458 0.08285565
-0.037498698 0.05414402 0.11374937 0.033650678 -0.070449375 0.17619187 0.07116388 -0.16777925
0.15772456 -0.17979981 -0.21270809 0.04511978 0.17310171 -0.056792047 0.06688233 -0.30967683
0.05653485 0.09172264 -0.001139427 -0.05681668 -0.01142173 0.12921171 0.101719014 0.31534684
0.056839515 0.034517374 0.12536202 0.026430022 0.11198694 -0.026420698 0.24381895 0.090345174
0.28499964 0.023427196 -0.10466283 0.08429802 -0.058818724 -0.18331917 0.25815198 0.04511941
0.3647988 0.012518806 0.38786146 0.10393157 -0.18444729 0.07220651 -0.27215534 -0.02933587
0.3372805 0.18442789 0.40280154 0.16948959 0.10812741 -0.07294975 -0.031042704 0.15279393
0.23270878 0.029776685 -0.010391253 0.173221 -0.0816016 -0.048053518 0.0802512 0.14849958
0.0902002 0.064297736 0.032606278 0.0053265495 0.043215975 0.17272972 0.10461812 -0.07272466
-0.04463397 0.053907346 0.015056386 0.060200285 0.1970997 0.2264973 0.17170878 -0.42575592
-0.6453373 0.21097861 0.4024593 0.04930505 0.04427089 -0.26727512 0.15415502 0.21231273
-0.043687798 -0.22820401 -0.4650638 -0.29914218 -0.11330645 0.21453819 0.18109444 -0.124024615
0.14609425 0.1568915 0.058732476 -0.08452416 -0.055032384 0.031340286 0.17110424 -0.021705274
-0.17878662 0.06290921 0.23074976 0.17203575 0.12465974 0.21423264 0.23291884 0.19130872
0.25548872 -0.1486026 -0.19298409 -0.04260554 -0.24027899 -0.03017693 -0.14485839 -0.03337008
-0.12582503 -0.2557184 -0.037824005 0.09940337 -0.26388615 0.043691155 -0.04117248 0.15640719
00000000: cb3b 0cbe 49aa 243d 1f3a 14be 158f 333e
00000010: 7e0c f63d a6d9 583d 63b8 393d c826 6b3e
00000020: 46e5 8a3e dbb6 543d a341 8e3e 359f f93d
00000030: dbcf 4f3d 1732 043e 82c5 be3c 6f5b 663c
00000040: af16 043d a5da 06be 3c9a 35be d3a8 493d
00000050: 7212 e23d 3761 973e 8fdc a63d b0a9 843e
00000060: ef62 663e 372d a73d b4fc 88bd abb7 94bc
00000070: 1133 053d d3a8 773d 95dc a3bc 4966 1cbe
00000080: b824 02bd 9924 a73d 60ed 593d ad35 a93c
00000090: 0518 d63d 3779 c73d 04aa b1bd b301 d73c
000000a0: f481 373d 19ae 43be 2d03 30be 1d6f 90be
000000b0: 4559 84bc 5cfc 80be d686 31be 756c e6bd
000000c0: e461 d13d fd1b d8bd 9306 4b3e cc1c 2ebd
000000d0: a59c e9bd 18b5 523e 0cde 433e c69d beba
000000e0: 16a5 813d 4b41 febb 1d1f 1ebe be59 b83d
000000f0: 4b9a 083e c7e6 1bbe 7cee 1e3d 3be5 81bd
00000100: 12ac 8d3d dc05 9dbc 6940 223e 4b49 163e
00000110: fb07 0fbe 4aa3 123e b87d 103e 39b0 a93d
00000120: 3c98 19bd 1fc6 5d3d 6ef5 e83d 4bd5 093d
00000130: c347 90bd a46b 343e 5ebe 913d 53ce 2bbe
00000140: 8c82 213e 711d 38be 26d0 59be 85cf 383d
00000150: 9341 313e c79e 68bd 9af9 883d f68d 9ebe
00000160: 1691 673d 14d9 bb3d d358 95ba 9bb8 68bd
00000170: 3522 3bbc 1350 043e 0f52 d03d 2475 a13e
00000180: 8dd0 683d 1762 0d3d e75e 003e c683 d83c
00000190: 6959 e53d 3870 d8bc adab 793e e406 b93d
000001a0: 79eb 913e 64ea bf3c 7759 d6bd 71a4 ac3d
000001b0: e7eb 70bd 05b8 3bbe 7f2c 843e 21cf 383d
000001c0: e9c6 ba3e ae1b 4d3c c795 c63e 13da d43d
000001d0: c0df 3cbe 02e1 933d f257 8bbe c751 f0bc
000001e0: 08b0 ac3e aada 3c3e 013c ce3e ae8e 2d3e
000001f0: e771 dd3d ae66 95bd 454d febc 0376 1c3e
00000200: 364b 6e3e 3cee f33c 1340 2abc d960 313e
00000210: bd1e a7bd c4d3 44bd be5a a43d 4610 183e
00000220: e2ba b83d 88ae 833d 298e 053d 568a ae3b
00000230: 3c03 313d 0fe0 303e 0642 d63d abf0 94bd
00000240: 1cd2 36bd f3cd 5c3d 0faf 763c 9394 763d
00000250: 81d4 493e e9ee 673e 6dd4 2f3e aefc d9be
00000260: d334 25bf c70a 583e 250f ce3e 18f4 493d
00000270: 6555 353d 49d8 88be d0da 1d3e 8268 593e
00000280: faf1 32bd 50ae 69be d81c eebe 2a29 99be
00000290: 360d e8bd e6af 5b3e d270 393e 9e00 febd
000002a0: bb99 153e 2aa8 203e 7791 703d 011b adbd
000002b0: a369 61bd ac5e 003d f335 2f3e 42cf b1bc
000002c0: d713 37be 8bd6 803d aa49 6c3e 242a 303e
000002d0: 9b4d ff3d cd5f 5b3e 4782 6e3e 6fe6 433e
000002e0: 6bcf 823e 482b 18be 9f9d 45be 2683 2ebd
000002f0: b20b 76be 9c35 f7bc c255 14be 11af 08bd
00000300: 47d8 00be 86ed 82be 58ed 1abd fe93 cb3d
00000310: 161c 87be 7ff5 323d 79a4 28bd 3529 203e
