archs/basicSR_models/onnx/pmrid_d.onnx (onnx, 687203 bytes, 141 tensors)

conv0.conv.weight f4 [8, 3, 3, 3]
00000000: 366a b83d d7d8 073e c2f3 11be 0c35 4a3e
00000010: 3a81 10bf f26b 8fbd 94b1 17bc ea30 ea3d
00000020: cdb3 e63d f466 1d3e c3e9 ab3d 077f b9bc
00000030: 4dab c03d 0b89 fc3e ec3f 2cbe 0258 493e
00000040: 5c3e 803e 39f1 3ebb 3031 87bd 4042 8abd
00000050: facd 6bbc 2620 82bd 81f8 92be 8707 c7bd
00000060: 71dd 87bd ed00 e23c 7195 9cbc 9753 eabd
00000070: bd3c 3cbd 55d4 45bd 560a de3c 002d 6abe
00000080: 8881 313d 4dae e73c 9608 bb3d 7443 e03d
00000090: adf0 e43d 9572 893d 39cb b83d 4720 a43d
000000a0: 4597 563f d65a 983e 2d35 08bd f87e 73be
000000b0: 8832 953d 8835 543d cfe0 513e 5d4c 56bd
000000c0: 29b5 31bd cf22 41be a392 42be 90c7 40bd
000000d0: 7ddd b7bd eabd d2bc df53 05bd 4953 e53d
000000e0: af62 f2b9 f86e 8a3d c09a 2e3f 72fa e63c
000000f0: 18b6 0b3a 1022 153e 29b2 693c d8e0 1e3e
00000100: 72d6 ea3c 8341 f33d 031b 223e 2c84 51be
00000110: 31ff 37bd e5c5 11bb a4c9 723e 3e36 a23d
00000120: ba09 ff3b 34a4 603d 61ba 3dbd 7160 3c3d
00000130: ab93 71bf c933 19bc c6bc 48bd d10a 2dbe
00000140: 6887 353d 685e e93c bb18 7d3e 3bd2 4f3d
00000150: ed85 a43d 3d4f b13e 74dc 27bc bf5a 073d
00000160: 5d35 febd fab3 d3bc f287 123e fb65 513d
00000170: 71e3 3c3e e427 033e 913b 5abe dd6c 903d
00000180: 9096 1ebe fc1f 79bd 1e15 05be 68bb 00bd
00000190: 2a66 b33b 85dd d3bd 8d70 98bc 364d 063f
000001a0: df99 c83c 848f 203d 7d47 d93d 4216 3f3d
000001b0: 18e8 7dbd cdf5 18be 1e1d e8bd de41 f23d
000001c0: e382 e83e 6e5f 29be 6d4d 113e 04ab 49bc
000001d0: 12cd 383d 6c8b aabc 11f6 02be f826 75be
000001e0: 2e8d 8f3e 2e16 c13d ef1e cdbd bab7 24bd
000001f0: 86ad 373e 6345 e9bd 350b 2e3d ded0 e63d
00000200: ee33 8b3d baa6 553c 19cf 8c3e 4261 76bc
00000210: f3a7 c0bc 27ed 513d b38a 77bd 252e 0dbd
00000220: 5120 1b3d 3c2c bc3b 4572 4fbe d3b4 babc
00000230: 7f21 1dbe 6122 8f3d 3988 543e d2e0 c5bc
00000240: e8c0 b3bd abf7 eb3e 6408 353e da06 f9bc
00000250: 929f 3abd db3d b63d 3f0c d8bd 94a9 5b3e
00000260: 61df 293d f884 423d 1855 68bd 8f42 6dbb
00000270: d500 85bd a830 903e 25f7 2c3e 9f0d 823d
00000280: 75f4 5fbc 2091 ca3d 165d 193c 86fb 553d
00000290: 96d4 f23c bfd7 96bb edba d8be c831 623d
000002a0: 80be b33c adc9 793e 31fd 4e3d 3d9a 413e
000002b0: cbf7 62bd 3c45 cebd 555e d03e 7a37 3abf
000002c0: 8465 343e 30b0 42be 4bc3 2a3e 6139 b5b9
000002d0: 5767 8c3d 5cd5 e23c aef0 9b3d 52b4 703d
000002e0: 16b8 ac3e 1667 c7bc 9cfe 033e aaca a73e
000002f0: 0a37 f43d dfc6 733e bab1 cd3d db53 dc3d
00000300: f64a d7bd 315f 21bd 751c 963e 6ddf 623d
00000310: 535a 513d ed20 443e eb9e 7dbe 542e c5be
00000320: 8ed7 59be 5bd5 233b 6e7b 84be a87a 853e
00000330: 1333 fe3d c33c 053e bdfb 343e 0c99 f93c
00000340: db5f 4ebb 2aef ec3d 98e9 613d 74c7 f53c
00000350: 58bf cabd de5f 593d b7b6 28bb 9d29 8c3d
0.09004633 0.13266312 -0.14253142 0.19746798 -0.56447184 -0.07003011 -0.0092586465 0.11435111
0.11264763 0.15371305 0.08394196 -0.02264358 0.09407673 0.49323305 -0.1682126 0.19662479
0.25047576 -0.002913548 -0.06601179 -0.067509174 -0.01439237 -0.06353788 -0.28705218 -0.097182326
-0.066340335 0.027588332 -0.019114228 -0.11441725 -0.045956362 -0.0482982 0.027104538 -0.22868729
0.04333642 0.028281355 0.09132497 0.10950366 0.11178718 0.06711308 0.09023137 0.08013969
0.8382457 0.29756802 -0.033253837 -0.23778903 0.07285029 0.051808864 0.20495914 -0.05231892
-0.04338566 -0.18860935 -0.1900125 -0.047065318 -0.089777924 -0.025725324 -0.03255069 0.11197526
-0.00046231362 0.06759447 0.6820488 0.028195594 0.0005329563 0.14563775 0.014263668 0.15515459
0.028666709 0.1187773 0.15830617 -0.20460576 -0.044921104 -0.0022243198 0.23709732 0.07920502
0.007783142 0.054844096 -0.046320323 0.04599041 -0.9436595 -0.009350725 -0.049008153 -0.16898657
0.044318587 0.0284874 0.24716465 0.0507376 0.08033357 0.34630767 -0.010245431 0.033045527
-0.12412522 -0.025842655 0.14309672 0.051122647 0.18446137 0.12808186 -0.21311785 0.07052014
-0.15487123 -0.06082152 -0.12996337 -0.031428725 0.0054748254 -0.10344986 -0.018608356 0.52461565
0.024487434 0.039199367 0.106093384 0.046652086 -0.06198892 -0.14937516 -0.11333679 0.118289694
0.4541236 -0.1654031 0.14189692 -0.01230884 0.045117445 -0.020818435 -0.1278918 -0.23940647
0.280374 0.094280586 -0.10015666 -0.040214278 0.17937288 -0.113901876 0.042491157 0.11270307
0.06797014 0.013040239 0.27501753 -0.0150378365 -0.023517584 0.051251557 -0.06043501 -0.034467835
0.037872616 0.005742578 -0.20258434 -0.022791302 -0.15344809 0.06988979 0.2075509 -0.024155054
-0.08777028 0.46087393 0.17678982 -0.030398775 -0.045562334 0.08898517 -0.10549211 0.21451408
0.041472796 0.04749009 -0.056721777 -0.0036203002 -0.06494299 0.28162122 0.16891153 0.06350254
-0.013669123 0.09890962 0.009360572 0.052241825 0.029642384 -0.0046033557 -0.42330113 0.055223256
0.021941423 0.2439334 0.05053443 0.18906493 -0.055412095 -0.10071799 0.4069697 -0.727409
0.1761685 -0.19012523 0.16676061 -0.0003456576 0.06855648 0.027689628 0.076142654 0.058765717
0.33734196 -0.024341147 0.12890095 0.32771808 0.1192456 0.23806332 0.10043664 0.10758182
-0.105123445 -0.039397422 0.29318586 0.055388857 0.05111153 0.19153185 -0.24767654 -0.38511908
-0.21273634 0.0024998996 -0.2587542 0.26070142 0.124120854 0.1301146 0.17674156 0.030468486
-0.003149024 0.115690544 0.055154413 0.030002333 -0.09899777 0.05306994 -0.0025743672 0.068438746

conv0.conv.bias f4 [8]
00000000: 3872 b63e 0931 523e d718 8a3e 4b20 3a3d
00000010: faad 6c3e ae15 713d d95e 253e 8253 f53d
0.35634017 0.20526518 0.26972076 0.045440953 0.23113242 0.058858566 0.16149463 0.119788185

enc1.0.conv1.depthwise.weight f4 [8, 1, 5, 5]
00000000: 55af 10bd 208e 283e 94f7 a93e 6a7e 033e
00000010: 04d8 e13c 9795 d03d e0eb 2a3e aa5f 293e
00000020: fea8 583e c2ba 8f3d 4ef4 463e 02ae de3e
00000030: d2fc f93e f194 343e ccd5 323c 8f61 363c
00000040: 3d4b 08be c734 d93d e9f2 063e 1858 08bd
00000050: 6c32 d8bd 41f9 afbc 2a24 303d 953d 9abd
00000060: a23f dbbc e9bb 893d dfcc d8bd 7578 dc3c
00000070: d8a0 9e3b 7360 f7bd 79a6 87be 74ac fa3d
00000080: 96bd 4a3e dfb1 8c3e f63b 103e 3352 54bd
00000090: 0035 343e 0691 383d c40d a03e 6d2b b0bd
000000a0: b33d 27be 4bfa 383e bd8d eebd dc1c 333c
000000b0: e75c 64be 45db f6bc 7ffb f63d e7d3 2dbd
000000c0: 13fd 0dbe 2bfb 41bd 1a33 d13d f575 523d
000000d0: 8d14 243e 4d54 153c cdaa 61bd a7ce 6c3e
000000e0: 944e 863e 3864 303e fe85 1ebd 52fa 2bbe
000000f0: d241 433e f00e 4f3e 5917 1abe 6770 8bbe
00000100: d49a 4c3d 99bb 573e ff9d 6cbd 57f8 dcbe
00000110: 1088 bebe 3ea9 80bd cd4b 4a3d d079 36bd
00000120: 5b89 9dbd d158 b3bd 382e 4f3d 802e 1d3e
00000130: 77cc 813d b665 d53d 1cab 6a3d 7e0d 083d
00000140: 0708 523e 0e09 503e 8cef 84bd ee3b 743e
00000150: 1ffe 5abd 9061 893e 6473 303c 2084 aebe
00000160: 0664 78be 77ac 4c3d a49a b03e d874 6c3d
00000170: 359d f2be e94e cabe 52dd 03be deb6 dbbc
00000180: 9a64 463c ed3f 14be 102b cebd aac4 063e
00000190: b8f3 4fbd 237d 443d d967 ee3c 071c 6bbe
000001a0: eb1e 20be a7c7 973c 5da8 d23b b073 773e
000001b0: b948 dfbd 8bc8 26be 468b 443c 419a e13e
000001c0: aaff 743e 4f31 11be d994 91be 6fd5 ab3d
000001d0: 970a a43e 5ccf 703e 7f55 adbe 7cf7 9fbd
000001e0: 5732 de3d a8fe 37bd 8177 d6bc 8778 753d
000001f0: ddc9 a0bc bcef 123c 64fc d4bc 252c f4bd
00000200: c1cc b2bc 7100 403e a215 3fbe 23a7 27be
00000210: 5975 c83d bc23 81bd c714 c8bc 05bc 30be
00000220: 38c3 693e bc6f 9a3e c2fd 6dbe 6290 cdbe
00000230: c034 223e 2248 973d 736b d53e d1e4 e33c
00000240: 55fc 63bd cf83 9bbc dde5 cabd ced1 813d
00000250: 77a9 7c3e 4e50 fd3c 5bd0 013d 65a6 2fbe
00000260: 9983 593e 6b54 663c 1cca fc3d 852b 79be
00000270: 0abe dbbe da2e 69be fe53 ebbd 3449 d23c
00000280: e7ee 0f3e d330 34be 7d40 c1be 720a 403d
00000290: 4cf5 013e 8763 e0bc c1c9 47be 8f18 a8be
000002a0: cfa3 533e 47c6 013e fcc7 073e 71b4 abbc
000002b0: 2f02 adbd 6f29 4abd fcfd bfbd 34e8 293e
000002c0: 4028 983d a638 ab3d d52f 193e 2986 173e
000002d0: cac2 1a3e adb4 f53d ef45 063e 07cd 733e
000002e0: 5875 283d 829a 14bd 74ec d63d bc10 e13d
000002f0: 769d 093e 3799 0e3c 0586 76bd 0779 c2bb
00000300: cb48 453e b67a 0b3d 350a 403d dcc7 1dbe
00000310: 75fc a8bd 2758 b73d 1961 6dbc a8ae 16be
-0.03532346 0.16460466 0.331967 0.12841192 0.027568825 0.10184782 0.16691542 0.16540399
0.21158215 0.07018043 0.19429132 0.43492132 0.488257 0.17634942 0.010915231 0.011131658
-0.13309951 0.106057696 0.131786 -0.033287138 -0.10556492 -0.021481158 0.04300324 -0.07531277
-0.02676374 0.06725294 -0.10585951 0.026912907 0.0048409514 -0.12078943 -0.26494196 0.12239924
0.19798884 0.27479455 0.14085373 -0.051836204 0.17598343 0.04506018 0.31260502 -0.08602033
-0.1633213 0.18064229 -0.11648128 0.010932174 -0.22301064 -0.030133853 0.12059688 -0.042438414
-0.13866071 -0.047358673 0.10214825 0.051382024 0.16023465 0.009114337 -0.05509453 0.23125707
0.26231825 0.1722573 -0.038702004 -0.16794708 0.19068077 0.20220542 -0.15047969 -0.27234194
0.049952343 0.21067657 -0.057767864 -0.43158218 -0.37213182 -0.062822804 0.049388696 -0.044549763
-0.07692214 -0.08757175 0.050581187 0.1534977 0.06337827 0.104197904 0.05729209 0.033215992
0.20510875 0.20315954 -0.064910024 0.23850986 -0.053465005 0.26832247 0.010769699 -0.34085178
-0.24256906 0.049969163 0.3449298 0.05772862 -0.47385564 -0.3951333 -0.12877396 -0.026820596
0.012108946 -0.14477511 -0.10066807 0.13160959 -0.050769538 0.047970902 0.029102253 -0.2295991
-0.15636794 0.018527819 0.006428762 0.24165225 -0.109025426 -0.16287439 0.011996096 0.44063
0.23925653 -0.14178966 -0.28433874 0.083903186 0.3203933 0.23516601 -0.3385429 -0.07810876
0.10849445 -0.044920594 -0.02618003 0.059929397 -0.019627506 0.00896829 -0.025999255 -0.119224824
-0.02182615 0.18750168 -0.18660596 -0.16372351 0.09788007 -0.06305644 -0.02442397 -0.17259224
0.22828376 0.30163372 -0.23241332 -0.40149218 0.15840435 0.07386805 0.4168354 0.02781907
-0.055660564 -0.01898375 -0.09907124 0.06338845 0.2467402 0.030922081 0.031692844 -0.17153318
0.21241607 0.014058213 0.12343237 -0.24333008 -0.42918426 -0.22771779 -0.114906296 0.025669672
0.14055978 -0.1759675 -0.37744513 0.04688496 0.1269123 -0.027391208 -0.19510557 -0.32831237
0.20667957 0.12673293 0.13259882 -0.020960065 -0.08447682 -0.04935592 -0.093746156 0.16592485
0.07429552 0.08360414 0.14959653 0.14797272 0.15113369 0.11997352 0.13112615 0.2380868
0.041127533 -0.036280163 0.104943186 0.1098952 0.13438973 0.008703521 -0.060186405 -0.0059348377
0.1926605 0.034052573 0.046884734 -0.15408272 -0.08251277 0.089523606 -0.014488482 -0.14715064

enc1.0.conv1.pointwise.weight f4 [8, 8, 1, 1]
00000000: 87a9 a0be 3678 b8be febf ddbe 45b6 2bbf
00000010: ea91 273e a051 d23e 0599 0f3f 80f5 02bf
00000020: e6f5 0ebc 9feb 25be 32e6 993f 7045 42bf
00000030: d705 b8be 391c 063f 1f4c a43d 639d fabb
00000040: 081d 8c3e 81e6 83bd 19fc e6bb 0729 22be
00000050: 725c 2fbe a264 d93e 1727 0b3d c171 a93e
00000060: 7bd3 38be 9d8a 64be 6862 c2be 220f 91be
00000070: 4b30 bbbc 5529 55bd fdaa 23be cfb8 2abe
00000080: 0517 5bbe 3600 863c 3b9c ccbd ee4b a73e
00000090: a03d ab3d d5b8 9f3c bc4c 9bbd 6c77 d53e
000000a0: 47f7 3ebe ba5f 503e df74 de3d bbaf 63be
000000b0: a008 05bf ba85 413e 4b24 c7bd a275 313e
000000c0: d0b7 b63e 3903 6cbe a16d 4b3e 1e24 033f
000000d0: 6bb1 113f 1804 bd3e 9ead 683d 5d6b 8abe
000000e0: 76c0 123f a292 a13e 2b04 0dbe 0cb6 c4be
000000f0: 0626 fbbe 67b3 e53d 7766 2b3e 37c3 a83d
-0.3137934 -0.36029214 -0.4331054 -0.67074996 0.16364256 0.410779 0.56092864 -0.51155853
-0.008725619 -0.16203164 1.2023375 -0.75887203 -0.35941955 0.52386814 0.080223314 -0.0076481565
0.273659 -0.064404495 -0.0070490954 -0.15835963 -0.17125109 0.4245959 0.033972826 0.330946
-0.18049423 -0.22318502 -0.37965703 -0.28331858 -0.022850176 -0.05204137 -0.15983196 -0.16672061
-0.213955 0.016357522 -0.09990736 0.32675117 0.083613634 0.019497314 -0.07582995 0.41692674
-0.18649016 0.20349017 0.10862135 -0.22235005 -0.51966286 0.18898669 -0.09723719 0.1733003
0.35687113 -0.23048104 0.19866039 0.51226985 0.56911343 0.36917186 0.0568062 -0.27035037
0.5732492 0.31557184 -0.13771121 -0.3842014 -0.49052447 0.11215859 0.16738306 0.08240359

enc1.0.conv1.pointwise.bias f4 [8]
00000000: e94d 483e 2ccf 0abb 1cf5 b0be daf7 5dbd
00000010: 88d1 603e 863c 2fbe 2058 c63d cd2e 32be
0.1956097 -0.0021180613 -0.34562004 -0.054191448 0.2195493 -0.17112932 0.09684777 -0.17400666

enc1.0.conv2.depthwise.weight f4 [8, 1, 5, 5]
00000000: cfc6 d0b9 0466 a5bc b96b a53b 3feb bf3c
00000010: 3b78 6cbd 5a2e 993c df10 91be 281d da3e
00000020: aebe b3be 63a5 d63d f887 28be d6e7 d23e
00000030: 1401 7f3f 145b 8c3e 904b f4be fa3b ab3d
00000040: 4a0f afbd e4eb b2be a593 ccbe cc76 973e
00000050: 3234 14bd de56 0bbe a99a 9ebd e0a5 5c3e
00000060: 14bf dfbd 9c65 55bd 7dda a5bd 13ca aebd
00000070: ae2d e5bd 04ec 5bbd 35a4 c0bd 5329 29be
00000080: da46 47be 6a85 69be 38d1 f0bd 797e 96bd
00000090: 6cc5 4abe 9768 60be e470 80be 46de eebd
000000a0: 2272 91bd 7676 3dbe c40d 81be e577 8ebe
000000b0: 203d 13be 46a3 63bd 7908 08be 1898 47be
000000c0: a74a 17be f59d a4bd 7647 5ebd 96d1 22be
000000d0: 9781 82bd a4ec 96bd adc8 7abc 71fa 35be
000000e0: 65f8 0fbe 7106 ddbc b591 24be 8eb0 94bd
000000f0: 314f c3bd 9f32 95bd aa67 29be e93d 6fbd
00000100: 825b 58be ee31 f5bd 4ab1 fc3c 9ddc 54be
00000110: e193 6a3c 5fa8 41be ac19 be3d e49b 58bd
00000120: f34a a5bd bace 8ebd 4c10 7ebd 5314 a43a
00000130: d938 573e 3716 8c3d 8c82 48bd 8216 13be
00000140: 54e3 823e 8bd4 2b3d ef32 27be 4dcb b93e
00000150: 9cdd c9bd 822a 553e 222f 463e bd78 5b3e
00000160: f5ae 9e3e 4ab2 c33e 7305 0d3d f1f8 213e
00000170: 5cec 39be 4ac1 37be e404 54bc ee9d f7bd
00000180: c0bf 893e 6ccb b4be 3ce7 1d3e 9052 893e
00000190: 33a4 a83d b510 f23d dc85 8bba 1032 6d3e
000001a0: 3713 c63c 0554 203e 7713 d23d 91cf f33e
000001b0: 46db 763e 34a0 6e3d f2a4 5d3e 75b2 5b3e
000001c0: 9af4 fa3e f9f8 493e c403 4d3e 072b e43c
000001d0: dae0 82bd 427f 82be 87ef 74be 27a1 6e3d
000001e0: a6d0 8cbd 5ab4 1fbd c918 84be 3330 c73d
000001f0: e6f6 613d 26a8 8b3d 5361 ac3d 7a44 6e3e
00000200: 5978 6ebe 066f 8b3d 9806 87bc 69e7 51be
00000210: 35e1 483e 6db7 2fbe c72d dcbb 2ed8 f4bd
00000220: ca29 53be c91d 41be ed3a f13e 1729 9f3d
00000230: cd4f d6bc adac edbd 7a7f 52be a5ef 0a3d
00000240: 29ed 91bd 80bc a93d 59b4 05bd c994 fdbd
00000250: f186 003c b8bb e0bc d286 ce3d 4f55 173e
00000260: b865 9d3d bdae acbd b7cc 563b 1325 35bd
00000270: f5d4 c53d 390b dd3e 4256 a03d 42b2 99bd
00000280: bff3 05bd 6ea9 b2be 128a f3be 2da2 2d3f
00000290: b9bd 653a a3b0 58bd 998c 71be 8201 1fbf
000002a0: f893 683e cb99 b43d fcc1 943c 1b2f 263d
000002b0: 7021 853d ce85 123d 1afa 203c dbd7 25bd
000002c0: 1950 6fbd e9e6 4f3c 55a3 20be a36b 813c
000002d0: 4a53 c8bc aac2 3ebd 15b5 a6be 629a 1abd
000002e0: c7e2 8abe 283b 04bd 4e5f f93d a1df 3f3f
000002f0: c7bf 3d3e f4a8 bcbe 70c7 953c c46d 823e
00000300: 1c88 493f 2a5f 64ba db2b c6be 74ce 81bb
00000310: f988 d1bd 5889 06be 47fb a2be 408f 463d
-0.00039820976 -0.020190246 0.005048242 0.023427604 -0.05773185 0.01869886 -0.28333184 0.4260037
-0.35106415 0.10480764 -0.16458118 0.41192502 0.9961102 0.27413237 -0.477139 0.08361049
-0.08547838 -0.34945595 -0.39956394 0.29582822 -0.03618259 -0.13607356 -0.07744343 0.21547651
-0.10925117 -0.052098855 -0.08098314 -0.08534636 -0.11190353 -0.05369188 -0.0940632 -0.1651967
-0.19460621 -0.228048 -0.11758655 -0.073483415 -0.19801873 -0.21914898 -0.2508613 -0.11663489
-0.07101847 -0.1850222 -0.25205815 -0.27825847 -0.14378786 -0.05557563 -0.13284482 -0.19491613
-0.14774571 -0.080379404 -0.05426737 -0.15900263 -0.063723736 -0.07369354 -0.015306634 -0.17771317
-0.14059599 -0.02698061 -0.16071208 -0.07260238 -0.09536589 -0.07285046 -0.16543451 -0.05840865
-0.21128657 -0.11972414 0.030846257 -0.20787282 0.014317484 -0.18911885 0.0928224 -0.052883044
-0.08070936 -0.06973024 -0.06202726 0.0012518264 0.2101778 0.06840175 -0.048952624 -0.14364055
0.25564063 0.041950744 -0.16328023 0.3628792 -0.09856722 0.20816997 0.19353917 0.21432777
0.30992857 0.3822196 0.034429025 0.1581762 -0.1815657 -0.17944828 -0.012940619 -0.120906696
0.26904106 -0.3531145 0.1542024 0.26820803 0.082344435 0.11819593 -0.0010644752 0.23163629
0.024179084 0.15657051 0.10257619 0.47619298 0.24107084 0.05825825 0.21644953 0.21454795
0.4901474 0.19723882 0.20020968 0.027852548 -0.06390543 -0.25487715 -0.23919497 0.058259156
-0.06875734 -0.038990356 -0.2580016 0.0972599 0.0551671 0.06819181 0.084170006 0.23268309
-0.23288096 0.068082854 -0.016482636 -0.20498432 0.1961716 -0.17159815 -0.0067193243 -0.119552955
-0.2062141 -0.18859018 0.4711527 0.07771509 -0.026161099 -0.11605201 -0.20556441 0.03391995
-0.07125313 0.08287907 -0.032642696 -0.12381894 0.007844673 -0.027433261 0.10084309 0.14778636
0.07685417 -0.08431766 0.0032775828 -0.04422481 0.09659759 0.43172625 0.07828952 -0.07504703
-0.032703158 -0.3489489 -0.47566277 0.67825586 0.00087639276 -0.05290283 -0.2358879 -0.62111676
0.22712696 0.08818396 0.018158905 0.040572267 0.06500518 0.035772137 0.009825254 -0.04048906
-0.058425996 0.012689331 -0.15687306 0.015798395 -0.024453778 -0.046572365 -0.3256003 -0.037744887
-0.27126142 -0.03228298 0.12176381 0.74950606 0.18530189 -0.3684765 0.018283576 0.2547437
0.7872331 -0.00087116903 -0.38705334 -0.0039613787 -0.102312036 -0.1313833 -0.31832334 0.048476458

enc1.0.conv2.pointwise.weight f4 [32, 8, 1, 1]
00000000: 2bc8 a53e d68a 2c3f 9425 0cbc 79f1 a73e
00000010: 1c4e 4e3e 478d 54be d63a bcbd a8df 023e
00000020: 1742 3c3f badf 12be f960 3b3d 127c 8ebe
00000030: 7d3e 9f3e 77ca c03d 765a 73be e201 01be
00000040: ce3e 4f3e 0442 7c3e 5faf a0bd 2da6 d2be
00000050: 762c 88be 2dec 04bf 5bf4 54bd 279d 943d
00000060: a985 2b3f 4b2b abbe 1a10 fa3e f774 36be
00000070: 8dc2 adbe 6d92 093e 59c1 4d3f 729f 8fbf
00000080: ff0f 71bd 6cec 6bbe 6508 f2be a41f f43e
00000090: c0c6 103d 9064 18be 41a6 ccbd 3a10 4bbe
000000a0: 770b 3cba c4da 67bf b256 3fbe d7f6 be3e
000000b0: 1422 773e adb3 323e f69e a7be 1927 0e3e
000000c0: e75f 993e d52b 5cbd f26b bfbd 7071 ac3e
000000d0: 6275 1c3e 5e21 0d3e 0434 a0bc 0b4e d0bd
000000e0: fca9 7c3f d789 8b3b 3aa5 123e 737b 0e3e
000000f0: a93a 293e 68aa 233d f10f 843e f28d d4be
00000100: 8903 70be 7400 a83e e65a d03d 8a3b f2bd
00000110: 036f 40be 09bc a3be 6fa4 8d3b aab8 6e3e
00000120: 7114 c3be 5f34 303f 4724 0c3e 2aa8 e5be
00000130: d4d9 b93b 3409 2d3d 4667 523f 47b3 ec3e
00000140: 98ed 553f 5602 0ebf 7f74 d1be cb4d 053e
00000150: 8a31 7bbe 15cc 48bd 9d77 14be 37fd ff3d
00000160: f457 07bd 79c2 43be dd27 89be 87cf 02bb
00000170: 636d 213e bd1f 3bbe eabc d93c 4a81 c6bd
00000180: e866 453f 2b18 77bd ddd7 553e df6b 6cbd
00000190: 9eba af3e 42b0 8bbd 5a25 41be f4af df3d
000001a0: 0ac2 3fbe 55e0 bebd c1ae 80bc f6fc 8bbe
000001b0: 34d7 5c3e 107a b4bd cf68 7d3e acd2 5e3c
000001c0: 0539 82bd 63db cebc 4c7d cd3d 1996 a33d
000001d0: 3762 debd 60d7 75bd 57a6 3e3e 3be8 45be
000001e0: 243c 1d3f e5c1 10bd 89c8 683e 4bcd 3dbe
000001f0: a96b 3c3e 2ad9 633d 5565 95be da0c 123d
00000200: 18de 4ac0 e6a1 46be 7a03 4d3d 6f1a eb3e
00000210: 88ab 953e 72ed 89be eef2 5ebe 7f87 2fbe
00000220: dc0a 483e 5988 fcbe 8246 293d c77e a83e
00000230: 5d8b 893d 158b 1e3f bf4c 97be 4583 0cbf
00000240: dfd4 0f3e 48f9 36be 3cc3 1dbe 8313 f63d
00000250: 3ab4 913d 3356 06be eaad 59bd 23bf a63d
00000260: fc3a 65bc 8d21 12be 6f4a 33be e420 013e
00000270: 7e1e c73d b99c b03e 3885 b8bd f857 b8bc
00000280: 69c3 9bbd 32f0 77be 799a aa3c 0f72 023f
00000290: d8ed 0c3f 6c7c d33c d995 1dbf 8b9f 0a3f
000002a0: 4292 9c3e 840a 7ebd acd2 06be 9a0c b53e
000002b0: 6534 21be 6e38 20be d148 d7bd 5acf 173e
000002c0: 083e dd3d 9732 f3bd a09e 8bbd 2036 babd
000002d0: bc71 513d 085a 923e 9739 be3c 9176 d53d
000002e0: a5fd 06bd 3a10 a53e dc75 edbd cdf5 08be
000002f0: cf2d 06be 3769 83be e01a 35be ab43 4fbe
00000300: 815f 8f3e 8b1e b3bd c259 7fbe ea4c b9be
00000310: cfbc 3dbf 3888 84be b5ed e13e eb6f b83d
00000320: 399c f7be 932d 94be 70f6 b9be e357 023e
00000330: 4996 b43e 80b3 dd3e fc6d 81bf 801b d2be
00000340: f891 9bbe ec22 e4bb dd75 193e 67ea e3bd
00000350: 0b03 32bd 0716 613f 49e6 62be 2d7f 3dbd
00000360: 6f8f d8bd 919e 9d3e 5a3e 823e f84f a63d
00000370: ae60 fcbd f0be 86be 683a dfbe 4f81 4c3e
00000380: a033 693f bd93 d4be 934f b13e 5732 b43e
00000390: 3926 63be 49db a7be dfbf 453e 4c5e 5fbc
000003a0: 5330 443f bfc1 5d3c 9103 b6bb d094 d1bd
000003b0: 8bab 08be 9cfc 6fbe 5fe5 9b3d 7bec 383d
000003c0: 9d23 0cbe 6020 dfbd 96af adbd 54e0 893e
000003d0: 027d 073f d7f8 b5bd ae51 e6be afbd 3b3e
000003e0: 5de5 403e 2b97 97be 849a 173d 63c7 72be
000003f0: d90c 17bf fc6b 5ebd e924 33be 5da0 f13d
0.3237928 0.67399347 -0.008553881 0.32801417 0.20146984 -0.20757018 -0.091909096 0.1278063
0.73538345 -0.14343157 0.045746777 -0.27829033 0.31102362 0.09413617 -0.23764977 -0.12598374
0.20238802 0.24634558 -0.078459494 -0.41142407 -0.2659642 -0.51922876 -0.051990848 0.07256537
0.67000824 -0.33431467 0.4884041 -0.17818056 -0.33937493 0.13434763 0.8037315 -1.1220534
-0.058853146 -0.23039407 -0.4727203 0.4768039 0.035345793 -0.14882112 -0.09992648 -0.19830409
-0.0007173339 -0.90568185 -0.18685415 0.372977 0.24134094 0.17451353 -0.32738465 0.13882102
0.2995598 -0.05375274 -0.09346761 0.33680296 0.15279153 0.1378226 -0.019556053 -0.101711355
0.98696876 0.004258375 0.14320841 0.1391428 0.16526283 0.039957434 0.25793412 -0.41514546
-0.23438849 0.32812846 0.101735875 -0.118277624 -0.18792348 -0.31979397 0.0043225805 0.23312631
-0.38101533 0.6882991 0.13685714 -0.44854861 0.005671719 0.042245105 0.8218883 0.46230528
0.83565664 -0.55472314 -0.40909192 0.13017957 -0.24530616 -0.049022753 -0.14498754 0.12499469
-0.033042863 -0.19117154 -0.26788226 -0.0019960122 0.15764384 -0.18273826 0.026579339 -0.09692629
0.7711015 -0.060325783 0.20883127 -0.05772006 0.34322065 -0.06820728 -0.18861905 0.10922232
-0.18726364 -0.09320132 -0.01570833 -0.2734143 0.21566468 -0.08812344 0.24747013 0.013600033
-0.06358532 -0.025251096 0.10033664 0.07987613 -0.10858577 -0.06001985 0.18618141 -0.1932687
0.6141989 -0.035341162 0.22732748 -0.18535344 0.18400444 0.055627026 -0.29178873 0.035656787
-3.1698055 -0.19397697 0.050052144 0.45918605 0.2923243 -0.2693897 -0.21772358 -0.17141531
0.19535393 -0.49322775 0.041327007 0.32909223 0.067160346 0.6193097 -0.2955074 -0.548878
0.14046048 -0.17868531 -0.15406507 0.1201544 0.071144536 -0.1311882 -0.053144373 0.08141925
-0.013991114 -0.14270611 -0.17508863 0.12610203 0.09722613 0.3449457 -0.090097845 -0.022502884
-0.07605631 -0.24212721 0.020825611 0.5095529 0.5505042 0.025816165 -0.61556774 0.54149693
0.30580336 -0.062021747 -0.13166302 0.35361177 -0.15742643 -0.15646526 -0.105119355 0.14825192
0.10802847 -0.118748836 -0.06817365 -0.09092355 0.051133856 0.28584313 0.02322082 0.10423005
-0.032956738 0.32238942 -0.115947455 -0.13375016 -0.13103412 -0.2566621 -0.17686033 -0.20240657
0.2800255 -0.0874606 -0.24936584 -0.36191493 -0.74116224 -0.25885177 0.4412667 0.09005722
-0.48361376 -0.2894102 -0.3632083 0.12728839 0.35270908 0.4330101 -1.011169 -0.41036606
-0.30384803 -0.006962171 0.14986368 -0.11128693 -0.043459933 0.87924236 -0.2215816 -0.046263862
-0.10574233 0.3078504 0.25438195 0.081207216 -0.12323128 -0.2631755 -0.43599248 0.19971202
0.910944 -0.41518965 0.34631023 0.35194656 -0.2218255 -0.3278449 0.19311474 -0.013633322
0.76636237 0.013534962 -0.0055546244 -0.10233462 -0.13346688 -0.23436207 0.076121084 0.0451474
-0.1368546 -0.10894847 -0.08480756 0.2692896 0.5292512 -0.08885353 -0.44984192 0.18334077
0.18837495 -0.2960752 0.037012592 -0.23708872 -0.5900398 -0.0543022 -0.17494549 0.11798165

enc1.0.conv2.pointwise.bias f4 [32]
00000000: 316a 143d 4753 fd3c 4c90 24bd 59d3 f9bd
00000010: 0306 a03e 7d98 b83d 326a 4cbd 08e6 85bc
00000020: c9dc 953b 4747 37bd 0d4e 793e 7fcb 193e
00000030: eaf2 5a3d b0b8 a83e c99d b93d 2302 2a3d
00000040: a208 843e cf50 9f3d 8d76 863e bead d73d
00000050: d98f 9fbe 73dd 783e b818 f8bd 62ef c8bd
00000060: 8fbe f03d 7662 193f 4a0b ae3e 8e31 86be
00000070: e037 0c3e 5c6d e1bd 6bfb ab3e 5156 633e
0.036234085 0.030923499 -0.040176675 -0.121985145 0.31254587 0.0901346 -0.049905963 -0.016345039
0.004573439 -0.04474571 0.2434618 0.15019034 0.053454317 0.32953405 0.09063298 0.041505944
0.25787836 0.07779085 0.26262322 0.105311856 -0.31164435 0.24303226 -0.1211409 -0.09811284
0.11755096 0.59915864 0.33992988 -0.26209682 0.1369319 -0.11007187 0.33590254 0.22200896

enc1.0.proj.depthwise.weight f4 [8, 1, 3, 3]
00000000: f5a6 02be 0caa 99be db28 cfbd a754 a2bd
00000010: b6f7 70be a318 93be 3edf d1be 91a8 d4be
00000020: e1f2 66be f512 a33c 69a5 153e c817 333e
00000030: 007c 9d3d 59d4 ea3e 64a0 4b3e 9231 8c3e
00000040: 3c07 e03e 3267 d33d 50c0 ce3d 83cf 5c3e
00000050: 9f57 f73d 72e3 393e 3415 cf3e 99aa 8a3e
00000060: 432a a03d ce46 8d3e a18d 6a3e f604 ab3e
00000070: 8166 b93e 0a6a 1b3d 835f b03e 61bc a93e
00000080: f20a 5b3e b431 573e ec0b 4e3e e585 8fbe
00000090: 9ae7 38be 7f27 163e 7998 983e f84e 323e
000000a0: 2132 b23e 9b78 023f 8d51 74bc d257 c23d
000000b0: 75be a03d 973b c4bc ad35 91bd 9f5d 063d
000000c0: 7eb0 85bd c485 923e 4920 373e d5d3 d73d
000000d0: 79ee a43e f5ee 6d3e d175 b93d 3453 6b3e
000000e0: 9c0c e33d 6ee4 913d 043f d33e 5479 bd3e
000000f0: f93d e5bd 5df6 3e3c b5a5 f13d 820d fbbd
00000100: 27b2 79be 152e 97bd e051 82be e3c6 95be
00000110: 9fd9 7fbe 6012 53be 5964 dfbe fbb6 4ebe
-0.12759002 -0.30012548 -0.101152144 -0.079263024 -0.23531994 -0.28729734 -0.40990633 -0.41534856
-0.22553588 0.0199065 0.1461388 0.1748954 0.07689667 0.45865133 0.19885403 0.2738157
0.4375552 0.10322417 0.100952744 0.21563534 0.12077259 0.1815317 0.40445864 0.2708328
0.07820561 0.27593082 0.2290559 0.33402222 0.36211017 0.037942924 0.3444787 0.33151534
0.21390894 0.21015054 0.20121735 -0.2803184 -0.18057099 0.14663504 0.29803827 0.17412937
0.3480387 0.5096528 -0.014912021 0.09489407 0.07848827 -0.023954196 -0.07090316 0.032804128
-0.06527804 0.2861768 0.1788341 0.10538451 0.3221319 0.23235686 0.09055675 0.22980958
0.110863894 0.07123648 0.41259015 0.3700663 -0.11193461 0.011655417 0.11799184 -0.12258436
-0.24384366 -0.07381836 -0.2545309 -0.292533 -0.2498536 -0.20612478 -0.43631247 -0.20186989

enc1.0.proj.pointwise.weight f4 [32, 8, 1, 1]
00000000: 10b5 853e 7fce 873e b54b debc 68b6 25be
00000010: d021 0cbe cac7 bc3e f1cf ac3e a822 c23c
00000020: d8fc abbd f43b e43e 132e 94bd eb0a 3f3e
00000030: 5f42 cfbd 08fc 6fbe 6f88 17bf 4b55 a03e
00000040: e368 63be 246b 083e 9bf8 4bbd 247e 92be
00000050: ca91 0a3e 0beb 2f3e c5e7 4d3d 0e0d a03d
00000060: ecc8 ad3e 4fc7 583e fa4c 6e3e 11a0 28bc
00000070: d845 e83d 59a7 9b3c f02e 433e 7692 10be
00000080: ed2a 0c3e 26ec b2be 5584 50be b018 1e3e
00000090: b680 74bd f9a6 a1bb 8eec b7bd 78e0 ee3d
000000a0: c6d1 8abe d7e0 7abd cecd fcbd 56a5 d53d
000000b0: 32e4 88bc 62b0 6cbe fbc5 8fbd 1ad2 693e
000000c0: 1758 bbbe 8c70 0c3f e283 793e db9c 563e
000000d0: 7347 863e 225c 943e 99dd cd3d 1366 013f
000000e0: a10e 963e f535 083e 8a0c b03e 3371 f53e
000000f0: 5841 9e3e 32ad 233e 1dbf 64bd c332 993e
00000100: cd69 b23e ac5f 9e3e 2cb4 bf3d 67ad 4bbe
00000110: e393 97be ac49 a7be d186 653e 7e0e 033e
00000120: f525 103e b36b 453e 66a4 28be 16c4 553d
00000130: 0ac3 763d 57ac 9abe 3729 67bd 6a94 a6be
00000140: 14e3 c9bd e057 c83e 0313 ea3c ec99 f5bd
00000150: 4af1 5e3e 904b 463e cb2d 543c a38f 23be
00000160: 2aa0 cd3e 50ca 35be ea90 89be b08d bb3d
00000170: 3926 223d 8437 6e3d aeb3 ab3e e0fe d5be
00000180: a77b eebd 7a9e a13e bae7 c6be 0e66 013f
00000190: ae32 2b3e 6173 8e3e 84f5 283f 9d88 ac3d
000001a0: 10f6 0fbd 6c93 d7bd 109e 8abe 185f eebe
000001b0: 0d86 27be b576 0b3e ae65 b9bd c6dd 3bbf
000001c0: a8ac 8a3d 96b0 e83c 7c79 83be 1542 6dbe
000001d0: 6dc6 933e c5c8 4a3e 8685 9abe 634d 213e
000001e0: aa38 863d 8245 35be 9b51 4f3f 0fcb 3d3e
000001f0: 9913 d93d d340 d7be eaa4 12be da9b fbbb
00000200: d3c5 de3e 93e4 0fbe a85d d33d e652 2f3e
00000210: 4a26 8abe efbd 28bd 76d0 3fbe 2e4c 0abe
00000220: abee 333e 05c8 1b3e c486 5fbd 1838 5abe
00000230: fc69 c4be 1278 f53d d5ed 0b3e 0fab 7ebe
00000240: 015e b63e df43 61be 0dfc a93e 74af 813e
00000250: f910 f13d 831c 82be 2cd3 c23e dbee c03e
00000260: e43e ba3d 63a4 00be 6657 623f 623a 483d
00000270: 0da4 59bd edd4 27be 35c3 1bbe 3433 53be
00000280: ed16 c1be a449 fa3d a56c 91bd a14b 22be
00000290: 8cb4 9cbe 37ba e43d b64c 41bd acba 213e
000002a0: def2 8f3e 9d0c 5c3d b659 61be c912 c5bd
000002b0: fb97 343e 38de 613e ff78 f03c 8002 12bf
000002c0: 500f 2cbe c135 943e fc3a 1cbe 2e4b 8b3e
000002d0: 2e87 9f3e df14 8b3e aa35 023f 9d48 8d3e
000002e0: 9416 94bd e44b 3d3d 3c6f 383e e645 6bbe
000002f0: dfe5 6b3e a634 aebe 417a 903d 8d08 7e3e
00000300: 92fb 8d3c e384 523f 321e ab3d 7f82 743e
00000310: 274a dcbd b24d 393f 25a5 31be bba2 11be
00000320: a1d6 33bd 8e76 043e 9b91 00bf afca df3e
00000330: 34ff 99be 4f6b 443e 0270 193d d783 133f
00000340: 1bdc 803e a4e4 0abd 7380 46be 427b f5ba
00000350: 3b4b 25bd 4002 fa3e 1362 2abe 1206 a1be
00000360: bb6e 2b3e 932b 403e 80b7 143e cff7 f4bd
00000370: acf9 d43d 14ae 3abe a00e a73d 4ba6 b7be
00000380: 61c6 3e3e 61f9 e3be c9fe 3a3e 6d97 ce3e
00000390: 5bd1 e13d 8f37 b53d 264b fb3c 90f0 86be
000003a0: f3f2 873e 8230 60bb e9c1 e23e 5b8b e0bc
000003b0: 6c59 9b3e 401d 973e 8956 a93e 209e dfbe
000003c0: ec7a 2ebe 3b0e babe 9beb d73d a539 bebd
000003d0: 1202 c0bd 2dc4 55bd e013 21bd dd50 9dbe
000003e0: b950 813e fc18 17bd dd42 933e ec1b 24bb
000003f0: 93f3 993e dbcb 903c 18c9 1b3e 47b8 e8bd
0.26114702 0.26524732 -0.02713571 -0.16182864 -0.13684773 0.36871177 0.33752397 0.023698166
-0.083978355 0.4457699 -0.072353505 0.18656509 -0.10120081 -0.23435986 -0.59192556 0.31315073
-0.2220798 0.13322121 -0.049797636 -0.28611863 0.13532177 0.17179506 0.05026986 0.0781499
0.33942354 0.2116978 0.23271552 -0.010292069 0.11341447 0.019000696 0.19060874 -0.1411837
0.1368825 -0.34945792 -0.2036298 0.15439105 -0.05969306 -0.004933235 -0.08980666 0.11663908
-0.2711317 -0.06124958 -0.12343942 0.10431926 -0.016710375 -0.2311416 -0.07020184 0.22834054
-0.36590645 0.5485923 0.24366716 0.20958273 0.26226386 0.28976542 0.10052032 0.5054638
0.29308036 0.13301833 0.34384567 0.47937927 0.30909228 0.15984038 -0.055846322 0.2992154
0.34846345 0.30932367 0.09360537 -0.19890366 -0.29605016 -0.32673395 0.2241471 0.12798497
0.1407698 0.19279365 -0.16468963 0.052188955 0.060244597 -0.3020961 -0.05643579 -0.32535106
-0.09857765 0.39129543 0.028573519 -0.11992249 0.21771732 0.19364762 0.012950371 -0.15972762
0.40161258 -0.17752957 -0.26868373 0.09157884 0.039587233 0.058158413 0.33535522 -0.41796017
-0.116446786 0.3156622 -0.38848668 0.5054635 0.16718552 0.27822402 0.6599963 0.084244944
-0.035146773 -0.10526165 -0.27073717 -0.46556926 -0.1635973 0.13619502 -0.09052597 -0.73385274
0.06771213 0.028404515 -0.25678623 -0.2316974 0.28862324 0.1980315 -0.30179995 0.15752177
0.065537766 -0.17702296 0.80983895 0.18534492 0.10599441 -0.42041644 -0.14320722 -0.007678491
0.43510303 -0.14052038 0.10320598 0.17121467 -0.26982337 -0.04119676 -0.18731865 -0.13505623
0.17571513 0.1521302 -0.054571882 -0.2131046 -0.3836211 0.11985792 0.13664944 -0.24869941
0.35618594 -0.21998547 0.33200112 0.25329173 0.117708154 -0.25412378 0.38051736 0.37682232
0.09094027 -0.12562709 0.8841461 0.048883803 -0.053134967 -0.16389818 -0.15211184 -0.20625001
-0.37712803 0.12221077 -0.071008004 -0.15849163 -0.30606496 0.1116833 -0.047192298 0.15793866
0.2811498 0.053722966 -0.22006878 -0.096227236 0.17636101 0.22057426 0.02935457 -0.57035065
-0.16802716 0.2894726 -0.15256876 0.27205795 0.3115782 0.2716436 0.50863135 0.27594462
-0.07230869 0.046214953 0.18011183 -0.22975883 0.23036908 -0.34024543 0.07054568 0.2480795
0.017331872 0.8223402 0.08355369 0.23877905 -0.10756331 0.7238418 -0.17348154 -0.14222233
-0.043905858 0.1293585 -0.50222176 0.43709323 -0.30077517 0.1918156 0.037460335 0.57623047
0.25167927 -0.033909455 -0.19384937 -0.001872875 -0.04035495 0.48829842 -0.16638975 -0.31449944
0.16741459 0.18766622 0.14523125 -0.11961328 0.10399184 -0.18230468 0.08157086 -0.3586906
0.18630363 -0.44526199 0.18261255 0.40349904 0.110262595 0.088484876 0.030675482 -0.2635541
0.26552543 -0.00342086 0.44288567 -0.0274102 0.3034166 0.29514503 0.33073834 -0.43675327
-0.17039078 -0.36338982 0.10542985 -0.092883386 -0.09375395 -0.05218904 -0.039325595 -0.30725756
0.252569 -0.03688906 0.2876195 -0.0025041057 0.30068645 0.01767533 0.1521343 -0.11363273

enc1.0.proj.pointwise.bias f4 [32]
00000000: 8f20 263e 1c38 703e afed 02be e791 bebb
00000010: cb48 fa3e f571 bb3d 6b1e 1fbe 3b11 123e
00000020: 10d6 2fbe 7719 70be 0167 283c cd97 d43e
00000030: aa73 ddbc 60b6 763e 33e8 76be befb b23d
00000040: 4e25 243e 5c9f 2d3d d094 00ba ceb0 243d
00000050: a448 923c 3fb2 d63b d17d c2bd 0241 bfbe
00000060: e00c ff3d 5eda eb3e 7e65 503e b278 82be
00000070: 1913 a43b dcf6 2fbd 647d 9ebe 1319 9abd
0.16223358 0.23458904 -0.12785982 -0.0058157328 0.48883662 0.09152595 -0.15538947 0.14264385
-0.17171502 -0.23447214 0.010278464 0.41522065 -0.027032692 0.24093008 -0.24112014 0.08739422
0.16029856 0.042388305 -0.0004904987 0.040207677 0.017856903 0.0065520103 -0.09496654 -0.37354285
0.124536276 0.46065038 0.20351216 -0.25482708 0.0050071594 -0.042960033 -0.3095504 -0.07524314

enc1.1.conv1.depthwise.weight f4 [32, 1, 5, 5]
00000000: 4b41 9bbc 354d 88bd 8fe8 71bc e966 7d3d
00000010: c851 42bd 24b6 1dbd d54b 0fbd 7191 e6bc
00000020: 2b4f a1bc e5d0 b0bd 3b7e fcbd 40e1 8a3e
00000030: e14c 563d 61cc ee3d d48b 38be 5302 423e
00000040: 4434 3dbf 9f39 9337 f3dd d83d 57c4 7e3d
00000050: b2c2 80bd ea96 48be 9f2a 08be 1521 b2bc
00000060: 630d 9bbe 1cac d1bc 5e53 11be 8c4b 80bd
00000070: f0e9 cebd c691 0c3d 0099 95bb 34fb babd
00000080: 52f4 46be 8c50 e1bd e615 4fbc 6fb0 45bd
00000090: eb98 3abe 8fa4 843e e96d 46bd 5fb5 133c
000000a0: 4a29 233e 336f fa3e 6db6 1c3e 1eef 073e
000000b0: 7d4b 643e 3dd8 a1bd 05c8 78bd dc1e fa3d
000000c0: eb77 413e 5b69 aa3e dc74 8abd f2bb 32bd
000000d0: 27ec 403e 5f6e 113c 4931 db3b 40c1 3e3e
000000e0: 29e7 923e bba4 8c3d 6a79 6abe 1eb5 a13d
000000f0: 7860 d03e e62b 6c3e a9ca b1be 7273 c1bc
00000100: 8dfe 763b afef 223e 9613 4d3e 6700 9dbd
00000110: 1bcd c2bd 7655 c8bd 9659 083e 6a60 cb3e
00000120: c318 5a3e 9518 d23d ccfd 6c3d a5b2 32be
00000130: cf2e 94be 5a23 33be 182d 4ebe c0cd 12be
00000140: 353f 9abd 9e29 6dbd c8c4 28be 8099 b8bd
00000150: edf1 bcbd 758a 84be 7759 d3be 14d0 0bbf
00000160: e3bf 4cbe f5f0 2abe cdce 71be 7502 34be
00000170: 809f cfbe f2b7 38be dcb8 fbbd f738 d9be
00000180: f196 a3be a5e7 0abf 577f a2be 3a74 a8be
00000190: 9f4d 003e e475 56be aab2 a7be dfde 30be
000001a0: 4e71 fb3d e2b0 40be 5845 d9bd 8d7e e7bd
000001b0: eb96 2bbe 1b57 2a3d 1700 15be 7b12 503d
000001c0: bf15 d3be 4f9f e83d ada6 833e 4eff 53bb
000001d0: 0899 773d 9788 9b3e 4f9f ae3e 6d06 4a3e
000001e0: 2514 4f3e 5104 99bc a98a 8a3e 2d67 79bd
000001f0: 96e4 d33d 6235 ac3a ef49 1dbc 1524 e3bd
00000200: 77a3 3b3d b602 14bd a54a 553d 6c5d d0bc
00000210: 453d 773d 303a 583c 21f9 19bd 9230 cabd
00000220: 03c6 f8be b792 babe df30 dd3d 9b70 6e3c
00000230: 285f 2abe 55f9 153f b3c0 643d cb72 1e3e
00000240: 5549 53be d44c 333b f99d bdbe 6bf4 03be
00000250: 196c 4e3d d083 46be 0c74 f8bd bf21 ef3d
00000260: e979 04bc cf12 62bd a9c5 ee3d b5ee ef3d
00000270: b0e0 c33d ce6f adbc 5db1 34be 50d8 84bd
00000280: 6a87 f93d 81f9 173e 55cf 29be 764d efbd
00000290: 5f06 86bc 8bfd 35be 24ca 27bd bea7 04be
000002a0: a956 31be b063 24be c47f ca3d 8d61 56be
000002b0: 9d04 5fbe 9797 acbc 9c9d 2bbe 5073 b9bd
000002c0: 4c35 00bc 28ff 02bc e8d3 a23d 4a7d b1bd
000002d0: 0860 463c 8d1f 963a 27b6 d4bd bcc0 863e
000002e0: 60ca efbc aa7e e0bd 7d3d f4bc 1f27 56be
000002f0: 55e6 f83d 0a86 40be 46de e23d 960a bf3d
00000300: 4706 103e af86 a63e 142f 7f3d 9be2 90be
00000310: 3a07 59be d6bc 5bbd 45ce 8c3c 4e97 163e
00000320: 9b96 24be f701 cf3d 33af 403b e01d c7bd
00000330: 8a35 28be 3a64 9a3d 0001 bb3d cd4c e4b8
00000340: 8307 3e3e 9a89 e33d 9a93 dfbb 759b 4bbe
00000350: 5abe 2dbd 1061 f13d f8e4 25be e865 233e
00000360: 27b5 f3bd 6576 48be 3fdf 143e 6757 35bd
00000370: 2032 1abe 374d 01be 5b28 443e 13aa 07bd
00000380: c2b7 33be 8754 5ebd 87ca c1bd 794d bdbc
00000390: 4f3a a7be 6635 323c 35d4 9e3d bd48 8cbe
000003a0: 8f42 eb3e 2032 f53d 1d12 013e 57b6 8e3e
000003b0: 057d 6dbe 5f40 2fbd f19f 003f 4d71 02bb
000003c0: 7752 a7bb 52cc 0b3d fb02 0dbf a30f 093c
000003d0: 6399 4dbd df96 fcbd bace e33e fa25 c43c
000003e0: dd99 43be 2be5 263d a03d c23c be0a 313d
000003f0: aac7 23be a817 a4bd 84c9 a4bd ca23 3f3d
-0.018952033 -0.06655351 -0.014764919 0.06186572 -0.047441274 -0.03850378 -0.03498443 -0.028145524
-0.01969107 -0.086335935 -0.12328764 0.27124977 0.05231941 0.11660076 -0.1802209 0.18946199
-0.73907876 1.7550597e-05 0.105892085 0.062198963 -0.06287135 -0.19588819 -0.13297509 -0.02174429
-0.3028365 -0.025594763 -0.14191958 -0.062644094 -0.10103214 0.034318708 -0.004565358 -0.091299444
-0.19429138 -0.11001691 -0.012639498 -0.048263963 -0.18222396 0.25906798 -0.048444662 0.00901541
0.1593372 0.48912963 0.15303965 0.1327481 0.22294421 -0.07902572 -0.06073763 0.12212917
0.18893401 0.33283505 -0.067605704 -0.04363627 0.18840085 0.008876412 0.006689225 0.18628407
0.28691986 0.06867357 -0.22897878 0.078958735 0.406986 0.23063621 -0.3472493 -0.023614619
0.0037688345 0.15911745 0.20027003 -0.07666092 -0.09511777 -0.097819254 0.13315424 0.39721996
0.21298508 0.10258595 0.057859227 -0.1745096 -0.28941962 -0.17493954 -0.2013439 -0.143363
-0.07531587 -0.057901017 -0.16481316 -0.09013653 -0.09225831 -0.25886884 -0.41279194 -0.5461438
-0.19995074 -0.1669348 -0.23614044 -0.17579062 -0.40551376 -0.1803892 -0.122911185 -0.42426273
-0.31951097 -0.5425971 -0.31737778 -0.32901174 0.1252961 -0.20943409 -0.32753497 -0.17272519
0.122774705 -0.18817475 -0.106089294 -0.113034345 -0.1675679 0.041586976 -0.14550816 0.050798874
-0.41227528 0.11358511 0.257131 -0.0032348218 0.060448676 0.30377647 0.34105918 0.19729014
0.20222528 -0.018678816 0.27058914 -0.06088941 0.10346334 0.0013138468 -0.009600147 -0.110908665
0.04581019 -0.036135398 0.05207314 -0.025435172 0.060361166 0.013197467 -0.037591103 -0.09872545
-0.4858857 -0.3644006 0.10800337 0.014553214 -0.16637862 0.58583575 0.055847835 0.15473478
-0.20633443 0.0027359026 -0.37034586 -0.12886207 0.05039606 -0.1938622 -0.12131509 0.116763584
-0.008085706 -0.05519372 0.116587944 0.11715452 0.0956434 -0.021171477 -0.17645784 -0.06486571
0.12184031 0.14841272 -0.16582997 -0.116846964 -0.01636046 -0.177725 -0.04096426 -0.12954614
-0.17318214 -0.16053653 0.098876506 -0.2093565 -0.21779104 -0.021068377 -0.16759342 -0.09055197
-0.007825207 -0.007995404 0.07950574 -0.08666475 0.012107857 0.0011453495 -0.10386305 0.2631892
-0.029271305 -0.10961659 -0.029814476 -0.20913361 0.12153307 -0.18801132 0.110775515 0.09328191
0.14064895 0.3252463 0.062300757 -0.28297886 -0.21194163 -0.053646885 0.0171882 0.14706156
-0.16073076 0.10107797 0.0029401302 -0.09722495 -0.16426674 0.07538648 0.0913105 -0.000108861925
0.18557553 0.1111023 -0.0068230154 -0.19883521 -0.04241786 0.11786091 -0.16200626 0.15956843
-0.118997864 -0.19576414 0.14538287 -0.044272806 -0.15058184 -0.12627111 0.1915602 -0.03312118
-0.17550567 -0.05427983 -0.09462457 -0.02310823 -0.32661673 0.010876989 0.07755319 -0.27399245
0.45949218 0.11972451 0.12604566 0.2787349 -0.23192222 -0.042786 0.5024405 -0.0019903958
-0.005106266 0.034130402 -0.5508267 0.0083655445 -0.05019511 -0.12333464 0.44493657 0.02394389
-0.19101663 0.040745895 0.023711026 0.043223135 -0.15994135 -0.080123246 -0.080462486 0.04666499

enc1.1.conv1.pointwise.weight f4 [8, 32, 1, 1]
00000000: c1dc 933c db89 96bc 4ce7 313e e468 e739
00000010: 6db1 c1be fe7c b8be d1fd 9d3d f62b 8abd
00000020: 95e0 fbbc d112 0f3e af2a e83d 02e1 903c
00000030: 9365 a53e e2a5 b6b9 df93 8c3d a13f 743d
00000040: e322 4c3d 996a 5fbd 443d 9ebe d311 44be
00000050: c363 4c3d faf9 c0be b397 f93d 7d1d a63d
00000060: ca87 673e 06ee f33d ce68 0e3d a56f 993c
00000070: 5a99 f1bd 5401 ce3d 747e fdbd 14c4 5abe
00000080: 526a c43f 5d23 153f a94c d13d 845a 6bbc
00000090: 8518 29bd 9bc4 853f 3402 27bd 5c48 6f3e
000000a0: f4b6 21be 64a0 16be 34af b3be 6f08 693c
000000b0: 0cd5 f03d 77b1 1f3f 073d ff3d 1217 b9bc
000000c0: 345a a3be 2921 043e 1425 813e 73b1 613c
000000d0: 5c0d cd3d 34b2 c83d 01ea 0dbf 1e61 d5bc
000000e0: 40d8 da3d a122 93bd ab1f 6d3d b3d8 10be
000000f0: 1205 153b 113d 013e 5ef7 1ebe 950c 293d
00000100: 1531 f8ba d7fc abbd 3909 e23b e3c1 0ebf
00000110: 1067 25bc f142 4e3d ec31 9f3d 5c03 5ebb
00000120: a6d8 a93d cad2 62bf 47b3 b53c 6cb3 0e3d
00000130: e5b1 d5bb 8764 3bbb 994a 86bd a709 033b
00000140: baaf 863d 1995 b43d dec8 ebb9 6462 a23b
00000150: 6549 1c3f bfe6 7dbc fb27 243c eb0c b2bd
00000160: a1cb a2bb eb63 8ebb c758 b53d 8b4e 36be
00000170: 9c42 6c3e f1d0 11bc 87ea bd3d d5c4 9bbc
00000180: 43cd 01be 2e82 9fbd be6e b43e 3791 02bd
00000190: f51c 82bd 89e1 b6be a6e1 503e e324 d73c
000001a0: 1acc 91bd 82e6 73be 7504 3b3e 2d43 143e
000001b0: a0ce afbd 5c98 3a3e 9275 953d af3d c33e
000001c0: ded2 0a3e 10b5 83bd aaef f13d 884e f4bd
000001d0: c058 3c3d fd98 4a3d 64b2 98bd 5e7e d13d
000001e0: 9b51 55be 53c3 cfbd bfb0 7c3c 3479 e5bd
000001f0: a3b6 4bbe bb27 71bd 57ed 50bc f1d3 d6be
00000200: 0a44 0b3c cc96 4e3e 6379 863c 8045 8c3c
00000210: 08bd 83bd e148 b6bd a119 73be 7c66 14bd
00000220: 96d5 a5bd a7db 5a3e d1be 1a3c baaa 01be
00000230: f1c3 b4bd f9c7 5ebd 9a1e b23d 51e2 893d
00000240: e511 71bd 627a 663e 0eb0 6cbd 67b7 bb3c
00000250: dbf4 253d 4026 893d c3f9 30bd 77ee afbc
00000260: 38d8 2d3d 1857 6e3a bf95 f43d 747f 713e
00000270: ee39 d8bd 0a47 533d b1f8 05be 0246 0e3e
00000280: a3af 22be 1633 f83c ccc6 1a3e 6cfa b6bc
00000290: 252c f7be aa92 a83d dd6f 643d e0dc 2cbe
000002a0: dbe1 e33d 616b 93be 535f 1a3d 3073 5dbc
000002b0: e5f5 6cbe f161 55be 92b0 27be 0c20 cbbe
000002c0: d7eb ad3d be0a df3e 8790 34bf e04d 163e
000002d0: a826 513e d8e3 0a3d d4ee 0cba d07e 9dbd
000002e0: ec6e dbbd 247d 703c 58bb 1fbd bf15 593e
000002f0: 9eb6 a93d 90b4 f9bd 4863 6b3e 484d b03c
00000300: c2b2 843d 60a7 1d3e 83ec b2bd 3d6c e2bd
00000310: 0168 fbbd f7ca 163e d6d1 fa3b 4219 efbd
00000320: 091a 4d3d 0024 af3d fa60 4a3b 03b0 c33d
00000330: 26ce afbe a254 07be d77f ed3d b337 b13e
00000340: 63b1 7cbe 80b4 073d 55e9 53be 1db3 9b3d
00000350: dcaa 813d a399 943e 0925 a1be 5e8c 07be
00000360: 4708 4e3e 02b2 26bd dc98 c23e 3dfa 8d3d
00000370: eb77 563e 4c54 303e 2610 d63d ed40 a23c
00000380: d064 2f3e a210 bebd 04f3 e23e cf32 083d
00000390: dec6 12bd cfee c4ba f264 66be 3a7a 223e
000003a0: 2373 a63d 46d9 4bbd ab3a 18be 340d 7dbe
000003b0: 2f5f 223e 4aa7 9d3d 459d f0bd 0ed3 95bd
000003c0: 2fe2 23bd 44a2 433e eaa4 0dbe 18c1 3cbd
000003d0: 9a59 4abd b420 0e3e 9f53 253e 9bb8 acbd
000003e0: 7f29 d5bd 9561 9bbc e3e2 013f f926 31bf
000003f0: f84d 0fbe be68 70bc 265d 8dbc d360 3cbe
0.0180496 -0.018376281 0.17373389 0.00044137903 -0.37830678 -0.3603286 0.07714427 -0.06746666
-0.030746737 0.13972022 0.11336266 0.017685417 0.32304057 -0.00034837337 0.06864142 0.059630994
0.049837958 -0.05454502 -0.30906117 -0.19147424 0.049899828 -0.37690717 0.121871375 0.08111093
0.22610393 0.11910634 0.03476792 0.018729994 -0.117968276 0.10058847 -0.12377635 -0.2136386
1.5344946 0.58257085 0.102197 -0.014364842 -0.04128315 1.0450624 -0.040773585 0.23367447
-0.15792447 -0.14709622 -0.35094607 0.014223202 0.117593855 0.62380165 0.12462812 -0.022594009
-0.31904757 0.12903275 0.252236 0.013775217 0.10012314 0.097996145 -0.55435187 -0.026047286
0.10685778 -0.07184339 0.05789153 -0.14145164 0.0022738618 0.12620951 -0.1552405 0.041271765
-0.0018935526 -0.08397835 0.006898072 -0.557646 -0.010095373 0.05035681 0.07773194 -0.0033876514
0.082932755 -0.8860289 0.022180213 0.03483908 -0.006521451 -0.0028593855 -0.06557197 0.0019994767
0.06576486 0.088175006 -0.0004497235 0.0049555767 0.6104949 -0.015496909 0.010019298 -0.0869387
-0.004968122 -0.0043454072 0.088548236 -0.178034 0.23072284 -0.008899913 0.09273248 -0.019014755
-0.12675957 -0.07788502 0.3524074 -0.03187677 -0.06353179 -0.35718945 0.20398578 0.026262706
-0.071190074 -0.238184 0.18263419 0.1447875 -0.085843325 0.18222183 0.072978154 0.38132998
0.13557002 -0.06431019 0.118132904 -0.11929041 0.045983076 0.049462307 -0.074559 0.10229181
-0.20831911 -0.10144677 0.015422999 -0.11204758 -0.19893889 -0.05887578 -0.012751899 -0.41958573
0.0085001085 0.20174712 0.016415304 0.017122984 -0.06432539 -0.08900619 -0.23740245 -0.03623055
-0.08097379 0.21372853 0.009444908 -0.12662783 -0.08826435 -0.054389928 0.08697243 0.067326196
-0.058854956 0.22507623 -0.057785086 0.022914601 0.040516715 0.06696749 -0.04320694 -0.021476014
0.04244253 0.00090919575 0.11942624 0.23583776 -0.10557924 0.05158142 -0.1308315 0.13893893
-0.15887313 0.030297797 0.15114897 -0.022336207 -0.48275867 0.08231099 0.055770744 -0.16881132
0.11127063 -0.2879286 0.037688565 -0.013516232 -0.23140676 -0.20838143 -0.1637595 -0.39672887
0.084922485 0.43562883 -0.7053303 0.14678144 0.20424902 0.033908695 -0.00053761643 -0.07690203
-0.10714516 0.014678273 -0.038997024 0.21199702 0.082867846 -0.12192643 0.22987092 0.021521226
0.06479408 0.1539588 -0.08736517 -0.11055801 -0.122756965 0.14725862 0.007654409 -0.116747394
0.050073657 0.08551788 0.0030880556 0.09555056 -0.34336966 -0.13215879 0.11596649 0.34612808
-0.24677043 0.033131123 -0.20694478 0.076025225 0.06331417 0.29023466 -0.31473568 -0.1323714
0.20120345 -0.040697105 0.38007247 0.06932495 0.20944183 0.17219657 0.10452299 0.01980635
0.171283 -0.09280516 0.4432603 0.03325158 -0.035834186 -0.0015024784 -0.22499445 0.15866938
0.08127429 -0.049767755 -0.1486613 -0.24712068 0.15856622 0.076979235 -0.11748747 -0.07315646
-0.040010627 0.19104868 -0.13832441 -0.046082586 -0.049401857 0.13879663 0.1614518 -0.08433648
-0.104083054 -0.01896743 0.50736827 -0.6920009 -0.13994586 -0.01467341 -0.01725633 -0.1839631

enc1.1.conv1.pointwise.bias f4 [8]
00000000: 0e69 0a3d 6363 0cbd ed38 b43d a86b cb3b
00000010: ed1a d03d 9663 e73c 66fd 073e 2d33 c23d
0.033791594 -0.03427447 0.0879992 0.006207902 0.10161386 0.028245728 0.13280258 0.09482417

enc1.1.conv2.depthwise.weight f4 [8, 1, 5, 5]
00000000: b97b 613d cbc9 dc3d 77d2 0ebe 8e48 433b
00000010: e754 bb3c ba8e 293d 3af6 50bd 1f4a a3be
00000020: 9afa b8bd c9e2 83be f0ee 753e 6bfa bf3d
00000030: 4223 b4be 46a1 e1bd 8cc1 843d 7352 513d
00000040: 3881 cb3d 4c82 d2bd b834 fbbd 1ef8 173e
00000050: 083e af3d e37c b63c 8b9e 7a3e b7f2 763e
00000060: 6e62 c13c 3d1e 0c3e e846 053e 68ff 583e
00000070: 81b8 6d3e 2834 f7bd 1641 eabd 214c b7bd
00000080: 883c b93d 667c 9a3f 12c1 a6be d18f ccbc
00000090: b3b9 023d 3995 c43d 42f0 36be eac3 3e3d
000000a0: b706 94bd cad0 a7bc dae6 953e b555 d2bc
000000b0: 8913 1bbe ce7c f73c 94c0 8c3d 13e9 7b3d
000000c0: 41f9 1ebd 2478 6fbd 5ebd 063e 903e d7bc
000000d0: 8913 e2bd 94d9 683e d683 8f3c 2b81 18bc
000000e0: c65a eb3d 73c9 8a3c 05e9 63bd 38dd af3d
000000f0: e251 543d 43dc c6bd 4091 013c fe30 71bc
00000100: 9d01 e53c 4b46 06bd c57b 0e3e f6b3 d73d
00000110: f3a5 a3bd 8364 cc3d 84e1 0a3e 54e2 233d
00000120: bd56 9cbd 29e8 153e a4e0 ca3d c5cf 773b
00000130: e0b6 7c3c 1530 0d3e f17b 653d b851 94bb
00000140: 8075 a9bc 1a5b 85be 18ef 7dbe 31e1 b53d
00000150: 1d00 343e 502e 71be 9c6d 15be 4854 e8be
00000160: cee7 2f3e 5d8f 003e 92e7 95bd 873b 25be
00000170: 6236 e13c 93bd 6f3e 4512 8f3d 6613 503e
00000180: ba1f d53d 224b 073e 2645 aa3d cf64 adbc
00000190: 84a6 9c3c a791 5bbe f38a 6fbe c7bb 20bc
000001a0: e445 1d3e 594c 423d 1e1a 2dbc ff06 edba
000001b0: 31e4 3d3e 81f1 d3bc 869c 4b3d 704f 90bc
000001c0: 1f19 d43d c929 703d da19 6a3e 1975 063e
000001d0: 789d 153d bc20 773d e53b ba3b e8f7 193d
000001e0: c4cb 0a3e b1cf b43d cf46 983d ba11 e93d
000001f0: c3dc 003d 410b 9dbd 4b83 4e3d 952f 90bd
00000200: c6d6 36bd cbf6 74bd a6cc 2fbc f3b7 bc3d
00000210: 3198 cfbd d03b f23d b270 553b ceb6 023d
00000220: 257b 00be 1c46 babe 4ffa 6bbd 46c1 83bc
00000230: 1282 b5bc f3f5 013e e10f a7bd eac4 363d
00000240: bac5 82bd dd58 f7bc 13e6 94bd b68c e13b
00000250: e6c8 bdba 659c 383c bc11 f43c 4a4e d5bd
00000260: 0e26 4abd 4cde 373d 2bcb 833d 7436 02bd
00000270: 48f8 a8bd 5ec3 79be eeb9 4ebe 988d d53d
00000280: c56c 103e 8453 80bd 0841 5fbe 078b 99be
00000290: 5d84 953e 247d ca3a a8c1 263d dbe5 8fbd
000002a0: 4ef9 06be e671 b03d cdc7 4d3d 1312 c4bd
000002b0: b829 703e a900 c23b afbb c73d d6ec 813d
000002c0: b00d 0c3e 0ea2 a1bb 7bab c63c a358 18bd
000002d0: 3d17 5d3e fd9e 1c3e 9fc7 433e d521 293d
000002e0: 1628 573e 76f1 153b 0411 d0bd 97c1 1e3e
000002f0: 47b2 bd3c cb32 de3b decb 5a3d ee6a bc3d
00000300: 4ecb d4bc e644 373d 73de c13c 3b37 a13d
00000310: 2918 ae3b 6879 f93b a896 d4ba 8fb8 15ba
0.05504963 0.107806765 -0.13947473 0.0029797885 0.022867633 0.04139588 -0.05101607 -0.31892487
-0.090321735 -0.2575896 0.24016929 0.09373935 -0.3518315 -0.110170886 0.06482229 0.05110402
0.09936756 -0.102787584 -0.12265915 0.14840743 0.085567534 0.022276348 0.24474542 0.24116026
0.023606505 0.1368341 0.1301533 0.2119118 0.23214914 -0.12070495 -0.114381954 -0.08950067
0.090447485 1.2069213 -0.32569176 -0.02497092 0.031915378 0.095987745 -0.17865089 0.046573557
-0.07227843 -0.0204853 0.29277688 -0.025675634 -0.15144171 0.030210879 0.06872669 0.061501574
-0.038811926 -0.058464184 0.13158175 -0.02627495 -0.11038882 0.2273925 0.017518919 -0.00930814
0.11491923 0.016941762 -0.055642147 0.08587116 0.051835902 -0.0970998 0.007908165 -0.014721153
0.02795487 -0.03278188 0.13914402 0.10532372 -0.07990637 0.099801086 0.1356259 0.040010765
-0.076337315 0.14639343 0.09906128 0.003781305 0.01542446 0.13787873 0.056026403 -0.004526343
-0.020685911 -0.26046067 -0.24798238 0.088808425 0.17578168 -0.23552823 -0.14592594 -0.45376801
0.1717827 0.12554689 -0.07319559 -0.16135989 0.027491752 0.2341216 0.069859065 0.203199
0.10406442 0.13212255 0.0831397 -0.021166233 0.01912237 -0.2144228 -0.23392849 -0.009810395
0.15358692 0.047436092 -0.010565309 -0.001808375 0.1854408 -0.025871994 0.04970982 -0.017616004
0.10356354 0.0586336 0.22861424 0.13130607 0.036527127 0.060333952 0.0056834095 0.037589937
0.13554293 0.088286765 0.07435381 0.11380334 0.031460535 -0.07668162 0.05041818 -0.070403256
-0.044638418 -0.059805673 -0.010729944 0.09214773 -0.1013645 0.118278146 0.0032568392 0.031912617
-0.12546976 -0.36381614 -0.05761176 -0.01608337 -0.022156749 0.12691478 -0.081573255 0.044621386
-0.063853696 -0.03019374 -0.07270446 0.006883229 -0.0014479428 0.011267756 0.029793613 -0.10415323
-0.049352698 0.044889733 0.064352356 -0.03179021 -0.08250481 -0.24390933 -0.20188114 0.104273975
0.14103992 -0.06265929 -0.21802151 -0.29988882 0.29202548 0.0015448672 0.04071203 -0.07026263
-0.1318104 0.086154744 0.050239373 -0.0957376 0.23453414 0.005920489 0.09752595 0.06344001
0.13677096 -0.0049326485 0.02425169 -0.037193906 0.21590896 0.15295024 0.19119118 0.04129203
0.21011385 0.0022879518 -0.101594955 0.15503536 0.023156298 0.0067809573 0.05341708 0.09200083
-0.02597585 0.04474344 0.023665642 0.078718625 0.0053129387 0.0076133497 -0.0016219215 -0.00057114003
