archs/basicSR_models/onnx/pmrid_d2_denoise.onnx (onnx, 276275 bytes, 115 tensors)

conv0.conv.weight f4 [8, 3, 3, 3]
00000000: e3b8 143e 3f4f c43e 0d90 0abe 7353 103e
00000010: 4993 193d 9121 d6be f249 25bc 6316 45bd
00000020: 4337 ae3d 7117 b3bc 2786 1d3e 9fbb c53d
00000030: af49 23bc a389 ce3e 70e2 c1be 522b 0b3e
00000040: 81b5 23bc 1830 303e ff38 f9bb 06d2 4f3d
00000050: 3c4c 8cbd 4b06 f13a 72ee 26be aa61 babe
00000060: 7e4e 2a3c 267c 4d3d 91ea f03b 1910 afbe
00000070: 2401 24be a66e 11bd bf9e 853e 31f5 2dbd
00000080: 0259 233e 0865 3a3e 2cff d23c ad81 e53c
00000090: 042e 933e d0e8 ad3d 6395 be3c ad95 81be
000000a0: f6b0 3f3f 885c 9e3e 0f5d d03d 35b7 04bd
000000b0: 393a e5bd 4521 0b3e 0cf0 323e 3321 9e3c
000000c0: c97c 8abe 38f7 dabe 2679 aebd a2c3 fcbc
000000d0: 3ca2 b6be 7f9b 063d ab3d 66be d646 8e3e
000000e0: 13e6 cf3d bf5a 2abe 7039 663f e21e 2e3d
000000f0: 261c 433c 5744 8bbe 3547 403c 0398 993e
00000100: 11eb 6fbd 7bdf a93c 58a9 813e e75e 8ebe
00000110: fa12 a4be b449 0f3e c6f3 283e 342b 713e
00000120: 09fe 373d cf11 d9bd d151 8cbd 8552 8bbd
00000130: 9b34 bebe e064 a43e 1c66 143d fae8 18bb
00000140: 5ec3 e9bd bfa8 dabd 764a da3c 52c4 51bd
00000150: 4db2 c93d fc71 d6bd 2fb6 c6bd b6c6 d73d
00000160: 5960 69be 9a54 ddbd d6b3 1abe 57f0 f03d
00000170: f399 003d 4da4 d7bd 8612 f0bd 2069 c93b
00000180: 1653 f8bd a30b ab3c 6415 0abe 4ce8 20be
00000190: fa7d 60bd 1765 623d 0f2a c43d c481 2db8
000001a0: 79f0 1cbe 0856 bf3c 63a4 943c d69b 223d
000001b0: 6d29 0bbe ce7f 54be ed7a 3abe de76 053e
000001c0: edfa a53d eda1 88bd 0d2e a83d ccc6 943d
000001d0: 3e2f e43d 6f82 363d d909 8fbc f801 1dbd
000001e0: 6ad3 813e fd38 a63e 6639 e43b 1066 c83c
000001f0: 9d77 193d 8930 463d 2704 40be 93cf 12be
00000200: b9c1 cebd 4721 123e 05ba 02be e23b f93c
00000210: d6e8 0c3d fcc3 20bc f54e 883d 786f 8cbe
00000220: 45a6 433e 27e4 c73b d5bb e1bd 07ed 64be
00000230: 8442 5dbe 7466 1a3d cab4 1f3e 1b11 133e
00000240: c07c bf3e baee 3b3e 6e5e 9a3e 8d02 053e
00000250: c74e d33e 8ace 91be ecbd dfbc 0391 38be
00000260: 4484 8bbd f88d da3d 42a9 ad3d ef66 3dbe
00000270: 535d 193e 0708 b63e ac6d 9a3e e156 a63d
00000280: 3e2e 8dbd 77b8 eabd 1dd8 83bd 2d05 34bd
00000290: be0c 0a3d 211c f23e 67f3 313d d412 e0bd
000002a0: 21dd 233e ffc0 073f f769 b2ba db03 33bc
000002b0: 3ace 3dbd 0cfd 773d aa5f 5ebe eba9 ed3e
000002c0: dfad ef3d d40b 14bf eca9 293f e591 dc3c
000002d0: 56a0 e63c d40a 4e3e 0dcb ab3c c46e 813e
000002e0: ad5e fabe 0e65 2bbe be75 66be 0172 863e
000002f0: 7086 243d 9722 de3d 19d6 953d 01d4 41bc
00000300: 1bce 49be 384c 12be 674d 943d c22b 59be
00000310: 4af5 d7bc 96be ad3d 8b66 5fbe a4f8 0cbe
00000320: dca0 5fbe e09f 033d 8052 663c 0260 523d
00000330: 276f acbd 798b c7bd dbea a23d 73ee 31be
00000340: 3a7b ddbd d800 ae3d 6041 e93d 493d a3bd
00000350: c007 71be 254a 1bbd 798f f6bc bd64 c6bc
0.14523654 0.3834171 -0.13531514 0.14094333 0.037493978 -0.41822484 -0.010088431 -0.048117053
0.08506634 -0.021861764 0.15383206 0.096549265 -0.009966298 0.40339383 -0.3786807 0.13590744
-0.009992004 0.17205846 -0.0076056714 0.050737403 -0.06850478 0.0018388716 -0.16301897 -0.36402637
0.010394691 0.050167225 0.0073521812 -0.3419197 -0.1601606 -0.035505913 0.26097676 -0.04247016
0.15951923 0.18202603 0.025756441 0.028015936 0.28746045 0.08491671 0.023264593 -0.25309506
0.74879396 0.3092997 0.101739995 -0.032401282 -0.11192746 0.1358691 0.17474383 0.01930294
-0.2704833 -0.42766738 -0.08519201 -0.030855004 -0.3567065 0.032863136 -0.22484462 0.2778842
0.10151305 -0.1663618 0.8993139 0.04250992 0.011908567 -0.27200577 0.011735727 0.29998788
-0.058573786 0.020736447 0.25324512 -0.2780678 -0.32045728 0.1399296 0.16499242 0.23551637
0.04492 -0.105991 -0.06851543 -0.06802849 -0.3714951 0.32108212 0.03623019 -0.0023332224
-0.114142165 -0.10676717 0.026646834 -0.051212616 0.09848461 -0.104709595 -0.097027175 0.10535948
-0.2279066 -0.10807152 -0.15107664 0.11764591 0.031396817 -0.10529385 -0.11722283 0.006146565
-0.121252224 0.020879572 -0.13484722 -0.15713614 -0.05480764 0.055272188 0.095783345 -4.1367268e-05
-0.15326108 0.023356453 0.018144792 0.039699398 -0.13590021 -0.20751879 -0.18210955 0.13033625
0.08104501 -0.0667151 0.082119085 0.0726448 0.11141823 0.044557985 -0.01746075 -0.038331956
0.2535661 0.32465354 0.0069648502 0.02446273 0.037467588 0.04838613 -0.18751584 -0.14336996
-0.100955434 0.14270507 -0.12766273 0.030424062 0.034401737 -0.009812351 0.06655685 -0.27428794
0.19106396 0.006100196 -0.11022154 -0.22356044 -0.21607405 0.037695363 0.1559631 0.14361994
0.37399864 0.18352786 0.3015017 0.12989254 0.4127104 -0.2847789 -0.027312241 -0.18024068
-0.06812337 0.1067161 0.08479549 -0.18496297 0.14977007 0.35553 0.30161798 0.081220396
-0.068935856 -0.11460965 -0.06437705 -0.04395025 0.03370356 0.47287086 0.043445017 -0.10941091
0.16002323 0.53028864 -0.0013611902 -0.010926212 -0.04633925 0.06054406 -0.2171618 0.464187
0.11703085 -0.5783055 0.66274905 0.026925037 0.028152626 0.20121318 0.020970846 0.2527982
-0.48900357 -0.16737768 -0.22505853 0.26258853 0.040167272 0.10846441 0.073162265 -0.011830331
-0.19707529 -0.14286888 0.07241326 -0.21208099 -0.02636208 0.08483617 -0.21816461 -0.13766724
-0.21838707 0.03213489 0.0140577555 0.05136109 -0.08419638 -0.09743399 0.079549514 -0.17376117
-0.10814519 0.08496255 0.113894224 -0.079706736 -0.23538113 -0.037912507 -0.03009771 -0.024217958

conv0.conv.bias f4 [8]
00000000: 65f9 c53e 6124 b33e 4b0e 123e 9017 07be
00000010: 7099 893e 4b4c 133e 4167 2e3e 6965 09be
0.38666835 0.34988692 0.14263265 -0.13192582 0.26874876 0.14384572 0.17031576 -0.13417591

enc2.0.conv1.depthwise.weight f4 [8, 1, 5, 5]
00000000: e855 72bd f473 f9bd 6f61 8abc 0ca1 4e3d
00000010: 3577 673c f192 28bd 424d 74bd 816d 02be
00000020: 6371 85bb 7c52 da3c 6a1a 963d a16a 6e3e
00000030: 68d6 eb3d 4a5a 593d b584 ba3d 9ed0 0f3d
00000040: d4b9 023e bcbd 563e fa5f 3d3e 81bc 1f3e
00000050: 8024 403b 3dbf 643d d496 ea3d 70a9 c33d
00000060: f820 9b3d 774c 873d 28ed febc cbf5 113d
00000070: dfb6 423e 2ac3 663e 4e5e 91bc 46a4 a03d
00000080: 713f a53c ed42 423e 139a ea3d 1a9d 5d3d
00000090: 7c2f 093e a77e 6e3d ed71 8c3e 2132 c43d
000000a0: c196 2abd 45b9 f33d 4be7 8b3e 6892 833e
000000b0: 2f9e 1c3d 0871 25bd d7be 2b3e c1ff 683e
000000c0: 0cee 60bc b7cd c43d 859d 113b 1c43 8dbd
000000d0: 48b7 ae3d 6ec6 153e 1a17 c3bc 3c30 17bd
000000e0: b1b6 473b 6a37 893e a187 ad3e 326f 2c3c
000000f0: 5dd1 9f3d 5823 303e d9b7 ce3e 6a69 d43e
00000100: fc92 ba3d 9348 cb3c 1dbc d63c 8ee7 af3c
00000110: 2e6c 5a3d a18c e83c fd82 dfbd 8af9 d7bd
00000120: 20a5 8ebc fcec 55bc d0fc ea3c b4ac 283e
00000130: 1904 f53b 4116 1cbe 4ad1 553c 0e88 99bd
00000140: 2deb db3d 12d7 823d bc59 813d ed97 b33d
00000150: 46d0 35be 08ae 9ebd e78c f33d 46f9 ccbd
00000160: d21a 8a3d 8a13 0e3e 3f12 0e3e 4a54 22be
00000170: fbb7 a73d f452 15bc 5187 613d a3b4 2f3e
00000180: 709b b93d 9a2c 4bbe 4824 353d 06b7 38be
00000190: ad30 0c3e 5848 e9bd 3124 513e a420 abbd
000001a0: 09de 9c3d c1b3 6d3d 626d 00bc 66bc 383e
000001b0: 8515 4d3d b440 1abe 86c4 f9bc 75b1 fc3d
000001c0: 0c71 ab3d a11c c3bd 23fd 90bd f96a 003e
000001d0: 2695 1e3e a0f0 a23e a55d 213e ad84 243e
000001e0: 934d 2b3c e8b6 853d 9534 5e3e f27c 463e
000001f0: 0741 4d3e b571 75bd ca47 3ebd 2210 e5bd
00000200: ea5b babd ea67 993c d1b4 64bd 6fdc ae3d
00000210: efda 643d bd29 50be bba6 4cbc 5b4d 433a
00000220: c7e2 353e bf1f 9d3e 0656 2f3d 0c9d 86bd
00000230: 7b96 403c 4130 bd3d 1a01 b43e de59 a33e
00000240: 64af 293e f242 973a 3a76 83bd 18a9 393e
00000250: 2808 183e 6e40 1d3e 9648 3b3e 8063 413d
00000260: 84a6 7d3e 9931 a93e 2fbe 573e 1dfb b9bc
00000270: 2b91 2ebd c0c7 32bd 3e63 82bc 56e7 de3d
00000280: 8c40 e03d 9030 a93d d361 743d 23ad 8bbc
00000290: 3ef6 383e 9233 bc3c 23a6 b7bd d1fa 35be
000002a0: b7fb 093e 3818 8c3d 1d80 293e 9536 45bd
000002b0: 6224 123e 246b 66bd 2289 133e 4c1a f73d
000002c0: 1c01 eabd 97e9 f2bc aa03 2e3e 9609 c03d
000002d0: 9bec b93d ba4a a4bd bb66 9bbd 738f 313d
000002e0: f466 a0bd be51 bc3d 3733 193e c523 993d
000002f0: d17f 9abd 7741 05be 9253 f03b 9ce5 323d
00000300: 39bc 2e3e 9089 20be f602 363e 989a 4bbd
00000310: 062d e73c 722f 3a3e e744 b0bd 0251 84bd
-0.059163958 -0.121803194 -0.016892163 0.050446555 0.014127542 -0.04115576 -0.05964399 -0.12737085
-0.0040723546 0.02665066 0.07329257 0.23282863 0.11515504 0.053064622 0.09107343 0.035111062
0.127662 0.20970815 0.18493643 0.15599252 0.002931863 0.05584644 0.114545494 0.09553802
0.07574648 0.066063814 -0.031118944 0.035634797 0.19015072 0.22535387 -0.017745163 0.07843833
0.020171853 0.18970843 0.114551686 0.0541049 0.1339702 0.058226254 0.27430668 0.09579874
-0.041647676 0.11900572 0.273249 0.25697637 0.038236793 -0.040390998 0.16772018 0.22753812
-0.01372863 0.096095495 0.0022219133 -0.06897566 0.08531052 0.14626476 -0.023814727 -0.036911234
0.0030473883 0.2680009 0.3389254 0.010524558 0.07803605 0.17200983 0.4037464 0.41486675
0.09110066 0.02481488 0.026212746 0.021472719 0.053325824 0.02838737 -0.10913656 -0.10545643
-0.017412722 -0.01305699 0.028685004 0.16472131 0.007477295 -0.15242864 0.013050387 -0.074966535
0.107382156 0.06388678 0.063159436 0.08769212 -0.17755231 -0.077480376 0.11892109 -0.10008483
0.06743397 0.13874641 0.13874148 -0.15852466 0.08189388 -0.009114016 0.05506069 0.17158751
0.090628505 -0.19841233 0.044224054 -0.18038568 0.13690443 -0.113907516 0.20423962 -0.08355835
0.07659537 0.058032755 -0.007838579 0.18040618 0.05006935 -0.15063745 -0.030489217 0.12338535
0.08371171 -0.09526945 -0.07079532 0.12540807 0.15486583 0.31824207 0.15758379 0.16066237
0.010455507 0.06529027 0.21699746 0.193836 0.20044337 -0.059922893 -0.046455182 -0.11184718
-0.090995625 0.018726308 -0.055836502 0.08538138 0.055872854 -0.20328422 -0.0124909235 0.00074501865
0.1776229 0.30688283 0.042806648 -0.06572923 0.011754627 0.09237719 0.3515709 0.319045
0.16570812 0.0011540337 -0.06419034 0.1813091 0.14846861 0.15356609 0.18289408 0.04721403
0.24770552 0.33045653 0.21068643 -0.022702748 -0.04261891 -0.043647528 -0.015916463 0.108839676
0.10949811 0.08261216 0.059663605 -0.017050331 0.18062684 0.02297381 -0.08967235 -0.1777146
0.13474928 0.06840557 0.16552778 -0.048147757 0.14271691 -0.05625452 0.14407781 0.120655626
-0.11425993 -0.0296524 0.16993585 0.09376828 0.09078332 -0.080220655 -0.07587954 0.043349694
-0.07832137 0.091952786 0.14960943 0.074775256 -0.0754391 -0.13013254 0.007334181 0.043676004
0.17063989 -0.15677476 0.17774567 -0.04970798 0.028219711 0.18182161 -0.08606892 -0.064607635

enc2.0.conv1.pointwise.weight f4 [8, 8, 1, 1]
00000000: 56c8 1ebe 89e8 d8bd 9fb0 7bbe 3e2e 9abe
00000010: 4e7f 5d3d 1214 acbe 56be 74bd 7977 05be
00000020: a43c 1a3e 53f6 d7bd cdd9 3a3e 74b6 98be
00000030: 4b9b 04be 7a80 2a3f 418a f2bc ef57 c73d
00000040: 9039 913e 33f7 c8bd c77a 823e 77e3 183d
00000050: b971 54be 63df d7bd cb3d fdbd 6c2f a23e
00000060: 20e7 f2bd 4126 563d 364d 19be 64e2 14be
00000070: ec92 31be f0f5 2dbe 130a dbbd 095e 26be
00000080: a268 bbbb 6a71 bfbe bf37 8d3e 1f60 003e
00000090: a8ad 01be b5f3 0b3f 0370 c73c 5923 fc3d
000000a0: 8ade 90be 807c 333d dbb6 303e e9f2 03be
000000b0: fce4 78be 0075 ac3e 3a44 77bd e438 e53d
000000c0: a686 b83c 0024 cc3e f5fb b33b 814e 7f3e
000000d0: 8e25 983e 7315 9d3d 8c97 42be 918d bbbd
000000e0: b6d7 163f a875 01bd c88e 0d3f 1e51 c7bd
000000f0: c3ce f2be af76 e03c 531f 95bd cee7 3abe
-0.1550611 -0.105912276 -0.24579094 -0.30113405 0.054076485 -0.33609062 -0.05975183 -0.13033856
0.15062195 -0.105450295 0.18247147 -0.298267 -0.12949865 0.6660229 -0.02960694 0.09733569
0.2836423 -0.098127745 0.25484297 0.037326302 -0.20746507 -0.105406545 -0.12365302 0.31676805
-0.1186049 0.052282576 -0.1497086 -0.14539486 -0.17341202 -0.16988349 -0.10695281 -0.16246809
-0.0057192603 -0.37391216 0.27581593 0.12536667 -0.12663901 0.5466874 0.024345404 0.123114295
-0.28294784 0.043819904 0.17257254 -0.12885632 -0.243061 0.33683014 -0.0603678 0.11192492
0.022525143 0.39871216 0.005492682 0.2493229 0.29716152 0.07670107 -0.19003123 -0.09157861
0.589229 -0.031606346 0.5529599 -0.09732269 -0.47423372 0.027400343 -0.07281365 -0.18252489

enc2.0.conv1.pointwise.bias f4 [8]
00000000: 0b7e f5bd 6dba 95bd 0b91 95be bf0a 51be
00000010: 94b6 8a3e 91a4 abbe 877d 51be 691b 11bd
-0.119869314 -0.073109485 -0.29212222 -0.20414256 0.2709242 -0.33523992 -0.20458041 -0.03542653

enc2.0.conv2.depthwise.weight f4 [8, 1, 5, 5]
00000000: 2d97 02be 2bab 2dbe 8568 143d 8a87 34be
00000010: f29a 3cbd 1824 43bd 9d5c d8bd da24 433e
00000020: 4082 803c a7be 2cbe ccf6 9f3d 8d69 ce3d
00000030: 00bd b4bd f829 a43d 26df 0f3e d035 923d
00000040: 2630 4bbd 4a8a 68bd de32 1f3e e008 303e
00000050: f22c b5bd 093b e93d b997 29be ad86 6d3d
00000060: 50cd acbc 67c7 3abd 34e0 94bd d1c7 31bd
00000070: c8b5 7f3d 6c09 17be 1202 cabd 07c4 cebd
00000080: 39cd ddbd 81be 1c3e eaee 8ebd 48cc 00be
00000090: 54db 3e3e c4d8 213f f0b3 253f 50e6 8abe
000000a0: fec5 043e 30c7 04be 0196 14be 7e45 df3d
000000b0: 9c30 0dbe b273 b4bd fa98 34bd 9a90 9fbd
000000c0: 692f aabd c69f 00be 0358 ed3c 885a f6bd
000000d0: a87a 05be d7be 10be 0cb5 d5bd 7d9f 41be
000000e0: 532e d5bd 2983 95bd e0d1 ecbd 6f58 22be
000000f0: 9151 85bd 904c 2e3d bc39 69bd f5d1 0a3e
00000100: 73a4 18be d5f9 0dbe 7be1 63bc 7aeb a33c
00000110: 749a 213e 1f46 05be feed 023e 46c3 e5bd
00000120: 0038 87bd 4862 75bd ff08 19bd c799 be3d
00000130: e7d7 a63d edd5 0d3e d0d3 34be b2f2 08be
00000140: adff e23d 1313 d0bd d768 8fbd 2528 493e
00000150: 9731 c1bd 8dd3 8a3d baa0 9f3d 2050 da3d
00000160: bfd4 403e c0b3 f13c 9ae6 ef3b 3d93 a9bd
00000170: b7a7 1e3e 5b66 1a3e 9adf e1bb b7b1 a9bd
00000180: 1204 0d3e b79f 1fbe 57c4 03be 0056 11bc
00000190: 509d d83c 2763 063e 2125 c5bd df8f 1f3d
000001a0: 7859 d2bb 0c3e 8e3d 7d94 c0bd 4e7b d93c
000001b0: 57a4 0bbe 2071 7a3b f20a 423d dfa6 85be
000001c0: 91c3 473e 00aa cf3e cc9c 3a3e 7b84 a7bd
000001d0: ecec adbd bce4 273e 09aa 013e 70b6 b23d
000001e0: ad8f 69bc 781f c23d 3500 dc3c e39a 803e
000001f0: 8367 a8bc 879e fe3c 69c9 d63d fce2 033e
00000200: 0d0e 203e 05ba 6d3e f592 fe3d e899 433e
00000210: 5982 ed3e 6891 db3e f4da 863e 94c0 c8bd
00000220: c692 123e ce32 fe3b b5ba 943e 678f 933d
00000230: 1cd1 0e3b e9ba 16bc d8d6 bebe ac00 1fbd
00000240: cf7a b2bd 2968 4cbd 0a8c 27be 83e7 87be
00000250: 4bd6 393e 8e3b 813d 03ff 76bd e588 103e
00000260: d0e3 6d3e c514 613e 4b42 663d 7b28 c23c
00000270: 248d fe3d 2be4 6f3e ec3a 623e 429b 653e
00000280: 39d3 b03d f1b6 18be d461 71be a5da 5b3e
00000290: 9415 8d3e feaa dc3d 685d 2b3e ac56 76be
000002a0: 5f68 0e3e f8ee d2bd 15e6 c23d 323e 0b3c
000002b0: 38b7 94bd 10cf 7b3e 017c e53d d27f 00bd
000002c0: ae58 debd e0fa 30bd 7e71 233d aa27 233d
000002d0: 7a6c a7bd f274 213c 230c 88be 1bfd 5ebe
000002e0: 2e63 bebd 591e a8bd 1a28 4cbe dde4 203f
000002f0: c122 4e3e 5f6a c4bd cf21 833d 9b24 31be
00000300: 7976 253f 36c5 97be f820 4fbc 65ee 803c
00000310: 48af 7a3c aa0e 013e fc3b 98bd 6e9d 0cbd
-0.12752981 -0.16959827 0.03623249 -0.17629829 -0.046046205 -0.047641844 -0.105645396 0.19057027
0.015687108 -0.16869603 0.07810745 0.10078726 -0.088251114 0.080158174 0.14049968 0.0713917
-0.049606465 -0.056772508 0.15546748 0.17190886 -0.08846463 0.11388213 -0.16561784 0.057989765
-0.021093994 -0.04560032 -0.07269326 -0.04340345 0.06242922 -0.14749688 -0.09863676 -0.10095983
-0.10830159 0.15307046 -0.06979163 -0.12577927 0.18638355 0.63221383 0.6472769 -0.2712884
0.12966153 -0.12966609 -0.14510347 0.109019265 -0.13788074 -0.0881113 -0.044091202 -0.077912524
-0.08309824 -0.12560949 0.028972631 -0.12028986 -0.13035071 -0.141353 -0.104349226 -0.18908496
-0.10409226 -0.073004074 -0.11563468 -0.15854047 -0.06509698 0.042553484 -0.056939825 0.13556655
-0.14906482 -0.13864835 -0.013908739 0.020009745 0.15781575 -0.1301503 0.127861 -0.11218886
-0.06602478 -0.05990818 -0.037362095 0.093066745 0.08146649 0.13851137 -0.17658925 -0.13373831
0.110839225 -0.10159888 -0.070024185 0.1964422 -0.09433287 0.06778631 0.07794328 0.10659814
0.18831156 0.029504657 0.007321191 -0.082800366 0.15493666 0.15078108 -0.0068931105 -0.082858495
0.13771084 -0.1558827 -0.12867866 -0.008870602 0.0264422 0.13123761 -0.096262224 0.038955566
-0.006419357 0.06945428 -0.09403322 0.026548054 -0.1363691 0.00382144 0.04737372 -0.26103875
0.19508196 0.40559387 0.18223876 -0.081795655 -0.08492455 0.16395849 0.1266252 0.087262034
-0.014255446 0.094786584 0.026855567 0.2511817 -0.02055717 0.031081451 0.10487635 0.12879556
0.1563036 0.23215492 0.124303736 0.1910168 0.4638851 0.42884374 0.26338923 -0.09802356
0.14313802 0.0077575212 0.29048696 0.07205086 0.002179212 -0.009199836 -0.37273288 -0.038819
-0.0871483 -0.049904022 -0.16362014 -0.26543817 0.18148153 0.06310187 -0.060301792 0.14114721
0.23231435 0.21980579 0.056215566 0.023700943 0.12429264 0.23426883 0.2209279 0.22422507
0.086340375 -0.14913537 -0.23572475 0.21470125 0.27555525 0.10774802 0.1673485 -0.240565
0.13907002 -0.10299486 0.09516541 0.008498715 -0.07261509 0.24590707 0.112052925 -0.0313719
-0.10856758 -0.043208003 0.039903156 0.03983275 -0.08174987 0.009854542 -0.2657176 -0.2177624
-0.09296261 -0.08208913 -0.19937173 0.6284922 0.20130445 -0.09590601 0.06402933 -0.1729912
0.646339 -0.29642648 -0.012642138 0.015738675 0.015300579 0.1260325 -0.07433316 -0.034329824

enc2.0.conv2.pointwise.weight f4 [32, 8, 1, 1]
00000000: 1603 023e 200b 9f3d 022c b93c 86b9 cfbd
00000010: 3b2c c4bc a6be df3d 9930 763e 4014 1c3f
00000020: 520a 4e3e 5320 a13e c84c 50be 5f19 c5bb
00000030: 14a2 d53d 7730 493d aaa5 4f3e bc90 ac3e
00000040: 0cbf 5d3e aebd c93e 6bdd f4bd fb77 afbe
00000050: 5880 663c ef97 a7bd becb cd3d 3239 6e3e
00000060: 3c64 93bd 97ec 203e 9d77 983e 8153 b5bd
00000070: 6335 b0bd aa47 d5bc 30d1 e63c d20c 6fbe
00000080: 2551 10be 7d1b 773e 1ea7 e63b c943 7e3d
00000090: fb42 073f 235e b5bd ed65 663c 06ef eabc
000000a0: 3828 003e 343e e4be 41bd 52be 95ab 203e
000000b0: cd21 923d cd37 35bd 443b 54be cc04 003f
000000c0: 9b52 a5be 1cef 4e3e bbcf 71bb 77d9 a33e
000000d0: e9eb d03e 95d8 a53e 37fb 44bd 47cc 08bf
000000e0: 0136 873e 6669 e73e cc09 c23d d93e d2bc
000000f0: a899 d8bc c857 193f 1845 8e3c 5436 193f
00000100: 8903 70be 2bde a73e e85a d03d 8a3b f2bd
00000110: 8d0b 41be 09bc a3be d1ee 5abc af9a 6c3e
00000120: 6f71 883e e4d1 523e 42c3 01be e949 84be
00000130: 3ac3 bfbd 996e 6b3e 84f9 e73c effa 293e
00000140: a7f5 85be b29a 9dbc d374 68be d4db de3d
00000150: 4ccc 28be 18c9 82be 63db 62be 64ed 0a3f
00000160: 6d7c a73e 3005 f4bd 8804 703e ef42 61be
00000170: a10a a93d fb74 d5bd 38da 003e 38db 093e
00000180: 1805 1bbe e4f9 b63d 5125 03be fc46 01bd
00000190: e506 b8bc fcdf a93e bfa4 7e3d b710 b3be
000001a0: 7f97 a13d a051 b03e 6935 973e f7ff bfbd
000001b0: 1665 3a3f 269a f83d fef0 423e e644 a3be
000001c0: ea0a 85bd 83bc 203e 3a1f d33d 3396 a33d
000001d0: 8f5a a6be bd38 aabd f6ab 823e 422a 1ebe
000001e0: 9bc9 8e3e fe95 543e d4b6 853e 0dd3 a5be
000001f0: f12c 863e c362 d63e c0de 18bd 80b6 263f
00000200: 2c7d 1c3e d682 12be 723d 3ebe 7faf 993e
00000210: e455 723e f10b 803e 4e59 353e 500b 403e
00000220: 08e8 9ebe fb48 56be e036 313e 12ce 17be
00000230: 13fd 0ebe 4415 813f f77c 2bbe 3820 fc3e
00000240: fdd0 9abe 8795 7d3c 87ab e03c 8c0f 153d
00000250: 429f 373e aedd 79bd 95e6 bbbd d48b 16bd
00000260: dba9 943d 319c 2a3e 3a48 9ebe 5d8c 4e3e
00000270: ca1d 57be 6b3a d93e f11b acba ab86 a03e
00000280: fb6e 813e a7ae d3be 5c5e 0bbe b1df acbb
00000290: b959 193e c231 2b3e 60d6 7abe 1c76 5d3f
000002a0: 7503 7f3b 06c4 73bf 8693 113e 422b dc3d
000002b0: b70e a13b f31f 88be 2a68 b8bd 80f5 da3d
000002c0: 98d7 a9be e461 fabe dd69 4dbe 0b15 d1bd
000002d0: 9f51 d63e a7ee 293e 1b39 2abc 5f00 353e
000002e0: b928 07bd 61a6 a33e b349 10be 86f5 08be
000002f0: 0a1a 03be 286c 83be 38a3 2fbe 4e02 5ebe
00000300: c15f 8abe 1f2b 2ebf 237c 18bd 3f8d 7c3c
00000310: a91e 67bf dbf5 99be d0ab 9dbe 71b2 2cbd
00000320: a83a 10be c219 e3be 47bc 88be 3d46 a8be
00000330: ddd6 37be 6422 c13e b081 b7be cf62 093e
00000340: 50bc 833e 256f ab3e 78e2 1f3e 48c5 22be
00000350: 20e2 97bd baf9 393e b0f5 a7be 029c 78be
00000360: 4873 0fbd 279e 8f3d 7087 383d 24f6 853e
00000370: e2d3 2e3e 516a d5be 48f2 13be bb8a 84be
00000380: 5a91 19bd 5d7a 71be 69ab 8e3e ec7d 953d
00000390: e2ff 8abe 01a7 8cbe 75b7 d53d 81cd 05bf
000003a0: 8db6 49be 8cd7 8ebe efe0 44bd bf65 59be
000003b0: 2ab5 96be 32ad 1cbe b5dd abbd 566d 883e
000003c0: a797 293d 188e 533d db9d 94be 9872 313e
000003d0: 54d8 f43d 8ac2 8abe b66a 2cbe a9d0 cb3e
000003e0: 35c6 ad3e bd28 4a3f f858 11bb 2b2e fb3c
000003f0: 6b36 0fbe a0ad c7be c648 833e d18a 72be
0.1269649 0.07765794 0.022603992 -0.10142808 -0.023946872 0.10925035 0.24041976 0.609684
0.20121124 0.31469974 -0.2034179 -0.0060149874 0.104313046 0.049118485 0.2027804 0.33704174
0.2165491 0.39402527 -0.119562946 -0.34271225 0.0140686855 -0.08183276 0.10048626 0.23264006
-0.071968526 0.15715252 0.29778758 -0.08853818 -0.08603933 -0.026035149 0.02817592 -0.23344734
-0.14093454 0.2413158 0.007038965 0.062076364 0.5283658 -0.08855846 0.014062387 -0.028678428
0.12515342 -0.44578707 -0.20580007 0.15690453 0.07135353 -0.04424267 -0.20725733 0.5000732
-0.32289585 0.202084 -0.0036897499 0.3200185 0.40804985 0.323918 -0.04809114 -0.534367
0.2640839 0.451976 0.09474525 -0.025664734 -0.026440457 0.5989957 0.01736693 0.59848523
-0.23438849 0.32786688 0.10173589 -0.118277624 -0.18852063 -0.31979397 -0.013362602 0.23105882
0.26649043 0.2058788 -0.12672141 -0.2583764 -0.093634084 0.22991408 0.02831722 0.1659963
-0.2616398 -0.019238804 -0.22700815 0.10881773 -0.16484183 -0.25544047 -0.22154002 0.5426848
0.32712117 -0.11915052 0.23439229 -0.2199819 0.082539804 -0.10422703 0.12583244 0.13462532
-0.15138662 0.089343816 -0.12807204 -0.031561837 -0.022464225 0.331787 0.062168833 -0.3497369
0.07890224 0.34437275 0.29532936 -0.09374993 0.72810495 0.121387765 0.19037244 -0.31888503
-0.06496222 0.15696912 0.1030869 0.079876326 -0.32490966 -0.08311603 0.2552182 -0.15445808
0.27888188 0.20760342 0.2611605 -0.3238758 0.26206163 0.41872224 -0.037321806 0.6512222
0.15282124 -0.14307722 -0.18578127 0.30016705 0.23665577 0.2500911 0.17709848 0.18754315
-0.310364 -0.20926277 0.1730609 -0.14824703 -0.13963728 1.0084615 -0.16746889 0.4924333
-0.3023757 0.015477545 0.02742554 0.03639178 0.17931846 -0.061002426 -0.091748394 -0.036754444
0.0725896 0.16661145 -0.3091448 0.20170732 -0.21007457 0.42427382 -0.0013130886 0.31352744
0.25279984 -0.41344187 -0.13610214 -0.0052756895 0.14975633 0.167182 -0.2449584 0.86508346
0.0038911973 -0.95220983 0.14216432 0.10750438 0.004915084 -0.26586875 -0.09004243 0.10691357
-0.33172297 -0.4890281 -0.20059915 -0.10209092 0.41859147 0.16594945 -0.010389592 0.17675923
-0.03299782 0.31962875 -0.14090614 -0.1337491 -0.12802902 -0.25668454 -0.17152107 -0.21680567
-0.2702618 -0.6803455 -0.03722776 0.015414535 -0.9028116 -0.30070385 -0.30795145 -0.042162362
-0.14084876 -0.4435559 -0.26706144 -0.32866088 -0.17953058 0.3772155 -0.3584113 0.13416599
0.2572961 0.33483234 0.15613735 -0.1589557 -0.07416177 0.1816167 -0.32804632 -0.24278262
-0.03502205 0.07012587 0.04505104 0.26164353 0.17073014 -0.41682675 -0.14447892 -0.25887093
-0.037492134 -0.23581834 0.2786515 0.07299408 -0.27148348 -0.27471164 0.10435382 -0.522667
-0.19698544 -0.27898824 -0.048066076 -0.2123022 -0.29435092 -0.15300444 -0.08391897 0.26645917
0.041404393 0.051649183 -0.29026684 0.1732887 0.11955324 -0.27101547 -0.16837582 0.39807633
0.33940282 0.7896841 -0.0022178274 0.030661663 -0.13985603 -0.38999653 0.2564146 -0.23685767

enc2.0.conv2.pointwise.bias f4 [32]
00000000: 50e5 3ebd de04 19be 1f9d 10be 9f12 97be
00000010: 2357 353e 3cd9 803e 52b0 eebd 3032 92be
00000020: e949 0ebc e417 2fbe 469e 0e3e f8aa a13e
00000030: 8225 9f3e 4720 883e 6c3a af3d b241 ee3d
00000040: c66a 373e 0ba8 9f3d 50ba 6d3e 0724 343e
00000050: 1cd8 3fbe df68 cc3e f62a 09bd b181 6bbd
00000060: cd60 7f3e 7eab 053e df67 903e 92b6 09be
00000070: e824 533e 1ccb 06be 32cc 213e c34d bd3e
-0.04660541 -0.14943263 -0.14122437 -0.29506394 0.17709021 0.25165737 -0.11654724 -0.28553915
-0.008684614 -0.17098957 0.13927564 0.3157575 0.31083304 0.26587126 0.08556065 0.11633624
0.17911825 0.077957235 0.23215604 0.17591868 -0.18734783 0.3992376 -0.033488236 -0.05749673
0.2493927 0.130537 0.28204247 -0.13448551 0.20619547 -0.13163418 0.1580055 0.3697339

enc2.0.proj.depthwise.weight f4 [8, 1, 3, 3]
00000000: 3b6a 15be b977 9bbe 5483 00be 67c5 8bbd
00000010: 43eb e5be c695 abbe ad37 013d e4d6 40be
00000020: 1e51 43be e404 c63d ed97 af3e 91f1 b73e
00000030: 39dc 5c3e 7af0 1c3f cdd1 e33e d2dd 3c3e
00000040: c9e4 9c3e 75da 0c3e 9b45 8abc 1324 b83d
00000050: 87f4 013e ac0c 70be 16dd 7ebe 1285 34bd
00000060: ed28 41be 96d0 e0be e6f4 95be 385b 8f3e
00000070: a7c6 72bc 15c4 8cbe 564e 3a3e e744 a3be
00000080: 1d4d e13d e893 27be 8893 953e ed6a a8be
00000090: cc34 febc 3149 6a3e f224 a73e f5d1 503e
000000a0: 07fb c93e 8c1a e13e a0c1 c33d 2e1e a23e
000000b0: 737e 583e 74e8 74bd b439 223d 2580 a13e
000000c0: 0831 81bc 9d6b ab3e d403 0e3f 3e6b 1dbd
000000d0: 1a32 a73e aad0 8b3e bf7b 30bd a9f8 3fbe
000000e0: d599 0fbe e058 5cbe 8eee f3be e64c a1be
000000f0: 956b 39be ffdd a3be 22cc 5ebe a957 06be
00000100: 6429 af3d 5d72 fabd 703c 48be 03df 613e
00000110: 62cb 28be 0f5b 45bd 66ec 83be 62a8 91be
-0.14591305 -0.3036478 -0.12550098 -0.06824761 -0.44906053 -0.33512706 0.031547237 -0.18831974
-0.19073913 0.096689016 0.34295598 0.35926488 0.21568383 0.6130444 0.44496003 0.18443993
0.306433 0.1375521 -0.016878894 0.089912556 0.12690936 -0.23442334 -0.24889025 -0.04407222
-0.18863268 -0.43909138 -0.29288405 0.27999282 -0.01481787 -0.2749335 0.18193945 -0.31888506
0.11001036 -0.16365016 0.2921412 -0.32894078 -0.031031035 0.22879483 0.32645375 0.20392592
0.3944933 0.43965566 0.095584154 0.3166365 0.21141987 -0.059791997 0.03960581 0.3154308
-0.01577045 0.3348054 0.5547459 -0.038432352 0.32655412 0.27307636 -0.043086763 -0.187472
-0.14023526 -0.21518278 -0.4764294 -0.3150398 -0.18107446 -0.32005307 -0.21757558 -0.13119377
0.085528165 -0.12228844 -0.19554305 0.22057728 -0.16483834 -0.048182543 -0.25766295 -0.28448778

enc2.0.proj.pointwise.weight f4 [32, 8, 1, 1]
00000000: d9b9 413e 2c6c b73e f97d 61be b7dc dcbd
00000010: 07a0 85bd e562 243d 8edc 353e 049c 68bc
00000020: d87a 8c3e 60b5 a93e 708c b5bd 5666 a0bc
00000030: 2b95 aebe f2b5 0a3e ab53 a9be 8f90 7a3d
00000040: 1a71 80be f2a1 e83d ce8d 913d 324d 7ebe
00000050: 5761 943d 4a4b 96bd 8c43 563d 9bf5 f5bd
00000060: 846e 963e 51b2 2f3e 6b92 9a3e 41e3 3c3e
00000070: 22a6 953d 5a26 3c3e 5682 8c3e fac6 a8be
00000080: 3c23 c23d 85fd a0be 7842 b5be c616 333e
00000090: 8ba0 7ebe dd4a 783d e177 6abe 1451 953e
000000a0: a863 9abe 1c96 acbd fd19 c9be 4856 5d3d
000000b0: dcef 91be 67a4 06bf 7aaa c9be 330e 533e
000000c0: 5c53 723d 1ec0 2e3f 6660 b23e 44ef 9fbd
000000d0: ce42 703e 9e20 0e3f 5add e53d 2de9 b53e
000000e0: 25a8 7c3e f609 5e3e b926 4bbe c218 1d3e
000000f0: 89a0 973e 7406 5b3e d9a0 febe 18a9 7a3e
00000100: 9eb3 b33e a8d9 953e ec23 bf3d 67ad 4bbe
00000110: ea76 98be 1a00 a7be 5099 6d3e 7e0e 033e
00000120: aafb 873e 7bb1 643e ff66 51be d4ca 183e
00000130: b1f2 713c 53b8 5fbe 3f43 d23d 0658 a8be
00000140: d4a3 97bd ba53 f73e d08b 94be 7c45 fdbd
00000150: 12d8 063e 5a51 fa3d de6d 61be db07 29bd
00000160: 660b b43e f4fb 83be 0581 03bf 4d8a 2ebe
00000170: 3e4b 51be dd95 513e 9b51 1e3e d5cd 3dbe
00000180: ad1f 65bd 25cb 923e 6645 663d 0aa2 943e
00000190: de2b 47bf 380c 503e aeb4 0c3e 6509 2f3d
000001a0: 4cdc 85be 16a8 8cbe 3284 f43e d826 8dbe
000001b0: 14b0 673e 92b4 d8be 459c 8abe 1060 52be
000001c0: 923e ea3c 7aa7 863d cfed dd3d ebaa 6dbe
000001d0: 9c8e a13e 44af 883d 89b6 8cbe d165 1c3e
000001e0: 9a97 94bb af51 9cbd 22fd cf3d 56e1 03be
000001f0: 590c bbbd 337a 10bf 00d7 1abf 1c61 aabd
00000200: 9b6b 4b3e 0344 663e b81d 513f de30 223e
00000210: 1f4f acbe c71d d53e 30ed 12be c6b0 69be
00000220: e476 babe 4a0e 813e 41fe 033f 6295 07be
00000230: 2ef0 cebe 3e1b 8e3e 5a01 6d3d fafb 9cbe
00000240: c9a5 643e bb93 933e ea8b 543e 1e7c a9bd
00000250: e128 ec3e 5bed be3d 1685 473e a172 893e
00000260: d2a8 b9bc d3e5 eabe db09 b93c b90b 063d
00000270: cc57 e6bd 8145 4e3f 0a40 96be 5bdc 943d
00000280: 3f1c c1be d763 1b3c 1da0 98be 7cac 3abe
00000290: a622 79be 88cc 3d3d cfca 6f3e 6048 a53e
000002a0: db87 383e cdc0 cfbd 4a85 633e 6bce 0cbe
000002b0: 3702 8f3e 6775 26be 6761 163f 9c81 b7be
000002c0: bcab e2be a229 a43e 1523 9ebb 6863 2dbe
000002d0: d99b cb3e c13a a9be dd67 713e 9c99 6e3e
000002e0: d374 09be 6bc0 9c3d c65d 693e 4f72 5dbe
000002f0: 47c4 813e dcfa a7be 2cb2 973d 9644 643e
00000300: e9b5 83bd 09a2 da3d 2d87 b7be 87b5 af3e
00000310: ca5b 7b3d 46ed 4a3e 9279 49bd d69f c3bd
00000320: a68b 073b c0c1 143f 4c77 3dbd bdda 123d
00000330: 8844 06be d97c b7be c96e 90be 60a4 fe3d
00000340: 3748 8a3e 2a7a 51bd 2283 253d 1c34 7b3c
00000350: 74f4 4ebe c8c8 dc3e 3336 89be 2d60 92be
00000360: 71cc bdbd e31a 963e 7195 433f 29d5 79bd
00000370: dfb6 e33d a58b 46bd 0461 d7bd f85f b3be
00000380: 5497 5a3e 6556 03bf 7fee 7bbe f033 b23e
00000390: 317c d03e e531 0e3e 9b8f 98be dfc9 96be
000003a0: 524d 913e 51bf 24be 46af 443e 84cd a3be
000003b0: 28c8 e33d 875e 623e 9ccf 683e dcfe 3fbe
000003c0: 8882 03bf 1d09 96bd 00bb 12be a0ff dbbd
000003d0: 7056 88bd a817 3b3f daad 323d 75a1 86be
000003e0: 097f e63d b707 803d d8ec 083e b19e b8be
000003f0: 3bb7 bb3d 586e 10be a1d2 983c dd3f f2bd
0.18918552 0.35824716 -0.22020711 -0.107842855 -0.065246634 0.040133376 0.17759916 -0.014197353
0.27437472 0.3314619 -0.08864677 -0.019580048 -0.3409818 0.13545969 -0.33071646 0.061173018
-0.2508629 0.113590136 0.07107125 -0.24834135 0.072451286 -0.07338579 0.05231051 -0.12009736
0.29381192 0.17157866 0.30189833 0.18446065 0.07307078 0.18374005 0.27443188 -0.32964307
0.09479377 -0.3144342 -0.35402274 0.17489156 -0.2486593 0.06061827 -0.22897293 0.2916342
-0.30154157 -0.084270686 -0.3927764 0.054037362 -0.2850331 -0.5259461 -0.39387876 0.20610885
0.05916153 0.682619 0.3483917 -0.07809308 0.23462984 0.5551852 0.1122386 0.35529462
0.24673517 0.21683487 -0.1983899 0.15341476 0.29614666 0.2138918 -0.49732092 0.24478567
0.35097975 0.2926762 0.093330234 -0.19890366 -0.29778224 -0.32617265 0.23203015 0.12798497
0.26559192 0.22333328 -0.20449446 0.14921123 0.014767335 -0.21847658 0.102667324 -0.32879657
-0.074042946 0.48306066 -0.29012918 -0.12366769 0.13168362 0.12222548 -0.22014567 -0.041267257
0.35164946 -0.25778162 -0.51368743 -0.17044945 -0.20438859 0.20467325 0.15460818 -0.1853555
-0.05593841 0.28670612 0.056218527 0.29029876 -0.7780131 0.20317161 0.13740799 0.04273357
-0.26144636 -0.2747199 0.47757107 -0.27568698 0.22625762 -0.42325264 -0.2707235 -0.20544457
0.028594289 0.06574912 0.10836374 -0.23209731 0.31554115 0.06674054 -0.27483013 0.15273215
-0.004534674 -0.076327674 0.10155703 -0.12878928 -0.091332145 -0.5643646 -0.60484314 -0.083193034
0.19865267 0.22486882 0.8168597 0.15838954 -0.33654115 0.4162428 -0.14348292 -0.2282134
-0.3641883 0.25206214 0.51559836 -0.13240579 -0.40417618 0.2775516 0.057862617 -0.30660993
0.22328867 0.28823647 0.20756498 -0.082756266 0.46124938 0.09322616 0.19484362 0.26845267
-0.022663508 -0.45878467 0.022587707 0.032726023 -0.11247215 0.80574805 -0.29345733 0.07268592
-0.37716863 0.009484253 -0.29809657 -0.1822986 -0.24329624 0.046337634 0.23417209 0.3228178
0.18020575 -0.10144196 0.22218814 -0.13750617 0.27931377 -0.16255723 0.58742374 -0.35841072
-0.44271648 0.32063013 -0.0048259594 -0.16932452 0.3976734 -0.33052638 0.23574777 0.23300785
-0.13423471 0.07653888 0.22789678 -0.21625637 0.2534506 -0.32808578 0.074070305 0.22291788
-0.06431181 0.10675437 -0.35845318 0.34318182 0.061366834 0.19817075 -0.049188204 -0.09551971
0.0020682602 0.5810814 -0.04625635 0.035853136 -0.1311208 -0.3583744 -0.28209522 0.12433696
0.2700822 -0.051141895 0.04040826 0.015332248 -0.20210439 0.43121934 -0.26799163 -0.28589
-0.0926751 0.29317388 0.76399904 -0.0609943 0.11118864 -0.04847302 -0.10516551 -0.35034156
0.2134679 -0.513037 -0.24602698 0.3480525 0.4071975 0.13886221 -0.29797062 -0.2945089
0.28379303 -0.16088606 0.19207487 -0.31992733 0.11122161 0.22106372 0.22735447 -0.18749565
-0.5137105 -0.07325957 -0.14329147 -0.10742116 -0.06657112 0.7308297 0.04362283 -0.26295057
0.11254699 0.062514715 0.13371599 -0.36058572 0.09165808 -0.14104593 0.018655123 -0.11828587

enc2.0.proj.pointwise.bias f4 [32]
00000000: 3d98 a23d 7025 5e3d ef67 6abe 1930 37be
00000010: 48ee b43e 948f 813e bf5b 63be 8296 01be
00000020: 9a69 3dbe 16af b8be 7854 c0bd 5eae 143f
00000030: 4dde 6b3e da84 353e 051a 7cbe 2a1e 263e
00000040: acfd a63d 6d4d 2e3d 5494 fdbc cff2 e23d
00000050: 4e90 113e adaa 263e 69ad efbb b575 aabe
00000060: f943 833e 279a 02bc db1e 153e a944 02be
00000070: 8a1a 983d 2a24 84bd f292 f9be c86f 943d
0.079391934 0.054234922 -0.2289121 -0.17889442 0.35338044 0.25304854 -0.22202967 -0.1265507
-0.18497315 -0.3607108 -0.09391111 0.58078563 0.2303402 0.1772646 -0.246193 0.16222444
0.08153853 0.042554308 -0.030954517 0.11081468 0.14215204 0.16276045 -0.0073143733 -0.33292928
0.25637797 -0.007971323 0.14562552 -0.12721504 0.07426937 -0.0645221 -0.48744923 0.07247883

enc2.1.conv1.depthwise.weight f4 [32, 1, 5, 5]
00000000: cc59 f53d f760 a8be abd3 3a3c 45d7 a93d
00000010: 3410 a43c 45e5 81be 0996 8f3d 7a1e a5ba
00000020: 3c76 993e fb01 103e e93e 82bc a6bf 603d
00000030: d4f5 01bf 6a5e 08bd 4001 35bc 0be4 993c
00000040: 5754 953d 6156 09bd fa16 99bd cc75 0f3e
00000050: a38c b83b 0b09 29be 3434 ee3d 299c bdbd
00000060: fb99 243d 5a7f 9f3d c0d3 edbd 5d9e a63d
00000070: 2635 9b3d 54e0 ad3d 39d2 c73d 45b2 57be
00000080: a6a5 d53d 3c7e 7e3e d949 1d3e f380 db3d
00000090: 9d92 84bd d725 e03d 5c7e dc3d a8d2 49bd
000000a0: 2f1b 9b3e 6a40 e0bd dac4 91bd c0e0 a3be
000000b0: df68 183e 5c46 f3bd e542 10be 6fff 383e
000000c0: 0a60 7b3e 9a94 153d 69fb 20bd 7fa7 5b3e
000000d0: 4d05 1d3e 9fc5 a83b 8122 10bd 75f9 203c
000000e0: 4bc3 cf3c df4c 573e d1b3 d93c f175 693d
000000f0: 8be9 623d 19a2 9b3d 9202 0b3e 4fdb 2f3e
00000100: 4818 ad3d 2c82 193d 4004 913e c524 c73e
00000110: e94b a83e 7f6e 8e3d 9012 22be 2552 d33d
00000120: 532a 5f3e 60f4 ca3b b664 14bd c090 df3d
00000130: ac0e 44bd 3f05 493e 733b 4bbd b096 36bd
00000140: 5dd5 613d 4e81 3f3e 76e0 e53d 9e35 183e
00000150: be97 6bbd 39a6 0fbd c2e8 b2bd 0612 2fbe
00000160: fd57 82bc ffb4 15be c3f1 16be 80d1 10be
00000170: 4e58 4c3e 82ac 17be 6dc3 cdbd fee9 dfbd
00000180: e59e 2b3d 7f47 eabd 6904 2dbe f61f 1dbe
00000190: ff1e 573d b417 e13d 353b 33bd d3e7 92bd
000001a0: 4222 8a3c e8fc 1ebc 93ac 7d3c c0dc 2e3e
000001b0: 6e90 7dbc 9465 aa3d c707 793b 9a20 52bd
000001c0: c3ed 093d 61fd 323e 4d43 ab3e fe47 81bd
000001d0: bb55 8fbe eb8c 56be 5007 b3bd bcef 853d
000001e0: 062d 7c3d 338c cbbd ac1e e63c 2cad 463d
000001f0: 6063 793e 8297 a23d 4599 5cbe 64ee 1f3e
00000200: 99f6 3a3e a160 783c be94 2d3d 56e2 123e
00000210: 0dd4 04be 030d ffbd 6fb4 2e3e 4298 dabd
00000220: f4e3 ae3b 5177 29bf 6de2 eabd 25fe e53d
00000230: a5dc ad3d 5bb7 4cbe b3ee 00bf 61d6 a1bb
00000240: 298b 4f3c 8e5e cabd 6f5f aabd 8954 a33d
00000250: 929b 43bd 1f52 3b3a f29e 593d 5b68 233e
00000260: c69e 3dbc ee16 16be 499e aa3d 14ea 89bd
00000270: 0698 f93c f38e 84bc 6652 b6bd 3006 7fbd
00000280: c095 7c3d 10bb 8a3e 6ed8 03bf 5456 8abe
00000290: cdf7 81bd 2d77 c1bd bc4e 6f3c 7972 33be
000002a0: 2b2a 5cbd 45a1 febd 11f3 2d3e 5c41 a5bd
000002b0: 87f4 69be c543 42bc c36e debc 36f9 a73d
000002c0: 3805 77bd 8a16 28bd 4bed 85ba d52f a23d
000002d0: 034d 09bd 9158 0dbe 1a61 f33d 9ed9 613d
000002e0: 62ab f2bd 5af4 463d 677a c0be 18c9 41be
000002f0: a063 b93e 687b b33d 98a9 dfbb 4950 73be
00000300: 31fe e9be 4231 b73e fd3b 023e 62f6 183d
00000310: b339 9cbd 920a 2dbe 4092 003e 1d9e f33d
00000320: bf89 23be a9ac d03d 09e4 1c3b c365 c9bd
00000330: fd11 27be 760b 9d3d 1d38 bc3d 5216 a4ba
00000340: 933a 3c3e 7a19 e53d d2bf aebb b2f8 4abe
00000350: d97a 37bd 218f eb3d fa56 26be de24 253e
00000360: d00a f1bd a42b 4bbe 33ea 113e 322e 3abd
00000370: 604f 19be 96bd febd c9dd 423e 6aba 14bd
00000380: c831 35be e1cb a03c 683f 903d cf37 35be
00000390: 4a21 403e 0ec5 3abe 5f99 dabd fa03 14be
000003a0: 6f35 ec3d b137 853d 2cf1 3ebe 8b28 d63d
000003b0: c3a7 193e f75d ab3d 4681 973d d657 edbd
000003c0: 2c23 3e3d 21f6 93bc 1fe7 8e3d d31e f33a
000003d0: 03c7 2d3e 83a0 fb3d a416 343b f917 93bd
000003e0: 1c81 1ebe 44fb 833d 2885 33bd c6d9 bc3c
000003f0: 65e0 4cbe 43bb c23b 5c50 b63d 5393 e3bc
0.11980018 -0.32886478 0.011403005 0.082930125 0.020027258 -0.2537023 0.07011039 -0.0012597584
0.29973018 0.14063255 -0.015899139 0.05487027 -0.5076573 -0.033293165 -0.011047661 0.018785497
0.07291477 -0.033529643 -0.074750856 0.1400978 0.0056319996 -0.16507356 0.11631051 -0.09258301
0.04018591 0.07787962 -0.11612654 0.08135674 0.07578497 0.08490053 0.09756894 -0.21064098
0.104319856 0.24852842 0.15360202 0.107179545 -0.06473277 0.109447174 0.10766289 -0.049273163
0.30294177 -0.10949786 -0.071176246 -0.32007408 0.14883755 -0.11878654 -0.14088018 0.1806619
0.24548355 0.03651867 -0.039302263 0.21450613 0.15334053 0.0051505114 -0.035189155 0.0098251
0.025361678 0.21025418 0.026575001 0.056997243 0.055398505 0.07599277 0.13575199 0.17173503
0.08451897 0.037477657 0.28323555 0.3889524 0.32870415 0.06954669 -0.15827394 0.10318402
0.21793489 0.0061936826 -0.036228858 0.10916281 -0.047865555 0.19630907 -0.049617242 -0.0445773
0.05513512 0.1870167 0.11224453 0.14864203 -0.05751776 -0.03507063 -0.08735801 -0.17096719
-0.015911097 -0.14619826 -0.14740662 -0.14142418 0.1995556 -0.148119 -0.1004704 -0.10933302
0.04189958 -0.11439418 -0.16896214 -0.15344223 0.052519795 0.10990849 -0.043757636 -0.07173123
0.016862039 -0.009703852 0.015483039 0.17076397 -0.015476329 0.08320156 0.003799902 -0.051300623
0.033674013 0.17479469 0.33449784 -0.063125595 -0.27995095 -0.20952193 -0.08741629 0.06539866
0.061566375 -0.0993885 0.028090797 0.048504993 0.24354315 0.07939054 -0.21542843 0.15618283
0.18258132 0.015159757 0.04237818 0.14344153 -0.12971516 -0.12453654 0.17061017 -0.10673572
0.0053372327 -0.6619769 -0.114689685 0.11230115 0.0848935 -0.1999182 -0.50364226 -0.004938886
0.012667456 -0.09881316 -0.08318984 0.07975108 -0.047755785 0.0007145721 0.053130098 0.15957777
-0.011573499 -0.14657184 0.08330972 -0.067341 0.030467998 -0.016181445 -0.08902435 -0.06226176
0.06166625 0.27095842 -0.5150212 -0.27018988 -0.063460924 -0.09446559 0.014606174 -0.17524137
-0.053751152 -0.124331035 0.16987254 -0.08069107 -0.22847186 -0.011856978 -0.027152425 0.0820183
-0.06030771 -0.04103712 -0.0010217814 0.079192795 -0.03352071 -0.13803317 0.11883755 0.055139177
-0.11849095 0.048572876 -0.37593386 -0.18924367 0.3620882 0.08763772 -0.006825637 -0.23761095
-0.45701745 0.35779768 0.12718196 0.037344344 -0.07628193 -0.16898564 0.1255579 0.11895392
-0.15970515 0.10189182 0.002393963 -0.09833863 -0.16315456 0.076682016 0.0919039 -0.0012518859
0.1838172 0.111865 -0.0053329254 -0.19821432 -0.04479489 0.11501909 -0.16244116 0.16127345
-0.117696404 -0.19840866 0.14249496 -0.04545421 -0.14971685 -0.124385044 0.19029917 -0.03631059
-0.17694771 0.019628467 0.07043344 -0.1769707 0.18762699 -0.18239233 -0.106737845 -0.14454642
0.11533629 0.06504763 -0.18646687 0.10456952 0.15005402 0.08367532 0.07397704 -0.11589019
0.04642026 -0.0180617 0.069776766 0.0018548615 0.16970448 0.122864746 0.0027479315 -0.07182307
-0.15478939 0.064444095 -0.04382816 0.023053061 -0.20007475 0.0059427335 0.08902046 -0.02778021

enc2.1.conv1.pointwise.weight f4 [8, 32, 1, 1]
00000000: 85bf 043f 99a3 0abe 8c73 9d3e e1ff 143d
00000010: 5078 923e 052d b43e 3b8b 40bc 6bc1 75bd
00000020: 570a efbc 61a1 e4bd 5d54 ea3c ea9d 2cbe
00000030: 03fe 74bc b84f bf3d a9a2 ab3d c39f e6bd
00000040: 16c5 fabc 20c2 87bc ffbb 28bf 4d02 b73d
00000050: c406 bcbe e196 6c3d 73e7 fbbe 1eed a53d
00000060: 24f8 543e 8960 5f3d b58f 1f3e eb76 c4be
00000070: 8c10 8fbe d066 3abd 4a8f 52bd 0216 27be
00000080: 645e 38be 32f2 403d 9af2 d53e 0525 b9bd
00000090: 1744 fa3b e8b0 d83e dc1f cabd 2f7e 863e
000000a0: 4cab 21be eb6e a43d 2a0a b5be e653 3b3e
000000b0: c6a3 793e a5b9 493d 32cb 9cbd 5d35 13bf
000000c0: 5c41 17be dc67 0d3e 8e2b ffb9 820f 553d
000000d0: 3112 29be 5cf6 923d dd22 9f3e 25e2 d2bc
000000e0: 9824 7bbe 6243 2abe a8ae b83e fd69 7bbe
000000f0: 40cd 513d 42fd 5abd c7bc babd 1092 a83d
00000100: 9d99 1a3d 00a0 363e cc65 893e a239 10be
00000110: 6d6e 8bbd 2344 9dbe d3ef 643e 9bea 6f3d
00000120: 8c8d 943d 44ec 9b3c e317 18bd 43f9 583e
00000130: c365 233d 4e9a 2e3e 3d00 a3bc 93c9 58bd
00000140: 1f07 343e a729 e83b 109f 59be 1a5f 5fbd
00000150: 4475 b3bc 9305 3fbc e028 363e 9349 b0bd
00000160: 15cc 053e 7274 65be 4bca 863c 2deb b2bd
00000170: 3066 45be df4b 503d 113c dc3c 3967 e53c
00000180: 0d85 94be 2a85 5e3e 0862 633d 50ad 0dbe
00000190: 3ed3 a13d dab0 adbe 014c 9a3e 027b b13c
000001a0: 92f2 91bd e2b2 863b 9adb fcbd 23e1 3b3b
000001b0: ff46 0f3e 2e58 043d 8167 113e 46cc 26be
000001c0: 0c6a 65bd 7302 9c3c 3d54 903e 4563 4abe
000001d0: 5ce3 8b3c 034d debc 6413 a13c 0f2f d23d
000001e0: d615 473e 7fdc 9a3e 45d8 0bbe 3ac5 1ebc
000001f0: dcfc f2bd ab28 d93d 351e b53d 976b d0bc
00000200: 5bdf a0bd d0f6 c73d c05b 803c 973e 17be
00000210: 23d9 303e db33 a63c 7365 9d3d 05dc 97bc
00000220: 02d7 9fbd 22dc 943d 6c4f e9bd da57 72be
00000230: e043 12be fb60 e1bd b70f 003f 6c8f 773d
00000240: 775e af3d ec3e 663e 5ae9 e3bd 5bd2 4e3e
00000250: c479 33bd b54e ccbc 262f a73d ae5a c7bc
00000260: 77b6 5dbe 5423 623e d3d8 c4bd aae1 afbb
00000270: a452 38be d556 d63d 7dfe 49be 3b63 963d
00000280: 2b82 343d 57ee ef3d bd96 a8be 3dfe 01be
00000290: c635 333e 756d d63d 2a7c b93c 002b f23e
000002a0: 8ada e33d 77ff 28be f69d dabd 9918 92bc
000002b0: e095 f7be 56f8 153c b779 bbbd 58c3 5f3e
000002c0: 3ed8 73be 65b1 4e3d a53c 11bd 84e7 9a3d
000002d0: 8039 843f 4829 573f a5ab 173c e395 9dbd
000002e0: feff 27be 1947 be3b 5330 97bd 7665 233f
000002f0: 60d2 13be 9fad 6bbc b0d2 473f bff3 7cbd
00000300: 57ff 6abe 456c b43c 7be0 bc3e 8c41 273e
00000310: d303 123e 0190 bdbd c2a5 933b a32e f93e
00000320: 7a45 7a3d cebd 05be 8604 693d d5d3 91bd
00000330: f8e1 433e 7a89 583d f4be c83d e267 38be
00000340: 9039 5c3e f7a8 b2be 738c 31be 4a46 21be
00000350: 97b5 43be 27ed 2f3c 37ff 53bc 994e 09be
00000360: 8dac 393e 7c1a 8b3d e02a 01bf 950b 0bbf
00000370: 9fb6 943e 0288 a8bd a6d7 673d 7db9 773e
00000380: 4924 fc3b 06eb 863d 8550 a63c f460 76bd
00000390: 85d2 84be 2a5a debd a9df 863d f00b 4ebe
000003a0: 7772 a63d 9427 bf3d 8420 873e cb4c d7be
000003b0: 155e 7fbe d58a 0cbf 6c5a 88bd 09a0 20bf
000003c0: c147 0dbe 495e b2be b67e cebe 8144 4abd
000003d0: 1765 453f 01d2 8ebc 41e9 043e c506 afbd
000003e0: 0c5e 133e f83f c3bd 0179 19bf 9ecc 93be
000003f0: 3931 233f e367 273d 9609 cbbd 2240 a63d
0.51854736 -0.1353897 0.30752218 0.036376838 0.28607416 0.35190597 -0.011751945 -0.05999891
-0.029179735 -0.11163593 0.02860468 -0.16857114 -0.014953139 0.09341377 0.08380634 -0.11260941
-0.030611556 -0.016572058 -0.6591186 0.08935986 -0.36723912 0.057761077 -0.4920002 0.08101867
0.20797783 0.054535422 0.15582164 -0.38371977 -0.27942312 -0.045508206 -0.051406182 -0.16316989
-0.18004757 0.047105975 0.41786653 -0.09040264 0.0076375115 0.4232247 -0.09869358 0.26268145
-0.15788001 0.080289684 -0.35359317 0.18293723 0.24378881 0.04924931 -0.07655944 -0.575033
-0.14771026 0.1380915 -0.0004866984 0.052016743 -0.16510846 0.071758956 0.31081286 -0.0257426
-0.24525678 -0.16627267 0.36070752 -0.2455215 0.051221132 -0.05346418 -0.09118038 0.08230984
0.037744153 0.17834473 0.26835477 -0.14084485 -0.068081714 -0.30716047 0.2235711 0.058573347
0.072535604 0.019033559 -0.037132155 0.21188836 0.03989197 0.1705105 -0.019897575 -0.05292661
0.17580841 0.0070850435 -0.21252084 -0.054534055 -0.021906503 -0.011659044 0.1778903 -0.08607783
0.13066132 -0.22407702 0.016453883 -0.087362625 -0.19277263 0.050853606 0.02688411 0.028003322
-0.2900776 0.21730486 0.05551341 -0.13835645 0.079016194 -0.3392399 0.3013611 0.0216651
-0.07126345 0.00411068 -0.12346573 0.0028668127 0.13991927 0.032310657 0.1419964 -0.16288862
-0.056009337 0.019044137 0.2818927 -0.19764431 0.017076187 -0.027136331 0.019662566 0.10262882
0.19441923 0.3024635 -0.13656719 -0.009690577 -0.11864635 0.1060346 0.08843652 -0.025441928
-0.07855102 0.097638726 0.01566875 -0.1476997 0.17270331 0.020288398 0.076853655 -0.01853753
-0.07804681 0.072685495 -0.11392102 -0.23666325 -0.14283705 -0.11004826 0.5002398 0.060439512
0.085629396 0.2248494 -0.11128493 0.20197432 -0.043817297 -0.024939874 0.0816329 -0.024335232
-0.21651636 0.22083789 -0.096116684 -0.0053674774 -0.18000275 0.10465781 -0.19725986 0.073431455
0.04406945 0.117153816 -0.32927504 -0.1269464 0.17500982 0.10470096 0.022642214 0.4729843
0.111256674 -0.16503702 -0.1067466 -0.017833995 -0.48356533 0.009153446 -0.09154075 0.21851861
-0.23812959 0.050462145 -0.035458226 0.07563689 1.0330048 0.84047365 0.009257232 -0.07694604
-0.16406247 0.0058068153 -0.07382264 0.6382669 -0.1443572 -0.014384656 0.7805586 -0.061755892
-0.22948967 0.022024283 0.36890015 0.16333598 0.14259271 -0.09255982 0.004505844 0.48668393
0.061101414 -0.13060686 0.05688908 -0.07120482 0.19129169 0.052865483 0.098020464 -0.18008378
0.21506333 -0.34894535 -0.17338733 -0.1574947 -0.1911224 0.010737694 -0.012939266 -0.13408889
0.18132229 0.06792161 -0.5045605 -0.5431455 0.2904558 -0.082290664 0.056602143 0.24191852
0.007694755 0.06587796 0.020302067 -0.060151055 -0.25941864 -0.10857041 0.065856285 -0.20121741
0.08127301 0.09333721 0.26391995 -0.42050776 -0.24938233 -0.5489934 -0.066578716 -0.62744194
-0.13796903 -0.3483756 -0.40331048 -0.049381737 0.77107376 -0.017434122 0.12979604 -0.08546213
0.14391345 -0.095336854 -0.5995026 -0.28867048 0.6374698 0.04087056 -0.09913938 0.08117701

enc2.1.conv1.pointwise.bias f4 [8]
00000000: 2b55 cb3e ebe8 e83d 882a 973e 303e 89bd
00000010: 1b8b 5b3d fe55 be3d 5ef6 83bd 2762 a83d
0.39713416 0.113725506 0.29524636 -0.067013144 0.05359946 0.092937455 -0.06443475 0.08221846

enc2.1.conv2.depthwise.weight f4 [8, 1, 5, 5]
00000000: b772 053e fa65 58bd 0778 48be a97f b6bd
00000010: cd8e 573e 386f 923c 7092 8abe afe4 e13e
00000020: dfbe 273f 9513 73be a5cb 913e 5c60 46be
00000030: 3d0d a1be 2327 2b3d 2e6a 83be 52bb 2c3e
00000040: 7c1b 86be 2f37 0abf 2ddd 32be 7575 fe3c
00000050: f94a e83d c952 043e 50f5 603e 3c79 7f3d
00000060: 524d 3a3d 5919 40bd 3e8c 1c3e 3053 80bd
00000070: dbcd c13d 2988 cf3d dfa2 8e3e df66 b0bd
00000080: d8d9 bb3e b7b3 9e3e d00a 883d 3d03 13be
00000090: 2ac9 523e e7cc d23e 2c14 4b3c 0b3e ba3c
000000a0: 62d2 4c3d c491 3bbe 0578 99bd 23ef 8b3d
000000b0: 0336 b43d 0e99 c63d ad40 b13d 91b7 efbd
000000c0: 2f13 2c3d 7cc2 44bd f2ca a33d c768 0cbe
000000d0: f15b 39be 12f2 8d3c 5bc2 cfbb e55c 4c3d
000000e0: 3abc 453d 31d2 79be ea92 d0be 6f38 f33c
000000f0: 77ba 613e 6d4f 38be 4f16 5cbe 0ce7 7bbe
00000100: 2258 513e 4f98 323d d9d7 873e f19b 963d
00000110: 5d96 f9bd 32b1 173e d3a7 003e cd13 033e
00000120: 9662 da3d 21af 5c3e bf50 da3d 8e7f 03bc
00000130: 4a08 543d 03f4 023d b83e a6bd af13 8ebd
00000140: f788 f53c 61fc 27bd e83f e6bd fbb4 163e
00000150: 4403 3e3e 8cae 46be 4450 4abe 43e7 4fbe
00000160: 9093 a43e 2e8b 51bc 1cdb 28bd 052d e5be
00000170: e4c9 713e 1959 053f c810 543d d79c a2bb
00000180: 39aa 52bd 1af3 0bbe e4b2 18be ea76 cb3d
00000190: 02c7 a63c 2ab4 b2bd 81ed 0dbe e355 9dbd
000001a0: 6e8b 603c e923 fe3c 352f 543e 22e8 f13c
000001b0: 010d 133e 88eb 1b3a eabe 3abe 66e5 5ebe
000001c0: 95c9 8bbe c4ab a43d 448e 7e3e 8523 61bc
000001d0: f6a6 24be 3ca7 803e 5eaa 853d 9d57 973d
000001e0: 1c34 cf3d 67cf 4e3e 1deb 8e3d d5ef 003e
000001f0: 8944 b6bc 134d 9dbe a10e 7e3c 2019 cb3d
00000200: bd0f 9c3d 9b1d a2bc fbf6 bfbe fd58 ddbe
00000210: 62be d63e f04f 313d e20a a93d 2a10 f13c
00000220: 1f9d b9bd 123a ed3d 31c5 41be 616c 143d
00000230: 4d8f b33e 8bc9 b6bc b2b3 debc d96a 8dbd
00000240: 3e0a d8bd 72d6 76be fcd2 ecbc 4bb5 19bb
00000250: 72ee ec3c f9bb f43c 0449 863d c3e4 013d
00000260: 0d9b 933c e5e9 1a3d c77a 443d 0750 b4bd
00000270: f5a8 09be 3340 6abe 7bbe 18be b189 493d
00000280: 8304 273d fce8 cc3e bb33 aabe da28 cbbe
00000290: c56a 2b3e 7245 303d 63f1 353e af92 523c
000002a0: 38a6 7ebd 80e3 d53d f8c6 91bd ac6f 7dbe
000002b0: 7c17 ad3d df0b 9c3d 5bec 13bd b2c8 85bd
000002c0: 95d5 cd3e c431 f23d fe75 d7bc 3f89 4e39
000002d0: 84dc 1e3e 9754 6ebf 2632 d0bd 0c89 02bd
000002e0: 992e 083d 83bb d23d 08bc 93bf fd7d 22bd
000002f0: 9163 5ebd 86e6 06bd 5e1c 02be cc22 0e3f
00000300: e523 873e d43b a5bc 1609 a23d cfd8 813e
00000310: fe2c 49bc 1ec7 1abd ffa2 bf3d dbae 0bbb
0.13032041 -0.052831627 -0.19577037 -0.08911068 0.21050568 0.017875299 -0.27064848 0.44119784
0.6552562 -0.23737939 0.2847568 -0.19372696 -0.31455413 0.04178537 -0.25666946 0.16868332
-0.26192844 -0.53990453 -0.17467184 0.031061867 0.11342425 0.12922205 0.2196858 0.062371477
0.045483895 -0.046899173 0.15287873 -0.06265867 0.09463092 0.10133392 0.27858636 -0.08613371
0.3668964 0.30996487 0.06642687 -0.14356704 0.2058455 0.41171953 0.012394946 0.022734663
0.050005324 -0.18317324 -0.07493595 0.06832721 0.087993644 0.096971616 0.08654914 -0.117049344
0.042010482 -0.048037037 0.07997693 -0.13711844 -0.18101479 0.017327342 -0.0063403076 0.04989328
0.04827521 -0.24396588 -0.40737087 0.029689996 0.22043787 -0.17999049 -0.21492885 -0.24599856
0.20443776 0.043602284 0.26531866 0.07353962 -0.12186883 0.14813688 0.1256402 0.12800522
0.10663335 0.21551181 0.10659932 -0.008026017 0.051765718 0.03197099 -0.081174314 -0.06937348
0.029972536 -0.04101217 -0.11242658 0.14717476 0.18555933 -0.19402522 -0.19757181 -0.20303063
0.3214383 -0.012789531 -0.041224584 -0.4476091 0.23612171 0.5208908 0.051773816 -0.0049625444
-0.05143187 -0.13666955 -0.14911991 0.099347904 0.020358566 -0.0872577 -0.13860132 -0.07682397
0.013705118 0.031022983 0.20721133 0.029529635 0.1436043 0.00059478777 -0.1823689 -0.21767196
-0.27302232 0.08040574 0.24858958 -0.013741379 -0.16079316 0.2512759 0.065266356 0.07389758
0.10117361 0.20196305 0.06978438 0.12591489 -0.022249477 -0.30722865 0.0155064175 0.099169016
0.07620189 -0.019789508 -0.3749312 -0.43231955 0.41942126 0.043289125 0.08254029 0.029426653
-0.090631716 0.11583342 -0.18922879 0.03623617 0.35070267 -0.0223129 -0.027185295 -0.06905145
-0.105488285 -0.24105242 -0.028909199 -0.0023454006 0.028922293 0.029874789 0.065568954 0.031712305
0.01801827 0.037820715 0.047968652 -0.088043265 -0.13443358 -0.22876053 -0.14916413 0.04920358
0.040775787 0.40021503 -0.33242592 -0.39679605 0.16739948 0.04303498 0.17767863 0.012852355
-0.062170237 0.10443783 -0.071180284 -0.2474963 0.08451745 0.07619452 -0.036114078 -0.0653242
0.40202013 0.11825898 -0.02630138 0.00019696819 0.15513808 -0.93097824 -0.10165815 -0.03186898
0.033247564 0.10289671 -1.1541758 -0.039670933 -0.054294173 -0.032934688 -0.12706134 0.55521846
0.26394573 -0.02017013 0.07911889 0.25360724 -0.012278793 -0.03778755 0.09357261 -0.0021313939
