archs/basicSR_models/onnx/pmrid_d_denoising.onnx (onnx, 687203 bytes, 141 tensors)

conv0.conv.weight f4 [8, 3, 3, 3]
0	0x3dcf895e	0.101336226
1	0x3e15b44c	0.14619559
2	0xbdf602bf	-0.120122425
3	0x3dd4aef8	0.10384935
4	0xbf136884	-0.57581353
5	0x3c992b7b	0.01869749
6	0x3cbc023f	0.02295029
7	0x3d31d49c	0.04341565
8	0x3e14238d	0.14466687
9	0x3e241e81	0.16027261
10	0x3dd1daf1	0.10246838
11	0xbd57823c	-0.052614436
12	0x3d2ac47e	0.041691296
13	0x3ee545e7	0.44779894
14	0xbd6ce8c0	-0.057839155
15	0x3e9d69c1	0.30744746
16	0x3dfe7c1d	0.124260165
17	0xbcf99f63	-0.03047151
18	0xbdfc916c	-0.123324245
19	0xbce7d414	-0.028299369
20	0x3da0f04c	0.07858333
21	0xbe057f73	-0.130369
22	0xbea81e80	-0.3283577
23	0xbe0be470	-0.1366136
24	0xbd875beb	-0.06609329
25	0x3bfc1689	0.007693116
26	0x3e24a307	0.16077815
27	0xbd8fdcb7	-0.0702452
28	0xbe7758ce	-0.2415497
29	0xbb41c663	-0.002956771
30	0xbc623960	-0.013807625
31	0xbe29602e	-0.16540596
32	0x3b9921cc	0.0046732184
33	0x3cb5d33b	0.02219545
34	0x3e18e18f	0.14929794
35	0x3dfe07fc	0.12403867
36	0x3d30ca6e	0.043161802
37	0x3d29ee2d	0.041486908
38	0x3e020205	0.12696083
39	0x3debbcdb	0.11510631
40	0x3f1d3c17	0.61419815
41	0x3e9ba9ee	0.30403084
42	0xbe2862a9	-0.16443886
43	0xbe545291	-0.20734622
44	0x3e1d51e9	0.15363277
45	0x3db828dc	0.08992168
46	0x3e8d3f91	0.2758756
47	0xbd4c6a30	-0.049905956
48	0xbd1b93f9	-0.037982915
49	0xbd3c12b4	-0.045916274
50	0xbead5247	-0.33851835
51	0xbc6b5885	-0.014364366
52	0xbe0c2505	-0.13685997
53	0xbd7beebc	-0.06150697
54	0xbcd86935	-0.026417354
55	0x3ca1a892	0.0197337
56	0xbd2b114c	-0.041764542
57	0x3d4f29d6	0.050577007
58	0x3f249817	0.6429457
59	0xbb543bc0	-0.0032384247
60	0x3d4703e9	0.048587713
61	0x3d80ebca	0.06294973
62	0xbd3f502b	-0.046707314
63	0x3dfaf392	0.122534886
64	0xbd1de340	-0.0385468
65	0x3e3da4a3	0.18519835
66	0x3d3c1058	0.045914024
67	0xbdfac810	-0.1224519
68	0xbe1eb5e7	-0.15499078
69	0x3c72b9ff	0.014814853
70	0x3e87f119	0.2655113
71	0x3dfbcf86	0.12295441
72	0x3d36b090	0.044601977
73	0x3e2db750	0.1696446
74	0xbd415482	-0.047199734
75	0x3cfbb6c0	0.03072679
76	0xbf5abee3	-0.8544752
77	0x3cb58b58	0.02216117
78	0xbdad95ac	-0.08475813
79	0xbe184b98	-0.14872587
80	0x3c843bd4	0.01614181
81	0xbd8ea119	-0.06964321
82	0x3e9ece00	0.3101654
83	0x3d7ca470	0.061680257
84	0x3e76550a	0.24055877
85	0x3dc36673	0.09541025
86	0x3cd6b396	0.02620868
87	0x3d8609d3	0.065448426
88	0xbe0c1376	-0.13679299
89	0xbdcd3fd9	-0.100219436
90	0x3e2842fa	0.164318
91	0x3d131ec2	0.035918005
92	0x3e4ce667	0.20009767
93	0x3dc88ee1	0.09792877
94	0xbe0f2792	-0.13979939
95	0x3d6f6a52	0.058451004
96	0xbe059daa	-0.13048425
97	0x3cd9492b	0.026524147
98	0xbde6eb27	-0.112753205
99	0xbd81582e	-0.06315647
100	0x3d82388d	0.063584425
101	0xbe207fd8	-0.15673769
102	0xbd71b882	-0.05901385
103	0x3eb411bf	0.3516979
104	0x3d28cd0e	0.04121118
105	0x3da62c7d	0.08113954
106	0x3de264a8	0.11054355
107	0xba5ffcd2	-0.0008544448
108	0xbd899a89	-0.06718928
109	0xbe124c32	-0.14286879
110	0xbd81c1d1	-0.06335796
111	0x3da18228	0.078861535
112	0x3effb316	0.4994132
113	0xbe458296	-0.19288096
114	0x3df0dbc5	0.11760668
115	0xbc681cc5	-0.014167015
116	0x3d1e3a12	0.0386296
117	0x3cb4d9dc	0.02207654
118	0xbe09afeb	-0.13446014
119	0xbddb5a4a	-0.10710581
120	0x3e2f116c	0.1709649
121	0x3a68d38a	0.00088816194
122	0xbcad6ac5	-0.021169076
123	0x3b74fba1	0.0037381428
124	0x3dd35395	0.103186764
125	0xbdc6b615	-0.09702698
126	0xbcdbb101	-0.0268178
127	0x3df331ef	0.118747585
128	0x3d3ff918	0.046868414
129	0xbca8d59b	-0.020609668
130	0x3e7679b4	0.24069864
131	0xbda5b0a7	-0.080903344
132	0xbd270f8f	-0.040786322
133	0x3dfa7631	0.122295745
134	0x3cc6d777	0.024272664
135	0x3adc651d	0.0016814802
136	0xbd1ec3c0	-0.0387609
137	0x3e030bd6	0.12797484
138	0xbe9151ba	-0.28382665
139	0xbda9d077	-0.08291715
140	0xbe225c3b	-0.15855496
141	0x3e708551	0.23488356
142	0x3e46b3ed	0.19404574
143	0x3c85dc84	0.016340502
144	0xbcd3b87c	-0.025844805
145	0x3e577e95	0.21044381
146	0x3e884781	0.26617053
147	0x3d402c89	0.046917472
148	0x3d471f95	0.048614103
149	0x3e410e7d	0.18853183
150	0xbe09d0a3	-0.13458495
151	0x3e340808	0.17581189
152	0xbdd30443	-0.10303547
153	0x3dbbe68b	0.09174832
154	0xbe1f99d0	-0.15586019
155	0xbddd0e05	-0.1079369
156	0x3ba84496	0.005135129
157	0x3e90a663	0.28251943
158	0x3d0ce0fc	0.03439425
159	0x383368c2	4.277449e-05
160	0xbd890ff9	-0.066925
161	0x3dffaf4e	0.124846086
162	0xbd7f8029	-0.062378082
163	0xbbaf58c3	-0.0053511574
164	0xbcaa3eb0	-0.020781845
165	0x3d90830f	0.070562474
166	0xbe5d2695	-0.21596749
167	0x3d7540a8	0.059876114
168	0xbb18359b	-0.002322531
169	0x3e3b5826	0.18295345
170	0x3e128fae	0.14312622
171	0x3e993edc	0.2993077
172	0xbdc201c2	-0.094729915
173	0xbe0418d1	-0.12900092
174	0x3ebfd8e3	0.3747016
175	0xbf235cba	-0.63813365
176	0x3e593ee7	0.21215402
177	0xbe693f17	-0.22777973
178	0x3e35bcd6	0.17747816
179	0xbcea7015	-0.028617898
180	0xbcbfc0cc	-0.023407362
181	0x3d17b841	0.037040953
182	0x3e10fb1f	0.14158295
183	0x3e2d2216	0.16907534
184	0x3e680dbd	0.2266149
185	0xbd369181	-0.044572357
186	0x3d59b789	0.05315355
187	0x3e7da680	0.24770546
188	0x3d846703	0.064649604
189	0x3e4da507	0.20082484
190	0x3dd39757	0.103316
191	0x3e161011	0.14654566
192	0xbd887401	-0.06662751
193	0xbba628e3	-0.005070792
194	0x3e9dd842	0.30829054
195	0xbc126a34	-0.008936454
196	0x3cbad042	0.022804383
197	0x3e4601f6	0.19336686
198	0xbe682b16	-0.22672686
199	0xbebeb316	-0.37246007
200	0xbe5fd2b6	-0.21857724
201	0x3d0e58f7	0.034752812
202	0xbe20a58a	-0.15688148
203	0x3e978ff6	0.2960202
204	0x3e3fbd93	0.1872466
205	0x3d2905e4	0.041265383
206	0x3e1ec1e3	0.1550365
207	0xbbbf4b82	-0.0058378587
208	0xbdb6d477	-0.08927243
209	0x3e39f325	0.18159159
210	0x3dad105b	0.08450385
211	0xbd82315e	-0.06357072
212	0xbe40f539	-0.18843545
213	0x3d4cb85a	0.0499805
214	0x3e046432	0.12928846
215	0x3d7a2737	0.061072554

conv0.conv.bias f4 [8]
0	0x3e8ff942	0.28119856
1	0x3e674e8c	0.22588557
2	0x3e5f12d2	0.21784523
3	0x3ce4f5ad	0.027949179
4	0x3e3d0081	0.18457223
5	0x3d3f52f2	0.046709962
6	0x3dcbda24	0.099537164
7	0x3dc24350	0.09485495

enc1.0.conv1.depthwise.weight f4 [8, 1, 5, 5]
0	0x3d6ea10f	0.058259066
1	0x3e2bbeae	0.16771957
2	0x3e9bdf9c	0.30444038
3	0x3e4e408c	0.2014181
4	0x3dc6658b	0.096873365
5	0x3e3e8aa4	0.18607575
6	0x3e10e325	0.14149149
7	0x3d12804c	0.035766885
8	0x3e3c8561	0.18410255
9	0x3e00efde	0.12591502
10	0x3e388a16	0.18021426
11	0x3e9f6fd3	0.31140003
12	0x3e967c5c	0.29391754
13	0x3e1ec57e	0.15505025
14	0x3d023100	0.03178501
15	0x3ddda12d	0.108217575
16	0xbe0a7287	-0.13520251
17	0x3de8ed38	0.11373371
18	0x3d37b9fa	0.044855095
19	0xba944377	-0.001131161
20	0xbdda2c6a	-0.106530026
21	0x3d58356c	0.052785322
22	0x3d060e79	0.032728646
23	0xbe0dada6	-0.13835773
24	0xbd063567	-0.032765772
25	0x3dddb009	0.10824592
26	0xbdae06df	-0.08497404
27	0xbb8ca5a9	-0.004292209
28	0x3e0f17c4	0.1397391
29	0x3d5d559b	0.054036718
30	0xbe407609	-0.18795027
31	0x3e049010	0.1294558
32	0x3d06ab25	0.03287806
33	0x3e866ba6	0.26254004
34	0x3e0698af	0.13144182
35	0x3bd92eaa	0.0066278772
36	0x3dbb18a4	0.09135559
37	0xbc357cb1	-0.011077092
38	0x3e880320	0.26564884
39	0xbd84fd29	-0.06493599
40	0xbe8644f0	-0.2622447
41	0x3c91a61f	0.017779408
42	0x3c86004a	0.01635756
43	0x3de03313	0.10947242
44	0xbe203dff	-0.1564865
45	0xbdf55797	-0.11979597
46	0x3db3d30c	0.08780488
47	0x3d907f0e	0.07055484
48	0xbe29484c	-0.16531485
49	0xbd4ede4b	-0.050504964
50	0x3e157e4b	0.14598958
51	0x3cc1da15	0.02366356
52	0x3e3d59d9	0.18491305
53	0x3c98c556	0.018648785
54	0xbdc29776	-0.09501545
55	0x3e5e7f38	0.21728218
56	0x3e555cfb	0.2083625
57	0x3e533e99	0.20629348
58	0xbc1f994b	-0.009741138
59	0xbe5260d1	-0.20544745
60	0x3e1dcbf7	0.15409838
61	0x3e0fa2f1	0.14027001
62	0xbd15658e	-0.036473803
63	0xbe509c0d	-0.20372029
64	0x3cb4400b	0.022003194
65	0x3e3596f0	0.1773336
66	0xbd8a3746	-0.06748824
67	0xbe8d363b	-0.27580437
68	0xbe97f0f5	-0.29676023
69	0xbda91309	-0.08255584
70	0x3c9fa19a	0.019486237
71	0xbdfe519d	-0.1241791
72	0xbda92f24	-0.082609445
73	0xbdcd0567	-0.10010796
74	0xbc8b9b1f	-0.017041741
75	0x3e31401d	0.17309614
76	0x3c8bc385	0.017061004
77	0xbc15e733	-0.0091493605
78	0x3d470261	0.048586253
79	0x3e1b4684	0.15163618
80	0x3e785ca0	0.24254084
81	0x3e40ad52	0.18816116
82	0xbda78c60	-0.08181071
83	0x3e42e70c	0.1903345
84	0xbdcc710c	-0.099824995
85	0x3e4420a9	0.19153084
86	0x3da4cb0b	0.0804654
87	0xbe90d05d	-0.2828397
88	0xbe41aa22	-0.18912557
89	0x3d5045e5	0.050847907
90	0x3ecd8b7e	0.40145487
91	0x3d2f3b4a	0.04278115
92	0xbea51cb9	-0.32248476
93	0xbe9d23f8	-0.30691504
94	0xbe831f33	-0.2560974
95	0x3dc6ffaa	0.09716733
96	0x3d635d32	0.0555088
97	0xbe15e337	-0.14637457
98	0xbe25cff4	-0.16192609
99	0xbcca3665	-0.02468414
100	0x3ca3cce1	0.019995155
101	0xbd90b897	-0.07066458
102	0x3dc97c6e	0.09838186
103	0xbe8a9fbf	-0.27075002
104	0xbd787357	-0.06065687
105	0xbd4969d7	-0.049173202
106	0x3e138040	0.14404392
107	0x3e4d7777	0.20065103
108	0xbde6844f	-0.112557046
109	0xbe8f1882	-0.27948385
110	0xbe10cec4	-0.14141375
111	0x3eb53334	0.35390627
112	0x3e21a988	0.15787327
113	0xbd770cf6	-0.060315095
114	0xbe65b134	-0.22430879
115	0x3dc63c9d	0.0967953
116	0x3e33f9d2	0.17575768
117	0x3e3e3314	0.18574172
118	0xbdf01cd9	-0.11724252
119	0x3c9e815c	0.019348793
120	0xbc501dcf	-0.012702419
121	0x3de129da	0.10994311
122	0x3e0be7b5	0.13662608
123	0x3ca53a99	0.020169543
124	0x3cec5408	0.028848663
125	0xbdf82083	-0.12115576
126	0x3cb00dd0	0.021490961
127	0xbdc5cfee	-0.096588
128	0xbd92a416	-0.07160203
129	0x3e362482	0.17787364
130	0xbe12ba07	-0.14328776
131	0xbd48550a	-0.048909225
132	0x3cf09af6	0.029370766
133	0xbdcc1956	-0.0996577
134	0xbe00ac13	-0.12565641
135	0xbde66c9d	-0.11251185
136	0x3e868946	0.26276606
137	0x3e6fd226	0.23420009
138	0xbe7251ba	-0.23663989
139	0xbea18959	-0.315501
140	0x3e0e323c	0.1388635
141	0xbd10c665	-0.035345454
142	0x3e79f3b4	0.24409372
143	0x3b8991e0	0.004198298
144	0xbca1f6c6	-0.019770991
145	0xb9ad70bd	-0.00033081128
146	0xbe01108a	-0.12603965
147	0x3dab888e	0.08375655
148	0x3e976309	0.29567745
149	0x3e1acf0f	0.15118049
150	0x3d2bbcf4	0.041928247
151	0xbdba8d06	-0.09108929
152	0x3e24edf5	0.16106398
153	0x3e8735ac	0.26408136
154	0x3dde5998	0.108569324
155	0xbe2ad1b2	-0.16681555
156	0xbe251db2	-0.16124609
157	0xbe38ec95	-0.18058999
158	0xbd8b59f3	-0.06804266
159	0x3d8617e2	0.06547524
160	0x3aad54da	0.001322414
161	0x3b880bb6	0.0041517867
162	0xbcf56395	-0.029954711
163	0xbd1edff0	-0.038787782
164	0x3e6b0440	0.2295084
165	0xbdb220f7	-0.08697694
166	0xbe6a6b62	-0.22892526
167	0xbe65b4bd	-0.22432227
168	0x3e530a39	0.20609368
169	0x3dcd81ea	0.10034545
170	0x3d3d210a	0.046174087
171	0xbe0c2bd0	-0.13688588
172	0x3dd8b394	0.10581127
173	0xbcda23eb	-0.026628455
174	0x3e29dd8b	0.16588418
175	0x3e4551bf	0.19269465
176	0x3da5f01d	0.081024386
177	0x3d9aa15e	0.075503096
178	0x3e5b19e3	0.21396594
179	0x3e40e38b	0.18836801
180	0x3e1b9cea	0.15196577
181	0x3dec1ca8	0.11528903
182	0x3da4d0d4	0.08047643
183	0x3e811d64	0.25217736
184	0x3d80b178	0.062838495
185	0x3d8cdf94	0.06878582
186	0x3e2208dc	0.15823692
187	0x3cfe15fe	0.031016346
188	0x3d8fdbde	0.07024358
189	0xbe0789f8	-0.13236225
190	0xbd380135	-0.044923026
191	0xbc9414bd	-0.018076295
192	0x3dbb0b94	0.09133068
193	0xbca7eb2a	-0.020497877
194	0x3daa1e0a	0.08306511
195	0xbe1c4dcd	-0.15264054
196	0xbcb3134c	-0.021859787
197	0x3cf7d486	0.030252706
198	0xbc48461e	-0.0122237485
199	0xbe47242b	-0.1944739

enc1.0.conv1.pointwise.weight f4 [8, 8, 1, 1]
0	0xbda0506b	-0.078278385
1	0xbea1a86f	-0.31573817
2	0xbf19ee15	-0.6012891
3	0xbf545c68	-0.829535
4	0xbce058cc	-0.027386092
5	0x3d818ce9	0.063257046
6	0x3e7082e2	0.23487428
7	0xbeffdfff	-0.49975583
8	0xbbf2fbdd	-0.0074152783
9	0xbe16ca14	-0.14725524
10	0x3f64f090	0.8942957
11	0xbe59944b	-0.21247976
12	0xbe843c66	-0.2582733
13	0x3f3218c1	0.6956902
14	0x3eb16dc9	0.34654072
15	0x3d13987b	0.03603409
16	0x3ea02cb2	0.312841
17	0xbdd47388	-0.10373598
18	0x3d05bea3	0.03265251
19	0xbd870cde	-0.06594251
20	0xbe4bc3e1	-0.1989894
21	0x3ec7d507	0.39029714
22	0xbdad71cd	-0.084689714
23	0x3eb3f8e1	0.35150817
24	0xbdf2e7c2	-0.118606105
25	0x3d56261e	0.052282445
26	0xbe194e54	-0.14971286
27	0xbe14e355	-0.14539845
28	0xbe319313	-0.1734126
29	0xbe2df66e	-0.16988537
30	0xbddb08c7	-0.106950335
31	0xbe265e62	-0.16246942
32	0xbe5ca963	-0.21548991
33	0xbe2292b9	-0.15876283
34	0xbc82525b	-0.01590841
35	0x3e95cff4	0.29260218
36	0xbcb92645	-0.022601256
37	0x3d4559bb	0.048181277
38	0x3da669b1	0.08125628
39	0x3ebba81c	0.36651695
40	0xbe48fbd1	-0.1962731
41	0x3d6a19e8	0.057153612
42	0x3e406f4a	0.18792453
43	0xbe03f2e9	-0.12885632
44	0xbe875955	-0.26435342
45	0x3e0b628d	0.13611813
46	0xbdc70a72	-0.09718789
47	0x3de538e4	0.11192492
48	0x3e8b2529	0.27176788
49	0xbe829089	-0.25500897
50	0x3e12007f	0.14258002
51	0x3f18e4a8	0.597239
52	0x3f01913a	0.50612223
53	0x3e6f305c	0.23358291
54	0xbe462407	-0.19349681
55	0xbe652d06	-0.22380456
56	0x3f072814	0.5279553
57	0x3db76e50	0.08956587
58	0xbdb6d44d	-0.08927212
59	0xbf11ffdd	-0.5703104
60	0xbf1425ad	-0.5786999
61	0x3ea1a730	0.31572866
62	0x3d6ad24e	0.05732947
63	0xbda1cdd3	-0.07900586

enc1.0.conv1.pointwise.bias f4 [8]
0	0xbd93df89	-0.0722037
1	0x3be16aa5	0.006879168
2	0xbe8d6710	-0.27617693
3	0xbe51087f	-0.20413397
4	0x3e57f71b	0.21090357
5	0xbe890ed3	-0.26769122
6	0x3d0f41ab	0.034974735
7	0xbcada36c	-0.02119609

enc1.0.conv2.depthwise.weight f4 [8, 1, 5, 5]
0	0x3c704568	0.014664985
1	0xbd275e3f	-0.040861364
2	0x3b6ab473	0.0035813123
3	0x3cc4a823	0.024005955
4	0xbd55e6cb	-0.052222054
5	0xbd99a431	-0.0750202
6	0xbdf7d90a	-0.12101944
7	0x3f0dd14f	0.55397505
8	0xbf23ee37	-0.6403536
9	0xbda418ea	-0.080125645
10	0xbc9ba421	-0.018999161
11	0x3e9fd46c	0.31216753
12	0x3f026535	0.5093568
13	0x3ee8a485	0.45438018
14	0xbf3a210d	-0.7270668
15	0x3d74869a	0.05969868
16	0xbe5051c9	-0.20343699
17	0xbea9e082	-0.33179098
18	0xbdfbb574	-0.12290469
19	0x3e122617	0.14272343
20	0xbdff00b2	-0.124513045
21	0xbdaf175c	-0.08549377
22	0xbe866489	-0.26248577
23	0x3cd7aea4	0.026328392
24	0x3c95d91a	0.018291999
25	0xbe17a0e0	-0.14807463
26	0xbe1f6cb9	-0.15568818
27	0xbdb1dce3	-0.08684709
28	0xbdf59f4e	-0.119932756
29	0xbd83b1a4	-0.06430367
30	0xbe73dbb3	-0.23814277
31	0xbe82fd74	-0.25583994
32	0xbe84397c	-0.25825107
33	0xbe8f7365	-0.28017727
34	0xbe07346b	-0.1320359
35	0xbe3d7eb6	-0.18505368
36	0xbe3803d1	-0.17970206
37	0xbe1582eb	-0.14600722
38	0xbe944f9d	-0.2896699
39	0xbe411af6	-0.18857941
40	0xbda24cbc	-0.07924792
41	0xbe7ade89	-0.24498953
42	0xbe3481de	-0.17627665
43	0xbe625936	-0.22104344
44	0xbe3532d9	-0.17695178
45	0xbd72ccda	-0.059277393
46	0xbe28a717	-0.1646999
47	0xbe6c5c7c	-0.23082155
48	0xbe583f2c	-0.21117848
49	0xbe0c6ec6	-0.13714132
50	0xbd1b7e77	-0.037962403
51	0xbe13e679	-0.14443387
52	0xbe0092e9	-0.12556042
53	0xbe342b7b	-0.17594711
54	0xbdad4368	-0.08460122
55	0xbe2e1527	-0.17000256
56	0xbdca0bc3	-0.098655246
57	0xbdadd8bf	-0.08488607
58	0xbe29adab	-0.16570155
59	0xbe3db0f9	-0.18524541
60	0xbe131cf9	-0.14366521
61	0xbd1b21f8	-0.037874192
62	0xbd9178aa	-0.07103093
63	0x3db8d1ef	0.09024417
64	0xbe4685e1	-0.19387008
65	0xbe32003b	-0.173829
66	0xbc8a316e	-0.016869273
67	0xbc6fee7d	-0.014644262
68	0x3daca114	0.08429161
69	0xbe5bc819	-0.2146305
70	0x3dd14082	0.10217382
71	0xbd8cda11	-0.0687753
72	0xbd56d99d	-0.052453626
73	0xbd9770f7	-0.07394593
74	0xbd5b6e03	-0.053571712
75	0x3dbe994d	0.093065836
76	0x3da6d844	0.08146718
77	0x3e0dd610	0.1385119
78	0xbe34d3d0	-0.17658925
79	0xbe08f2b2	-0.13373831
80	0x3de2fff8	0.110839784
81	0xbdd01294	-0.101597935
82	0xbd8f68e8	-0.07002431
83	0x3e492825	0.1964422
84	0xbdc13197	-0.09433287
85	0x3d8ad454	0.067787796
86	0x3d9fa081	0.077942856
87	0x3dda4f3e	0.106596455
88	0x3e40d4bf	0.18831156
89	0x3cf1b3c0	0.029504657
90	0x3befe69a	0.007321191
91	0xbda9933d	-0.082800366
92	0x3e1ea7b7	0.15493666
93	0x3e1a665b	0.15078108
94	0xbbe1df9a	-0.0068931105
95	0xbda9b1b7	-0.082858495
96	0x3e0d0412	0.13771084
97	0xbe1f9fb7	-0.1558827
98	0xbe03c457	-0.12867866
99	0xbc115600	-0.008870602
100	0x3d61e9b0	0.055154502
101	0x3d9a147a	0.07523437
102	0x3b6f9e2c	0.0036562784
103	0x3e00f8c4	0.12594897
104	0xbd545e89	-0.05184797
105	0x3e2787e1	0.16360427
106	0x3deebf13	0.11657538
107	0x3effe465	0.4997894
108	0x3e81ba28	0.25337338
109	0x3c957d74	0.018248297
110	0x3e860671	0.2617679
111	0x3e3deae2	0.18546632
112	0x3ec4603d	0.38354674
113	0x3e8b0d78	0.27158713
114	0x3e513513	0.20430402
115	0x3d5bd541	0.05367017
116	0x3c0ea2df	0.008705824
117	0xbe0025dd	-0.12514444
118	0xbdf7a012	-0.12091078
119	0x3d32a5da	0.0436152
120	0xbd87b42d	-0.06626163
121	0xbd8d4396	-0.068976566
122	0xbea1c9b9	-0.31599215
123	0x3d3b01f3	0.045656156
124	0x3db40c66	0.08791427
125	0x3e1e7dd7	0.15477692
126	0x3e18175f	0.14852665
127	0x3e0f2fcd	0.13983078
128	0xbe2d4842	-0.16922095
129	0x3cf804e7	0.030275775
130	0x3d977450	0.07395232
131	0xbe1554df	-0.14583157
132	0x3d43d2d3	0.04780848
133	0xbcc6459a	-0.02420311
134	0x3da4476d	0.08021436
135	0xbe183be2	-0.14866593
136	0x3e402b1b	0.18766443
137	0xbd45cd1a	-0.048291303
138	0x3d3e5c73	0.046474885
139	0x3dcabe00	0.09899521
140	0xbd43985a	-0.047752716
141	0x3d8465e7	0.06464749
142	0xbddd204d	-0.107971765
143	0xbdddb180	-0.10824871
144	0xbe4566aa	-0.19277444
145	0x3da767dd	0.08174107
146	0xbdddba43	-0.10826542
147	0xbcca8f9a	-0.024726678
148	0x3d8d6de7	0.06905728
149	0xbdc3b04d	-0.09555111
150	0x3dee4c44	0.1163564
151	0x3e1afbc8	0.1513511
152	0x3e2a8cf8	0.16655338
153	0xbcf3d825	-0.029766152
154	0x3d0b0bb2	0.0339467
155	0xbd67d89b	-0.056603055
156	0x3d89ec99	0.067345805
157	0x3eb6d83c	0.3571185
158	0x3e14d652	0.14534882
159	0x3c116dff	0.008876323
160	0x3d272239	0.04080412
161	0xbeb29dd4	-0.34886038
162	0xbeb3ee37	-0.3514268
163	0x3eec1515	0.46109834
164	0x3e34ad1e	0.17644164
165	0xbd1d944c	-0.038471505
166	0xbe825c66	-0.2546112
167	0xbefecb25	-0.49764362
168	0x3eaf84b4	0.34280932
169	0x3dbdfc29	0.09276611
170	0xbdc086b6	-0.09400694
171	0xbd6c4552	-0.057683297
172	0xbdce6fff	-0.10079955
173	0x3e226e0f	0.15862297
174	0x3defee38	0.117153585
175	0xbd37aad2	-0.04484064
176	0xbca8d917	-0.020611329
177	0xbccb9ee7	-0.024856044
178	0xbe029ffa	-0.12756339
179	0x3ca5e048	0.020248547
180	0x3bc3d5ea	0.0059764283
181	0xbd1c8b20	-0.038218617
182	0xbe6c8de0	-0.23100996
183	0x3ac789a4	0.0015223515
184	0xbe775c3f	-0.24156283
185	0x3bc36f0e	0.0059641665
186	0x3ddc55ed	0.107585765
187	0x3f025783	0.5091478
188	0x3d0409d3	0.03223593
189	0xbe926fa0	-0.28600788
190	0x3e10876c	0.1411416
191	0x3e83e39e	0.25759596
192	0x3f002492	0.500558
193	0x3c9b34a3	0.018945998
194	0xbed98118	-0.42481303
195	0x3b983984	0.0046455283
196	0x3d5a8e05	0.053358097
197	0xbc621d16	-0.01380088
198	0xbe5b5cea	-0.21422163
199	0xbc8bfd8c	-0.017088674

enc1.0.conv2.pointwise.weight f4 [32, 8, 1, 1]
0	0x3f056607	0.52108806
1	0x3f5e0ece	0.8674134
2	0xbcea8625	-0.028628418
3	0xbdcfb979	-0.10142798
4	0x3ea6d0f9	0.32581308
5	0x3c72f769	0.014829495
6	0xbdd1ea9e	-0.10249828
7	0x3e0734e3	0.13203768
8	0x3f866fef	1.050291
9	0xbe237de4	-0.15965992
10	0xbdbaab02	-0.091146484
11	0xbbc529b8	-0.006016936
12	0x3e37e5c5	0.17958744
13	0x3e0c4a16	0.13700137
14	0xbe4fe295	-0.20301278
15	0xbe4844ca	-0.19557491
16	0x3e6324be	0.22181985
17	0x3e39c25b	0.18140547
18	0xbd626df8	-0.055280656
19	0xbeaf7801	-0.34271243
20	0xbed06938	-0.40705276
21	0xbe70bbf5	-0.235092
22	0x3e33defd	0.17565532
23	0xbe1b5b77	-0.1517161
24	0x3e3cead1	0.1844895
25	0xbe20e22a	-0.15711275
26	0x3efdc858	0.49566913
27	0xbdb5536f	-0.08853804
28	0xbe911f68	-0.28344274
29	0xbcd5154f	-0.026011137
30	0x3ef77d61	0.48337844
31	0xbf628599	-0.88485104
32	0xbf24d0c4	-0.6438105
33	0xbd71ee2e	-0.059065036
34	0xbef12761	-0.47100356
35	0x3d7e4338	0.062075824
36	0x3e994f0f	0.2994313
37	0x3b59170e	0.0033125314
38	0xbe1997dc	-0.14999336
39	0xbeab0373	-0.3340107
40	0xbdcf6a8d	-0.10127745
41	0xbf2d6c22	-0.6774312
42	0xbe0879f9	-0.13327779
43	0x3e20aade	0.1569018
44	0x3e89ba91	0.2690015
45	0xbc1772aa	-0.009243647
46	0xbed3e8ef	-0.41388652
47	0x3e126d8b	0.142996
48	0x3e99a08e	0.30005306
49	0x3e3cd90c	0.18442172
50	0xbb9f939d	-0.004869892
51	0x3ea3d974	0.3200184
52	0x3e71c89f	0.23611687
53	0x3e67fe9e	0.22655722
54	0xbda0d3aa	-0.07852872
55	0xbe48c849	-0.19607653
56	0x3f28f0e5	0.65992576
57	0x3d0fd14e	0.035111718
58	0x3d777be7	0.060420897
59	0xbcd23f30	-0.025664896
60	0x3dda1f34	0.10650483
61	0x3eb43496	0.3519637
62	0x3ee71130	0.451303
63	0xbf0be13d	-0.5464056
64	0xbe700389	-0.23438849
65	0x3ea80074	0.32812846
66	0x3dd05ae6	0.101735875
67	0xbdf23b8a	-0.118277624
68	0xbe406f03	-0.18792348
69	0xbea3bc09	-0.31979397
70	0x3b8da46f	0.0043225805
71	0x3e6eb8aa	0.23312631
72	0x3e84229a	0.2580765
73	0x3e54f2d3	0.20795755
74	0xbdf91fd4	-0.12164274
75	0xbe8449e9	-0.2583764
76	0xbdb8f830	-0.09031713
77	0x3e6b6e99	0.22991408
78	0x3d4b139a	0.04957924
79	0x3e2f501e	0.17120406
80	0x3e68b19f	0.22724007
81	0xbf90ce52	-1.1312964
82	0xbeacf488	-0.33780313
83	0x3ddedbe0	0.108817816
84	0xbe57fb9c	-0.21092075
85	0x3d93d1ec	0.07217774
86	0xbe68ba71	-0.22727372
87	0x3ec2da0c	0.38056982
88	0xbdf8e8f0	-0.12153804
89	0xbe8b5f48	-0.2722113
90	0xbe8c75f7	-0.2743375
91	0xbe61435f	-0.21998356
92	0x3e23f37e	0.16010854
93	0xbe333404	-0.17500311
94	0x3bd590e7	0.006517518
95	0xbe00ce20	-0.1257863
96	0x3f071910	0.5277262
97	0xbe30de13	-0.17272215
98	0x3e4e7e6a	0.2016541
99	0xbd0148d8	-0.03156361
100	0x3eb6efbe	0.35729784
101	0xbe74aa9f	-0.23893212
102	0xbeaa7482	-0.33292013
103	0x3e457e7c	0.19286531
104	0xbde1ec50	-0.11031401
105	0xbdcb1561	-0.09916187
106	0xbd4d2521	-0.050084237
107	0xbdbfff86	-0.09374909
108	0x3e24d6f6	0.16097626
109	0x3e6f054f	0.23341869
110	0x3e9d3eac	0.30711877
111	0x3d4a11a1	0.04933322
112	0xbd8589eb	-0.065204464
113	0xbcc58e41	-0.024115684
114	0x3dd1f97f	0.10252666
115	0x3da39633	0.079876326
116	0xbdde8408	-0.10865027
117	0xbd75d152	-0.060014077
118	0x3e3a759f	0.18208931
119	0xbe434678	-0.1906985
120	0x3efddedc	0.4958409
121	0xbd059192	-0.03260953
122	0x3e544d74	0.20732671
123	0xbea5d30d	-0.3238758
124	0x3e58aad6	0.21158919
125	0x3e97e6ee	0.29668373
126	0xbf0923cc	-0.53570247
127	0x3ddebd0b	0.10875901
128	0xbf44c7a1	-0.7686711
129	0xbe3b7c13	-0.1830905
130	0xbd81eb49	-0.06343705
131	0x3e99af7f	0.30016705
132	0x3e47d697	0.19515453
133	0x3d74c274	0.059755757
134	0x3ecc37d6	0.3988635
135	0xbe24c499	-0.16090621
136	0xbe99439d	-0.29934397
137	0xbe9a9439	-0.3019121
138	0x3e641fbc	0.2227773
139	0xbe17ce12	-0.14824703
140	0x3db87ac2	0.09007789
141	0x3d09ac3c	0.03361152
142	0xbe429c85	-0.1900502
143	0xbeb6c253	-0.35695133
144	0xbe7fbdda	-0.24974766
145	0xbedc63d1	-0.43044904
146	0x3d2fd55e	0.042928092
147	0x3d150fe6	0.036392115
148	0x3d959d59	0.07305402
149	0xbe9f16c7	-0.31072065
150	0xbd974954	-0.07387033
151	0x3db8f7f1	0.09031666
152	0xbe2c0a4c	-0.16800803
153	0xbe89b6a9	-0.2689717
154	0xbe44b324	-0.19208962
155	0x3e4e8c46	0.20170698
156	0x3d22eb3e	0.039775126
157	0x3ea8f9a6	0.33002967
158	0xbd71f6ec	-0.059073374
159	0x3d2ac9ad	0.04169624
160	0x3d33d10c	0.043900535
161	0xbea59ad3	-0.32344684
162	0x3d09c907	0.03363898
163	0xbbacdfd8	-0.0052757077
164	0x3ef9c5b3	0.48783645
165	0xbd644901	-0.055733684
166	0xbeb6a281	-0.35670856
167	0x3ed84d5e	0.42246526
168	0x3ea3ca91	0.31990483
169	0x3e38b753	0.18038683
170	0xbd666422	-0.056247838
171	0x3ddc2b39	0.107504316
172	0xbe810edc	-0.2520665
173	0xbe8b5fb4	-0.27221453
174	0xbc81886c	-0.015812121
175	0x3e8ed9b2	0.27900463
176	0xbe5fcc67	-0.21855317
177	0xbe741d0b	-0.23839204
178	0xbda8ba69	-0.0823868
179	0xbdd11539	-0.10209126
180	0x3da2f9da	0.07957812
181	0x3e78253f	0.24232958
182	0x3e37dd0e	0.1795542
183	0x3e1a1e2c	0.15050572
184	0xbd071cc8	-0.032986432
185	0x3ea47e6a	0.32127696
186	0xbdfae409	-0.122505255
187	0xbe08f586	-0.1337491
188	0xbe03a99a	-0.12857667
189	0xbe836c28	-0.25668454
190	0xbe3974d8	-0.18110979
191	0xbe5505bf	-0.20802973
192	0x3f00bfd1	0.5029269
193	0x3da839d8	0.08214158
194	0xbe549a7a	-0.20762053
195	0x3c7c908f	0.015415325
196	0xbf64fb3d	-0.8944586
197	0xbe3d8991	-0.18509509
198	0x3f399a51	0.72501093
199	0x3e0ebcc4	0.13939196
200	0xbf78d4e2	-0.97199833
201	0xbe804faf	-0.25060794
202	0xbe9831f5	-0.29725614
203	0xbea84638	-0.32866073
204	0x3e136620	0.14394426
205	0x3ea91267	0.33021852
206	0xbf7afd3f	-0.9804267
207	0xbecf49df	-0.40486047
208	0xbe104505	-0.14088829
209	0xbc808d7b	-0.015692463
210	0x3e33469d	0.17507406
211	0xbe22c548	-0.1589557
212	0xbdbabb39	-0.09117741
213	0xbd90b74a	-0.070662096
214	0xbe1d0905	-0.15335472
215	0xbd9e2bbf	-0.07723188
216	0x3d4f92dc	0.050677165
217	0x3e8e1a89	0.2775462
218	0x3da64c2a	0.08119996
219	0x3e85f624	0.26164353
220	0x3da455de	0.0802419
221	0xbe33c1e4	-0.17554432
222	0xbe9c11fc	-0.3048247
223	0x3e54d73b	0.20785229
224	0x3df0756c	0.117411464
225	0xbe777492	-0.24165562
226	0x3eb04906	0.34430712
227	0x3d957daf	0.07299363
228	0xbe517a61	-0.2045684
229	0x3dde9628	0.10868484
230	0x3e3dfa49	0.18552507
231	0xbe28c437	-0.164811
232	0x3f45997a	0.7718731
233	0x3e1760b6	0.14782986
234	0xbd0bb921	-0.0341121
235	0xbe5965e4	-0.21230274
236	0xbda68c26	-0.081322
237	0xbe1cad32	-0.15300444
238	0x3d3ba7c8	0.045814306
239	0x3e25effe	0.16204831
240	0xbf13add4	-0.57687116
241	0x3e2668b2	0.16250876
242	0xbdddc0f0	-0.108278155
243	0x3e317294	0.17328864
244	0x3ef15fbb	0.4714335
245	0xbe82b078	-0.2552526
246	0xbe99045f	-0.29886147
247	0x3d8014f1	0.06253994
248	0xbc0b6daf	-0.008510037
249	0xbe7344f9	-0.2375678
250	0xbdf419d4	-0.11918989
251	0x3cfb2e07	0.030661596
252	0xbf0d2cdb	-0.5514657
253	0xbe9c5d64	-0.3054
254	0x3bfb95fe	0.0076777926
255	0x3cb5fcdb	0.022215297

enc1.0.conv2.pointwise.bias f4 [32]
0	0x3d24a9bd	0.040200938
1	0xbcaca29e	-0.021073636
2	0xbdbd9016	-0.09255998
3	0xbe1c647a	-0.15272704
4	0x3e904522	0.28177744
5	0x3dd9ede4	0.10641077
6	0x3bf82eed	0.0075739534
7	0x3c1c5485	0.009541635
8	0x3b95dcc9	0.004573439
9	0xbe2b5f98	-0.16735685
10	0x3e9c4926	0.30524558
11	0x3e0469ec	0.12931031
12	0x3dbb4113	0.09143271
13	0x3ec0c28a	0.37648422
14	0x3daf4637	0.08558314
15	0x3d4ed3e3	0.05049504
16	0x3e119eb9	0.14220704
17	0x3d6f4035	0.058410842
18	0x3e84836d	0.2588152
19	0x3de97ae0	0.1140039
20	0xbe94293d	-0.28937712
21	0x3ea67fa9	0.32519272
22	0xbd3fe3fd	-0.046848286
23	0xbdb86bc7	-0.09004932
24	0x3e2996bb	0.16561405
25	0x3eb1b54d	0.34708634
26	0x3ea0c270	0.31398344
27	0xbeba5118	-0.36389995
28	0x3de6b935	0.11265794
29	0xbd762f53	-0.060103726
30	0x3e9ef8b5	0.31049123
31	0x3e8807c4	0.26568425

enc1.0.proj.depthwise.weight f4 [8, 1, 3, 3]
0	0xbe65ba24	-0.22434288
1	0xbec0a52a	-0.3762601
2	0xbe230042	-0.15918067
3	0xbd251e13	-0.040311884
4	0xbe5be96d	-0.21475764
5	0xbee4e121	-0.4470301
6	0xbed96c3a	-0.42465383
7	0xbe82e93f	-0.25568578
8	0xbe91afca	-0.2845443
9	0x3e1b29d6	0.15152678
10	0x3dccf26a	0.10007174
11	0x3e863b9b	0.2621735
12	0x3dd3693d	0.10322807
13	0x3ed7df1f	0.42162415
14	0x3e3be737	0.1834992
15	0x3e9e0dea	0.3086999
16	0x3ea0940d	0.31362954
17	0xbd9f4afa	-0.077779725
18	0x3dc67bd7	0.09691589
19	0x3e7e3178	0.24823558
20	0x3dfbe8cc	0.12300262
21	0x3e0fe824	0.14053398
22	0x3ed6d876	0.41962022
23	0x3ea77d38	0.32712722
24	0x3d370288	0.04468015
25	0x3e8befd1	0.27331403
26	0x3e8a9db1	0.27073434
27	0x3ec660a6	0.38745612
28	0x3e91759c	0.2841004
29	0xbd198c00	-0.03748703
30	0x3ec82d85	0.3909723
31	0x3d88ed27	0.06685858
32	0x3e3d156b	0.18465202
33	0x3da3bb19	0.079946704
34	0x3eadb948	0.3393042
35	0xbea1a91a	-0.31574327
36	0xbe4908e3	-0.19632296
37	0x3e1f646a	0.15565649
38	0x3ec80a9b	0.3907059
39	0x3e83afc2	0.2572003
40	0x3cd4d4d9	0.0259804
41	0x3ec5e27f	0.38649365
42	0xbd4bc613	-0.049749445
43	0x3e76008b	0.24023645
44	0xbcd342be	-0.025788661
45	0xbc35b14d	-0.011089635
46	0x3d601524	0.05470766
47	0x3cccffa7	0.025024248
48	0x3c67d455	0.014149745
49	0x3e83e33e	0.2575931
50	0x3e530fed	0.20611544
51	0x3b176c5e	0.0023105363
52	0x3ec1d791	0.37859777
53	0x3d91941e	0.07108329
54	0x3e287e12	0.16454342
55	0x3e9117f8	0.283386
56	0x3e327c31	0.17430188
57	0x3d343b02	0.044001587
58	0x3e96715c	0.2938336
59	0x3e9f4dbb	0.3111399
60	0xbdb8a59c	-0.090159625
61	0xbc8541e4	-0.01626677
62	0x3e001ff3	0.12512188
63	0xbda08c57	-0.07839268
64	0xbe1b3faa	-0.15161005
65	0xbe0f1bc9	-0.13975443
66	0xbe7fb998	-0.24973142
67	0xbe058f11	-0.13042857
68	0xbe6bf5f3	-0.23043041
69	0xbdeac8c9	-0.11464078
70	0xbee5c294	-0.44875014
71	0xbe823f57	-0.2543895

enc1.0.proj.pointwise.weight f4 [32, 8, 1, 1]
0	0x3e8ee1b6	0.2790658
1	0x3e55a19c	0.2086243
2	0xbe093ad1	-0.13401343
3	0xbd43ea29	-0.047830734
4	0xbdbcc190	-0.092166066
5	0x3e770532	0.24123076
6	0x3e700188	0.23438084
7	0x3b4b03d7	0.003097763
8	0x3cd7e00d	0.026351953
9	0x3ec25227	0.37953302
10	0x3e38c4a4	0.18043762
11	0x3e1fb1e5	0.15595205
12	0xbeb02be6	-0.34408492
13	0x3d566169	0.05233899
14	0xbeb9f89e	-0.36322492
15	0x3eb81c69	0.35959175
16	0xbe8f4620	-0.2798319
17	0x3dee2220	0.116276026
18	0x3dd65411	0.10465253
19	0xbeaa4cc1	-0.33261684
20	0x3d9d2cd3	0.07674565
21	0xbd688d38	-0.0567753
22	0xbd0324a7	-0.032017376
23	0x3cb42086	0.021988165
24	0x3e9cf428	0.30655026
25	0x3e936d62	0.2879439
26	0x3eaa7c0a	0.3329776
27	0xbb880437	-0.004150893
28	0x3d3f1974	0.046655133
29	0x3d914f2c	0.07095179
30	0x3e164141	0.1467333
31	0xbe3ec92b	-0.18631427
32	0x3e75f0b0	0.24017596
33	0xbe871a7c	-0.26387393
34	0xbe79e115	-0.24402268
35	0x3e2a9dad	0.16661711
36	0x3d2d53fb	0.04231642
37	0xbd85a10a	-0.065248564
38	0xbda3b9af	-0.07994401
39	0x3e24176f	0.16024564
40	0xbe814449	-0.2524741
41	0xbd5bd9b4	-0.053674415
42	0xbdb4ec64	-0.088341504
43	0x3dceaf41	0.10092021
44	0xbd9c4c4d	-0.07631741
45	0xbe13b341	-0.14423849
46	0xbd932f9e	-0.07186817
47	0x3e5c79b7	0.21530806
48	0xbec204e1	-0.37894347
49	0x3ed36952	0.4129129
50	0x3e9a51cf	0.3014054
51	0x3e18ce03	0.14922337
52	0x3e9ee9d2	0.31037766
53	0x3e56c670	0.20974135
54	0x3e084845	0.13308819
55	0x3eef11bc	0.46693218
56	0x3e869855	0.26288095
57	0x3cdb5692	0.026774678
58	0x3ead085b	0.33795437
59	0x3ef3d807	0.47625753
60	0x3ec7e877	0.39044544
61	0x3e8cdf59	0.2751415
62	0x3d698c50	0.057018578
63	0x3ea21c8f	0.31662413
64	0x3eb269cd	0.34846345
65	0x3e9e5fac	0.30932367
66	0x3dbfb42c	0.09360537
67	0xbe4bad67	-0.19890366
68	0xbe9793e3	-0.29605016
69	0xbea749ac	-0.32673395
70	0x3e6586d1	0.2241471
71	0x3e030e7e	0.12798497
72	0x3e8a0914	0.2696005
73	0x3e7785e2	0.24172166
74	0xbe63e3e8	-0.22254908
75	0x3e15d5cd	0.1463234
76	0x3ce64e53	0.02811352
77	0xbe61be20	-0.22045183
78	0x3d945bf9	0.07244105
79	0xbea0bd3c	-0.31394374
80	0xbe04ae6a	-0.12957159
81	0x3e25a834	0.16177446
82	0xbcc8791c	-0.024471812
83	0xbe2df979	-0.16989698
84	0x3e897e0f	0.26853988
85	0x3e2e1d1b	0.1700329
86	0xbd8ea15f	-0.06964373
87	0xbd65037d	-0.05591153
88	0x3ed6583b	0.4186419
89	0xbe0cc119	-0.13745536
90	0xbe7801a8	-0.24219382
91	0xbbb6737e	-0.005567967
92	0xbca7f37f	-0.02050185
93	0xbd5ceba5	-0.053935666
94	0x3e9b0c37	0.30282757
95	0xbec7f5ed	-0.39054814
96	0xbe151c5d	-0.14561601
97	0x3e9b4034	0.3032242
98	0xbea2aa72	-0.31770664
99	0x3f0832f5	0.53202754
100	0x3e05c83a	0.13064662
101	0x3de9dd09	0.11419112
102	0x3f0fead9	0.56217724
103	0x3da1da12	0.07902922
104	0x3c7fc4df	0.015610903
105	0xbe208c77	-0.15678583
106	0xbe9d48c6	-0.30719584
107	0xbeb60842	-0.35553175
108	0xbd83445e	-0.064095244
109	0xbe3d34a1	-0.18477108
110	0xbdd3ddf7	-0.10345071
111	0xbec5af42	-0.38610274
112	0x3d94b771	0.07261551
113	0x3cbc7445	0.02300466
114	0xbe8462cb	-0.25856623
115	0xbe6e6aa8	-0.23282874
116	0x3e92688d	0.2859539
117	0x3e46a3d4	0.19398433
118	0xbe9b9ecb	-0.30394587
119	0x3e21ac69	0.15788426
120	0xbd18d18e	-0.037309222
121	0xbe26d5a4	-0.16292435
122	0x3f4cf30d	0.80058366
123	0x3e142f51	0.14471175
124	0x3d94e282	0.072697654
125	0xbeafdebd	-0.34349623
126	0xbe57b509	-0.21065153
127	0xbcf9392a	-0.030422766
128	0x3ecbcd24	0.39804947
129	0xbc7825c4	-0.015145723
130	0x3d626b18	0.055277914
131	0x3e2cc4c0	0.16871929
132	0xbe9a5a45	-0.30146995
133	0x3d7f1893	0.062279295
134	0xbda0f9a4	-0.07860115
135	0xbe2d480f	-0.1692202
136	0x3e7adb22	0.24497655
137	0x3d036e51	0.032087628
138	0xbdaa8850	-0.08326781
139	0xbe1bd763	-0.15218882
140	0xbe97344b	-0.29532084
141	0x3dfac755	0.12245051
142	0x3dfd11c1	0.12356902
143	0xbea4d234	-0.32191622
144	0x3ec516c1	0.38493922
145	0x3d708583	0.058721077
146	0x3df19b2a	0.11797173
147	0x3e2eacc4	0.17058092
148	0x3d861fdf	0.06549048
149	0xbc737f8b	-0.014861952
150	0x3eca3900	0.39496613
151	0x3e834bbc	0.25643718
152	0xbd454b5d	-0.048167575
153	0xbe4a747b	-0.19770996
154	0x3f58e719	0.8472763
155	0xbd0fdbdf	-0.035121795
156	0xbdb7985d	-0.08964608
157	0xbdf2d93f	-0.11857843
158	0xbe2a314c	-0.16620368
159	0xbe159e78	-0.14611232
160	0xbec05c50	-0.3757043
161	0x3e07fd55	0.13280232
162	0xbdacfe1c	-0.08446905
163	0xbe285c0a	-0.1644136
164	0xbea0d2e2	-0.3141089
165	0x3e151db4	0.14562112
166	0xbc981d53	-0.01856867
167	0x3e260a03	0.16214757
168	0x3e212217	0.1573566
169	0x3cb7f2aa	0.022454578
170	0xbe80bf76	-0.25146073
171	0xbe46d128	-0.19415724
172	0x3ded853a	0.115976766
173	0x3cca78de	0.024715837
174	0x3e05302d	0.13006659
175	0xbec30384	-0.3808862
176	0xbdd83ba4	-0.105582505
177	0x3e8930e5	0.26795116
178	0xbe62585f	-0.22104023
179	0x3e142738	0.14468086
180	0x3e9a5f11	0.30150655
181	0x3db9baa9	0.09068806
182	0x3f0aecd1	0.54267603
183	0x3e797207	0.24359904
184	0xbdadd962	-0.08488728
185	0x3d69bc85	0.05706455
186	0x3e426f11	0.18987681
187	0xbe671aae	-0.22568771
188	0x3e6fa6aa	0.23403421
189	0xbeac5da9	-0.33665207
190	0x3d95380d	0.072860815
191	0x3e7ac6de	0.24489924
192	0x3d5223da	0.051303722
193	0x3f3ba018	0.7329116
194	0xbc5c8aa8	-0.013460793
195	0x3e9907e6	0.2988884
196	0xbcf007de	-0.029300626
197	0x3f308ffe	0.68969715
198	0xbd83f762	-0.06443669
199	0xbe045b2b	-0.12925403
200	0xbbf66fc3	-0.0075206473
201	0x3e3ffddf	0.18749188
202	0xbe20d640	-0.1570673
203	0x3e81900b	0.2530521
204	0xbdaac4b6	-0.08338301
205	0xbe17995b	-0.14804594
206	0x3cadfdc8	0.021239176
207	0x3ebbe956	0.3670146
208	0x3e8c1a48	0.273638
209	0xbd3c1ac0	-0.04592395
210	0xbe7949d8	-0.24344575
211	0x3d7b9a07	0.06142619
212	0xbc05a39c	-0.008156683
213	0x3eb2e866	0.3494293
214	0xbd942492	-0.07233538
215	0xbeaf1e0e	-0.34202617
216	0x3d6f1c01	0.058376316
217	0x3e981aed	0.29708043
218	0x3e2149c9	0.15750803
219	0xbe03d4b5	-0.1287411
220	0x3de47332	0.11154784
221	0xbe44a6c3	-0.1920424
222	0xbc47f644	-0.01220471
223	0xbe89ebab	-0.26937613
224	0x3e3bdde3	0.18346362
225	0xbebd967d	-0.37028876
226	0x3e56b805	0.20968635
227	0x3ecad59c	0.39616096
228	0x3dc42aca	0.09578474
229	0x3da34a55	0.07973162
230	0x3c763147	0.015026397
231	0xbe8fb31e	-0.28066343
232	0x3e6d0db1	0.23149754
233	0xbdb7cefb	-0.08975025
234	0x3eabb4e4	0.33536446
235	0xbe1e3126	-0.15448436
236	0x3e915fe9	0.28393486
237	0x3eac0575	0.33597913
238	0x3edab792	0.42718178
239	0xbec08035	-0.37597814
240	0xbe333b11	-0.17503001
241	0xbea6ff44	-0.32616627
242	0x3e580d29	0.2109877
243	0xbd773fea	-0.060363688
244	0xbdf22e8d	-0.11825285
245	0xbe0a3a8d	-0.13498898
246	0xbe00d2df	-0.12580441
247	0xbe97598a	-0.295605
248	0x3e1f4a08	0.15555584
249	0xbbf47619	-0.0074603674
250	0x3e780bd7	0.24223267
251	0xbe53db5a	-0.20689145
252	0x3e2401b9	0.16016282
253	0xbdb6aff6	-0.08920281
254	0x3de943c2	0.11389877
255	0xbde838b9	-0.11338944

enc1.0.proj.pointwise.bias f4 [32]
0	0x3e2a3049	0.16619982
1	0x3e3af983	0.18259244
2	0xbe389179	-0.18024243
3	0xbd15be16	-0.036558233
4	0x3eea87ea	0.4580682
5	0x3ddcc75c	0.10780212
6	0xbdc8849c	-0.09790918
7	0x3e2c936b	0.1685311
8	0xbe2fd610	-0.17171502
9	0xbeb6d326	-0.35707968
10	0x3d9394e4	0.07206133
11	0x3ec9e735	0.3943421
12	0x3c335676	0.010945907
13	0x3e936508	0.28788018
14	0xbe7c13eb	-0.24616973
15	0x3dc56474	0.096383005
16	0x3d36cc5f	0.044628497
17	0x3cbc7a35	0.023007492
18	0xbb8cd1d0	-0.0042974725
19	0x3d484b53	0.04889996
20	0x3d24575f	0.040122386
21	0x3db5af54	0.08871332
22	0xbca95cd0	-0.02067414
23	0xbebb2043	-0.3654805
24	0x3e30bdce	0.17259905
25	0x3e559535	0.20857699
26	0x3e35d3fa	0.17756644
27	0xbeb6983c	-0.3566302
28	0xbc9dd724	-0.019267626
29	0x3be5a5d1	0.0070082922
30	0xbeab801a	-0.3349617
31	0xbd014e4e	-0.031568818

enc1.1.conv1.depthwise.weight f4 [32, 1, 5, 5]
0	0xbb5b4ad8	-0.0033461358
1	0x3d0d793f	0.034539457
2	0x3d7308cd	0.059334565
3	0x3cf818e7	0.030285312
4	0xbd58d672	-0.052938886
5	0xbe0fc897	-0.14041363
6	0xbdf26d9b	-0.11837312
7	0xbdbd0afd	-0.092306115
8	0x3db2ab82	0.08724119
9	0x3b0f5c03	0.0021874912
10	0xbcfd4618	-0.030917212
11	0x3dd8c27d	0.10583971
12	0x3cfd662d	0.03093251
13	0x3dfa3015	0.12216202
14	0xbe327653	-0.1742795
15	0x3d1583f8	0.03650281
16	0xbece1df5	-0.4025723
17	0x3c916e60	0.017752826
18	0x3e9a3007	0.30114767
19	0xbd4c105e	-0.049820296
20	0xbbea447c	-0.0071492773
21	0xbe0ec4ed	-0.13942309
22	0xbdf85d4d	-0.12127171
23	0x3b1adb5d	0.0023629286
24	0xbe42ce54	-0.1902402
25	0x3b87c765	0.0041436427
26	0xbe2629b1	-0.16226842
27	0xbcc1ef12	-0.023673568
28	0xbe2f56d8	-0.17122972
29	0x3c15ec47	0.009150571
30	0xbc00e39b	-0.007866765
31	0xbd8a1d90	-0.0674392
32	0xbe493083	-0.19647412
33	0xbda80cbb	-0.08205553
34	0xbdee33ca	-0.11630972
35	0xbd951402	-0.07279207
36	0xbd8e91ea	-0.06961425
37	0x3e2eb2ae	0.17060348
38	0x3d81f2c5	0.06345133
39	0xbdb1ed92	-0.08687891
40	0x3e413ed5	0.18871625
41	0x3e335deb	0.17516296
42	0x3e87ac3d	0.26498595
43	0x3d4beda4	0.04978718
44	0x3e5b5a03	0.21421055
45	0xbdd5ec91	-0.10445512
46	0xbde4279a	-0.11140366
47	0x3db4dbcd	0.08830986
48	0x3e00cee4	0.12578923
49	0x3e846f37	0.258661
50	0x3a1d2884	0.0005995112
51	0x3dbdac8a	0.09261425
52	0x3bc04312	0.0058673704
53	0x3cc53ed3	0.024077808
54	0xbd0bcb1b	-0.034129243
55	0xbd3774fb	-0.044789296
56	0xbd9fc499	-0.0780117
57	0x3e086cee	0.13322803
58	0xbe083d70	-0.13304687
59	0xbe1e8567	-0.15480576
60	0x3de8b59b	0.113627635
61	0x3e57694e	0.21036264
62	0x3d304837	0.04303762
63	0xbdc58db8	-0.09646171
64	0xbe80f99e	-0.25190443
65	0x3e5bc529	0.2146193
66	0x3e3180ff	0.17334364
67	0xbddd520d	-0.108066656
68	0xbde36911	-0.11104024
69	0xbc92bd2f	-0.017912475
70	0x3daca201	0.08429337
71	0x3e330b09	0.17484678
72	0x3e905a4f	0.281939
73	0x3d862d74	0.06551638
74	0xbcddefa9	-0.027091818
75	0xbe1c805e	-0.15283343
76	0xbe731f68	-0.2374245
77	0xbdade4f7	-0.08490937
78	0xbe39968b	-0.18123834
79	0xbe037143	-0.12836175
80	0x3cf435e6	0.029810857
81	0x3cae369f	0.02126628
82	0xbde39b2c	-0.11113581
83	0x3c507a7f	0.012724518
84	0xbdb73eb0	-0.089475036
85	0xbdc7c2d8	-0.0975396
86	0xbe9784d1	-0.29593518
87	0xbebb9c6f	-0.36642787
88	0xbe2f11ee	-0.17096683
89	0xbe1feb48	-0.15617096
90	0xbea9a8e7	-0.33136675
91	0xbe5496ed	-0.20760699
92	0xbda9e081	-0.08294774
93	0xbec9f14e	-0.39441913
94	0xbe5d11ac	-0.21588773
95	0xbe7f59df	-0.24936627
96	0xbe18f732	-0.14938048
97	0xbec88581	-0.39164355
98	0xbeb2ccd9	-0.3492191
99	0xbebc236d	-0.36745778
100	0x3e09b3de	0.1344752
101	0xbcc07e18	-0.023497626
102	0xbe5e0fe9	-0.21685757
103	0xbe2d091e	-0.16898009
104	0x3dcb9b11	0.09941686
105	0xbe2d61c1	-0.16931821
106	0xbd7896b6	-0.060690604
107	0xbde494c3	-0.111611865
108	0xbd84733d	-0.064672925
109	0x3cc18f4f	0.023627905
110	0xbe03f43d	-0.12886138
111	0x3d09c691	0.033636633
112	0xbeae27b8	-0.34014678
113	0x3e85aca0	0.26108265
114	0x3e734e75	0.23760398
115	0x3d9c6390	0.076361775
116	0x3ce045ee	0.027377095
117	0xbd888ddb	-0.06667682
118	0x3e683118	0.22674978
119	0x3d9d3839	0.07676739
120	0xbcae7853	-0.02129761
121	0xbddfd5fa	-0.10929485
122	0x3e332e20	0.17498064
123	0x3d9193cc	0.07108268
124	0x3da30a1b	0.07960912
125	0xbdaf84e2	-0.08570267
126	0xbbc7966a	-0.006090929
127	0xbd3a3ab6	-0.045466147
128	0x3dadc5d2	0.08484997
129	0xbbcdcc48	-0.0062804557
130	0x3dc444ab	0.0958341
131	0xbd3b7043	-0.045761358
132	0xbdfa51c6	-0.12222628
133	0x3d0736a3	0.03301109
134	0x3d76cac3	0.060251962
135	0xbe50b948	-0.20383179
136	0xbe63c0fa	-0.22241583
137	0xbe86515a	-0.2623394
138	0x3e1059af	0.14096712
139	0x3d820519	0.063486286
140	0xbe37fd39	-0.1796769
141	0x3edf13b5	0.43569723
142	0x3e31fd4b	0.1738178
143	0x3e0e6c8c	0.13908595
144	0xbe1ad5c2	-0.15120605
145	0xbd96f18c	-0.0737029
146	0xbe80e219	-0.251725
147	0xbe88690e	-0.2664265
148	0xb9ed6724	-0.00045281008
149	0xbc8f3340	-0.017480493
150	0xbe1a3825	-0.1506048
151	0x3ddc49d2	0.107562676
152	0xbdaa302e	-0.08309971
153	0xbdd5ad44	-0.104334384
154	0x3df078d5	0.11741797
155	0x3d907e67	0.07055359
156	0x3d88f91d	0.066881396
157	0xbd96aa40	-0.07356691
158	0xbe54c9cc	-0.20780104
159	0xbd867805	-0.06565861
160	0x3db80e9c	0.089871615
161	0x3e199430	0.14997935
162	0xbe2db9ba	-0.1696538
163	0xbdf7562f	-0.12076985
164	0xbc9b03a8	-0.018922642
165	0xbe4867ec	-0.19570893
166	0xbd39178b	-0.045188468
167	0xbe0ca768	-0.13735735
168	0xbe343e61	-0.1760192
169	0xbe446c6e	-0.19181988
170	0x3d366707	0.04453185
171	0xbe8b15ee	-0.2716517
172	0xbe8f0380	-0.27932358
173	0xbd8da5f8	-0.06916422
174	0xbe57f345	-0.21088894
175	0x3e10c1fc	0.14136499
176	0xbcfa85dc	-0.030581407
177	0xbdb1c757	-0.08680599
178	0xbce31117	-0.02771811
179	0x3cf34df3	0.029700255
180	0xbda09322	-0.07840563
181	0xbdfb58f2	-0.12272824
182	0x3c43e643	0.011956754
183	0x3e81293d	0.25226775
184	0x3d8b9c85	0.06816963
185	0x3d7e0a25	0.062021393
186	0x3c11396a	0.008863786
187	0xbdca09cb	-0.09865149
188	0x3cbbcdf4	0.022925355
189	0xbd0b07b2	-0.033942886
190	0x3dba6060	0.09100413
191	0x3822297f	3.8662456e-05
192	0xbdec0f25	-0.11526326
193	0x3e299909	0.16562285
194	0x3e3c8131	0.18408658
195	0xbe5a7c6e	-0.21336529
196	0xbe7c8eae	-0.24663803
197	0xbdfe4b8a	-0.12416752
198	0xbd46b215	-0.048509676
199	0x3e2b46fa	0.16726294
200	0xbe24969b	-0.16073076
201	0x3dcf01f7	0.10107797
202	0x3b40af33	0.0029401302
203	0xbdc71de0	-0.09722495
204	0xbe28358a	-0.16426674
205	0x3d9a643a	0.07538648
206	0x3dbb0100	0.0913105
207	0xb8e44ccd	-0.000108861925
208	0x3e3e0783	0.18557553
209	0x3de3899a	0.1111023
210	0xbbdf939a	-0.0068230154
211	0xbe4b9b75	-0.19883521
212	0xbd2dbe5a	-0.04241786
213	0x3df16110	0.11786091
214	0xbe25e4f8	-0.16200626
215	0x3e2365e8	0.15956843
216	0xbdf3b527	-0.118997864
217	0xbe487665	-0.19576414
218	0x3e14df3f	0.14538287
219	0xbd355767	-0.044272806
220	0xbe1a3220	-0.15058184
221	0xbe014d37	-0.12627111
222	0x3e44285b	0.1915602
223	0xbd07aa13	-0.03312118
224	0xbe33b7c2	-0.17550567
225	0x3ca80ef9	0.020514952
226	0x3d93fbf9	0.07225794
227	0xbe34a455	-0.17640813
228	0x3e3fcb9b	0.18730013
229	0xbe38887d	-0.18020816
230	0xbdda2010	-0.10650647
231	0xbe13343c	-0.14375395
232	0x3debc664	0.115124494
233	0x3d823011	0.06356824
234	0xbe3ec526	-0.18629894
235	0x3dd7509e	0.105134234
236	0x3e1b773f	0.15182208
237	0x3dad7671	0.084698565
238	0x3d94ae88	0.07259852
239	0xbdf0ac61	-0.11751629
240	0x3d3e2d1d	0.046429742
241	0xbc940128	-0.018066958
242	0x3d8ee89c	0.069779605
243	0x3af6b22f	0.0018821413
244	0x3e2dce84	0.1697331
245	0x3dfba293	0.12286868
246	0x3b33cdc3	0.0027435876
247	0xbd9316fc	-0.07182118
248	0xbe1e7b95	-0.1547683
249	0x3d840d2d	0.064478256
250	0x3e3d302f	0.18475412
251	0x3daf530e	0.08560763
252	0xbe313ea6	-0.17309055
253	0x3c35848a	0.011078963
254	0x3d14dba8	0.036342293
255	0x3db545e1	0.08851219

enc1.1.conv1.pointwise.weight f4 [8, 32, 1, 1]
0	0x3d885c3b	0.066582166
1	0xbc3e7b04	-0.011626009
2	0x3e527680	0.20553017
3	0x3cc511f6	0.024056416
4	0xbebb92cb	-0.36635432
5	0xbe308403	-0.17237858
6	0xbbcf682e	-0.006329558
7	0x3d35e855	0.044411022
8	0xbcfbe095	-0.030746737
9	0xbddd37ae	-0.10801636
10	0x3da2f7c8	0.07957417
11	0xbcb535ef	-0.022120444
12	0x3ee56a7d	0.44807807
13	0xbb533ce4	-0.0032232339
14	0x3d8c85a6	0.06861429
15	0xbc93cd50	-0.018042237
16	0x3da9726b	0.082737766
17	0x3dc874e6	0.097879216
18	0xbe7e4435	-0.24830706
19	0xbe5031a9	-0.20331444
20	0x3da54060	0.08068919
21	0xbe535200	-0.2063675
22	0x3caf5026	0.021400522
23	0x3da5fe48	0.08105141
24	0x3e026063	0.12732081
25	0x3df4ae76	0.11947338
26	0xbd985983	-0.07438948
27	0xbe6f99e9	-0.23398556
28	0xbd8843bb	-0.066535436
29	0x3ca5cf89	0.020240562
30	0xbdc2c1d3	-0.09509625
31	0xbe0b525c	-0.13605636
32	0x3f881b28	1.0633287
33	0x3e48769b	0.19576494
34	0x3e147252	0.14496735
35	0xbe09ce3e	-0.13457581
36	0xbe321796	-0.1739181
37	0x3f8c943b	1.0982736
38	0xbda61344	-0.081091434
39	0x3e870683	0.26372156
40	0xbe21b6f4	-0.15792447
41	0x3da473c1	0.08029891
42	0xbe3f6eae	-0.18694565
43	0xbd9e9eb9	-0.07745118
44	0x3e0da97f	0.13834189
45	0x3eda42fa	0.42629224
46	0x3dff3f9b	0.12463304
47	0xbd46a42a	-0.048496403
48	0x3dcfb862	0.1014259
49	0x3e6007bc	0.2187795
50	0x3c8c2f8e	0.01711252
51	0xbeb34840	-0.3501606
52	0x3d9df780	0.077132225
53	0xbcd913b7	-0.026498659
54	0xbc8cf5c6	-0.017207038
55	0xbcd58880	-0.026066065
56	0xbd1582d0	-0.036501706
57	0xbd9702e8	-0.07373601
58	0xbe386a85	-0.18009384
59	0x3da06b37	0.078329496
60	0xbda783d4	-0.08179441
61	0x3c55236a	0.013008932
62	0xbe7fb655	-0.24971898
63	0x3db93121	0.09042574
64	0x3d58bb7b	0.05291317
65	0xbc390f26	-0.011295116
66	0xbda6b35c	-0.08139679
67	0xbeef9d39	-0.4679964
68	0xbcbae332	-0.022813413
69	0x3d5e13be	0.054218046
70	0x3df3debc	0.119077176
71	0xbbcaca5a	-0.006188673
72	0x3da9d8a6	0.082932755
73	0x3ca15708	0.01969482
74	0x3dad165b	0.084515296
75	0x3d472e63	0.048628222
76	0xbc86bd77	-0.016447766
77	0xbc2397e7	-0.009984947
78	0xbd863c19	-0.065544315
79	0x3d9dbad6	0.07701652
80	0xbe45ae19	-0.19304694
81	0x3e267e20	0.1625905
82	0xbbf670d1	-0.007520773
83	0x3ce0a6c2	0.027423266
84	0x3f144d76	0.57930696
85	0x3b9a8b62	0.0047163228
86	0xbc2b630f	-0.010460629
87	0xbdb210b5	-0.08694593
88	0x3c2fff94	0.010742087
89	0xbdee4e47	-0.11636024
90	0x3e496cde	0.19670436
91	0xbe0baa4f	-0.13639186
92	0x3e6f884e	0.2339184
93	0xbd7a3ce1	-0.061093215
94	0x3de08b17	0.10964029
95	0x3b62b2dc	0.0034591472
96	0xbe164ee3	-0.1467853
97	0xbdc61bea	-0.09673293
98	0x3e52012e	0.20508263
99	0x3b6b0e98	0.0035866853
100	0x3d6b3612	0.057424612
101	0xbeb5d45f	-0.3551359
102	0x3e566c73	0.20939808
103	0xbcc0f08e	-0.023552205
104	0xbd91cc1a	-0.071190074
105	0x3b49a2d1	0.0030767212
106	0x3e351db8	0.17687118
107	0x3db581e5	0.08862666
108	0xbe46e90f	-0.19424842
109	0x3eb0f48d	0.34561577
110	0x3d959361	0.07303501
111	0x3edba0b6	0.4289605
112	0x3d273c27	0.04082885
113	0x3dc83c05	0.09777073
114	0xbbb63b57	-0.005561273
115	0xbdfb1788	-0.122603476
116	0x3d4f5dc2	0.050626524
117	0x3e3a42b7	0.18189512
118	0xbcdcec39	-0.026968108
119	0x3dd1ab0a	0.10237701
120	0xbe5937db	-0.21212713
121	0xbe121437	-0.14265524
122	0xbc785d9b	-0.015159036
123	0xbdcee9e9	-0.101032086
124	0xbe437ddc	-0.1909098
125	0xbe339dec	-0.17540711
126	0xbc2bd05a	-0.010486687
127	0xbebaea56	-0.3650691
128	0x3c93c8b9	0.018040048
129	0x3e11ec31	0.14250256
130	0x3d96823d	0.0734906
131	0xbd158dd4	-0.03651221
132	0xbd2a1e28	-0.041532665
133	0xbc57d754	-0.013173897
134	0xbe6c8617	-0.23098026
135	0x3cce2b87	0.02516724
136	0xbda5d596	-0.08097379
137	0x3d9743ca	0.073859766
138	0x3d188d00	0.037243843
139	0xbe07bccb	-0.13255613
140	0xbd46d411	-0.048542086
141	0xbc0005e7	-0.007813907
142	0x3db215fc	0.086955994
143	0x3d827989	0.06370837
144	0x3de9c87c	0.114151925
145	0x3e2d5f54	0.16930896
146	0xbd598219	-0.053102586
147	0x3d0bf112	0.03416545
148	0xbca63527	-0.020289017
149	0x3d973097	0.07382315
150	0xbcb0a5f5	-0.02156351
151	0xbcb0646a	-0.021532256
152	0x3d32f88b	0.04369406
153	0x3d863ac6	0.06554179
154	0x3e2b258a	0.16713539
155	0x3db16a98	0.08662909
156	0xbe02daa4	-0.12778717
157	0x3e063658	0.13106668
158	0xbe0a2053	-0.13488893
159	0x3e081522	0.13289312
160	0x3c88a09f	0.016678153
161	0x3d8a1086	0.06741433
162	0xbe24fded	-0.1611249
163	0x3c2dbf93	0.010604757
164	0xbe7df48b	-0.24800317
165	0x3cb019b1	0.021496626
166	0x3d98d607	0.074626975
167	0xbe06cf5a	-0.13165036
168	0x3de3e1db	0.11127063
169	0xbe291b6e	-0.1651437
170	0x3dfae3ab	0.122504555
171	0xbd06fcd5	-0.032955963
172	0xbd7e4b33	-0.062083434
173	0xbe8350c5	-0.2564756
174	0xbe27ada7	-0.16374837
175	0xbe5790cf	-0.21051334
176	0xbd7228a9	-0.059120808
177	0x3eb37939	0.35053423
178	0xbe8a5f1f	-0.27025697
179	0x3e600a01	0.21878816
180	0x3ea46e9e	0.32115644
181	0xbe1a800b	-0.15087907
182	0xbd7a9c5e	-0.06118428
183	0xbd9d830f	-0.07691013
184	0xbd134b53	-0.035960507
185	0xbc1c854d	-0.009553266
186	0x3e67ef27	0.22649823
187	0x3d877c37	0.06615489
188	0xbdf2ab03	-0.11849024
189	0xbe34b876	-0.17648491
190	0x3e1bb1e4	0.15204579
191	0x3d9c4720	0.076307535
192	0xbe2865f8	-0.16445148
193	0x3e91fc45	0.2851278
194	0xbd3a9fac	-0.04556243
195	0xbe10c4db	-0.14137594
196	0xbe2b57c0	-0.16732693
197	0x3dde3cac	0.10851416
198	0xbd66438f	-0.056216773
199	0x3d9e4fcf	0.07730066
200	0x3d4d1a09	0.050073657
201	0xbe067adf	-0.13132809
202	0xbd89fde5	-0.0673788
203	0x3dc6bc00	0.09703827
204	0xbe4d3ddc	-0.20043129
205	0xbd243d8a	-0.04009775
206	0x3ded5f6b	0.11590465
207	0x3ea6b7c7	0.32562086
208	0xbd531de7	-0.05154219
209	0x3db0b62c	0.086284965
210	0xbe93d84f	-0.28875968
211	0x3dd8092e	0.10548626
212	0x3d4264f5	0.04745956
213	0x3e97fc53	0.29684696
214	0xbd9e53fe	-0.07730864
215	0xbe07988a	-0.13241783
216	0x3e32ca87	0.1746007
217	0x3dc04c26	0.09389524
218	0x3ec0ad35	0.37632146
219	0xbe309cc3	-0.172473
220	0x3e39b1d5	0.18134244
221	0xbd13da6e	-0.036096983
222	0x3d624075	0.055237252
223	0x3e186c2f	0.14885019
224	0x3e71e6d8	0.23623216
225	0xbcee3fb7	-0.029083116
226	0x3d63a6a3	0.05557884
227	0xbc1d9ae5	-0.009619449
228	0xbda105fb	-0.07862469
229	0x3db8fc52	0.09032501
230	0xbe0e9943	-0.13925652
231	0x3e59040c	0.2119295
232	0x3da67323	0.08127429
233	0x3dbf2771	0.09333695
234	0xbe22992d	-0.15878744
235	0xbe6760bb	-0.22595493
236	0x3e32fd78	0.17479503
237	0x3d485b1e	0.04891502
238	0xbdf099a2	-0.11748053
239	0xbd6434fc	-0.055714592
240	0xbdabee9e	-0.08395122
241	0x3f17b08d	0.5925377
242	0xbdcdeb9c	-0.100547045
243	0xbda59596	-0.08085172
244	0x3cb70ae6	0.022344064
245	0x3ea365f1	0.31913713
246	0x3d41fbd9	0.04735932
247	0xbdacad78	-0.08431524
248	0xbe8ff5de	-0.2811727
249	0xbe14ca2e	-0.1453025
250	0x3e3dea09	0.18546309
251	0xbd88fab5	-0.066884436
252	0xbe6e3324	-0.23261696
253	0x3b5982f7	0.0033189633
254	0xbdbea42f	-0.09308659
255	0xbdd35abd	-0.10320041

enc1.1.conv1.pointwise.bias f4 [8]
0	0xbd83d696	-0.064374134
1	0xbd39e1c7	-0.045381334
2	0x3e039b5b	0.12852232
3	0x3d09bdb4	0.03362818
4	0x3dc66d2e	0.09688793
5	0xbc6b78b0	-0.014372036
6	0x3d98fc80	0.074700356
7	0x3bc3ad40	0.0059715807
