archs/basicSR_models/onnx/pruned_model90_PMRIDd2_ll.onnx (onnx, 39911 bytes, 82 tensors)

conv0.conv.weight f4 [8, 3, 3, 3]
-0.03434604 0.006907917 -0.12344668 0.04188187 0.1484163 0.102008365 -0.20178378 0.22528623
-0.15853287 -0.044832285 0.00491705 -0.013303328 -0.06283588 -0.31470302 -0.061065413 0.04453239
-0.12044872 -0.016859232 0.08066569 0.04264416 0.15479185 0.02633571 -0.37942564 -0.007893149
0.15090238 -0.050981198 0.17233208 -0.038887676 -0.08837301 -0.03672539 0.18050784 0.4266616
0.08262574 -0.02107667 0.18510976 -0.011055414 0.13082266 0.047077354 0.051038507 0.17135942
0.37540308 0.14465067 0.08966423 0.17159903 0.13107203 -0.0072530657 0.034881927 -0.018541666
0.021827541 0.19967192 -0.06807655 0.14181858 -0.0072121765 0.08132321 -0.17476638 0.072692454
0.24438769 -0.1758286 0.23543844 0.51149553 -0.05672532 0.13616414 -0.08067933 0.027148403
0.122869246 0.37810713 0.06489487 0.13381489 0.30092967 0.06218864 0.16678137 -0.010176473
-0.083584584 0.0034409382 -0.091240704 0.03755296 -0.16905746 0.024827925 -0.054392923 -0.16699912
-0.21434194 -0.035496283 0.070111305 -0.016591096 0.11483599 -0.025312765 0.023377614 -0.056015383
-0.1635146 -0.0027713287 -0.06337438 0.038078357 -0.14303163 0.0029648223 0.0025898097 -0.02623532
-0.24185918 -0.14321855 -0.16784377 0.22467184 0.26496074 0.050650693 0.36991468 0.3737927
0.04562065 -0.024909943 0.01613663 -0.08386886 -0.91839087 -0.20679937 0.19571023 0.291069
-0.23592892 0.002991363 0.11596764 -0.09984999 0.023444861 -0.15631998 0.2158737 0.26248866
0.6386584 0.12183889 0.095694296 0.05691226 0.1639149 -0.010857127 -0.20676565 0.21300378
-0.09123709 0.433251 -0.10487606 0.11476279 -0.101239294 -0.06360247 -0.044354852 -0.004977758
0.056801464 0.03142014 0.031227097 -0.39154375 0.10816567 0.12930548 0.018739112 0.011118682
0.012449722 0.053900722 -0.05532905 0.09285285 -0.030795263 0.0953219 -0.13490513 0.025827711
-0.00012980946 -0.11588221 0.1326376 -0.053857964 0.07471564 -0.038980287 -0.052020658 0.010350585
0.0044321613 0.0052946093 -0.071024805 0.05941423 -0.017575806 0.067115985 0.047173053 -0.042157423
-0.13709065 -0.026579551 0.03492749 -0.01797813 -0.007484282 -0.036299434 0.08197403 0.021237897
-0.017055137 -0.16011967 -0.093638405 -0.052688144 0.08141243 -0.02727308 0.110013865 0.35812035
0.31186613 0.03213493 0.034983713 0.043950778 0.1329781 0.0493468 0.107892714 -0.033693876
0.10194635 -0.09098226 0.32276082 0.07549099 0.04835619 0.028730096 0.017795287 -0.06254332
-0.048738226 -0.00909285 -0.12180445 0.26790404 -0.022870155 -0.08600973 -0.20032407 0.013516418
-0.13827707 -0.080839984 0.18922833 -0.07778455 0.37573302 0.12291034 -0.1375525 -0.10455438
00000000: 6fae 0cbd cf5b e23b 9dd1 fcbd 538c 2b3d
00000010: 71fa 173e c3e9 d03d 68a0 4ebe 6fb1 663e
00000020: 7156 22be 0fa2 37bd 341f a13b 34f6 59bc
00000030: 19b0 80bd c120 a1be ba1f 7abd 9867 363d
00000040: d2ad f6bd 5f1c 8abc 0e34 a53d a5ab 2e3d
00000050: c181 1e3e fdbd d73c 1444 c2be 4452 01bc
00000060: 2786 1a3e a9d1 50bd d277 303e af48 1fbd
00000070: e9fc b4bd 5d6d 16bd 0cd7 383e 6473 da3e
00000080: af37 a93d fba8 acbc 6a8d 3d3e c421 35bc
00000090: 60f6 053e 2fd4 403d c10d 513d d878 2f3e
000000a0: d534 c03e 4e1f 143e e1a1 b73d a8b7 2f3e
000000b0: bf37 063e 20ab edbb 5ae0 0e3d b1e4 97bc
000000c0: accf b23c cc76 4c3e b86b 8bbd e438 113e
000000d0: 1f54 ecbb c88c a63d f5f5 32be c8df 943d
000000e0: c440 7a3e 6a0c 34be c616 713e 5ff1 023f
000000f0: cf58 68bd 9d6e 0b3e 343b a5bd 5466 de3c
00000100: dfa2 fb3d 4297 c13e 9ae7 843d c506 093e
00000110: 7413 9a3e 84b9 7e3d bcc8 2a3e 39bb 26bc
00000120: 652e abbd 5d81 613b 68dc babd 22d1 193d
00000130: 661d 2dbe ef63 cb3c 1dcb 5ebd d101 2bbe
00000140: 747c 5bbe 8d64 11bd 8496 8f3d 0dea 87bc
00000150: 222f eb3d b75c cfbc 6982 bf3c 6370 65bd
00000160: 5f70 27be 2e9f 35bb 6dca 81bd 0df8 1b3d
00000170: e276 12be 774d 423b ccb9 293b 74eb d6bc
00000180: efa9 77be e2a7 12be 3ddf 2bbe 6010 663e
00000190: efa8 873e 1a77 4f3d 7565 bd3e c261 bf3e
000001a0: b8dc 3a3d f00f ccbc f730 843c 70c3 abbd
000001b0: aa1b 6bbf 37c3 53be 4368 483e ff06 953e
000001c0: 5a97 71be be0a 443b 7180 ed3d 277e ccbd
000001d0: 700f c03c 5812 20be ff0d 5d3e ea64 863e
000001e0: 1e7f 233f ab86 f93d 5ffb c33d d41c 693d
000001f0: 4fd9 273e 17e2 31bc 60ba 53be aa1d 5a3e
00000200: 83da babd 13d3 dd3e 42c9 d6bd c108 eb3d
00000210: 8c56 cfbd 0342 82bd 6fad 35bd 761c a3bb
00000220: a7a8 683d 68b2 003d f8cf ff3c 6c78 c8be
00000230: f685 dd3d a868 043e c482 993c 222b 363c
00000240: ebf9 4b3c 01c7 5c3d b7a0 62bd a329 be3d
00000250: 5946 fcbc 2138 c33d 9224 0abe a394 d33c
00000260: 761d 08b9 a753 edbd 27d2 073e 2b9a 5cbd
00000270: 8304 993d cba9 1fbd 9d13 55bd 8095 293c
00000280: aa3b 913b 677e ad3b 7475 91bd 565c 733d
00000290: 23fb 8fbc 1b74 893d 8838 413d 43ad 2cbd
000002a0: 7e61 0cbe 5cbd d9bc 2110 0f3d df46 93bc
000002b0: b53e f5bb b7ae 14bd 00e2 a73d 19fb ad3c
000002c0: 37b7 8bbc 69f6 23be 7ec5 bfbd 86cf 57bd
000002d0: 8fbb a63d cb6b dfbc f34e e13d 8d5b b73e
000002e0: ebac 9f3e eb9f 033d 154b 0f3d bb05 343d
000002f0: 692b 083e df1f 4a3d dbf6 dc3d 9702 0abd
00000300: 3fc9 d03d e854 babd e840 a53e 059b 9a3d
00000310: 2411 463d 615b eb3c 6cc7 913c b616 80bd
00000320: bca1 47bd 2dfa 14bc 9d74 f9bd b82a 893e
00000330: 315a bbbc df25 b0bd c121 4dbe f773 5d3c
00000340: 8198 0dbe 6f8f a5bd 12c5 413e 824d 9fbd
00000350: 1460 c03e 6bb8 fb3d 90da 0cbe 9b20 d6bd

conv0.conv.bias f4 [8]
4.407276 -0.57449603 0.2561234 -0.19985518 1.1014265 5.4004054 0.23488681 -1.0925819
00000000: 6808 8d40 2c12 13bf 9b22 833e d6a6 4cbe
00000010: 8bfb 8c3f 1fd0 ac40 2b86 703e b9d9 8bbf

enc2.0.conv1.depthwise.weight f4 [8, 1, 5, 5]
0.07147644 0.10144984 0.014316995 0.0015031877 0.26943797 0.04333036 0.10375483 -0.4532424
-0.27504122 0.16773118 0.3643036 0.56279504 -0.0032849612 0.027058452 0.02995016 0.3792338
0.41471073 -0.048279278 -0.064498425 0.14420575 -0.036623906 0.23456669 -0.30405083 -0.18210451
0.21022546 0.20446184 -0.078852855 -0.1667793 0.0729341 0.03649081 0.26971135 -0.08698011
-0.5551778 0.09040062 -0.02117159 0.31573376 -0.20119317 -0.660658 0.003006655 -0.09397939
0.06946588 -0.028103592 -0.20675571 0.08200927 0.054454446 0.034124106 0.0627162 0.09559405
-0.076737784 0.13489902 -0.0019473184 0.0026210104 -0.057684653 -0.05015408 0.06901631 -0.020709084
0.21713316 -0.21831296 0.08123591 -0.019944869 0.3191298 0.590347 0.04974739 -0.0057212743
0.021708734 0.17710179 0.30377376 0.07004512 -0.035439324 0.011351004 -0.24243136 0.08123729
-0.04436822 0.08863285 0.013048971 -0.010425259 -0.3035979 -0.29287657 -0.04398335 0.27081016
-0.14971434 -0.36450854 -0.099223465 -0.15817143 -0.1604082 -0.18950428 0.2973728 0.49177107
0.034900866 -0.07450385 0.15723038 0.30429867 1.0385348 -0.17173116 0.0602382 0.010145454
-0.11765903 -0.006122066 -0.09803374 -0.064019874 -0.03729898 0.0008112044 -0.09467727 -0.051467147
0.088887535 0.021797815 -0.14447524 -0.12780918 0.04473719 -0.072439454 -0.12273776 -0.2781005
-0.5002744 -0.102462836 -0.055057183 0.04895295 -0.023219785 -0.07973256 -0.42532173 0.037135527
-0.083066426 0.021832168 0.07696393 -0.23055594 0.003497475 -0.042251945 -0.1285067 -0.38708672
0.032034844 -0.019710235 0.15353645 -0.29656014 -0.34871262 0.24237143 0.06575835 -0.22066744
-0.34268576 -0.4957352 -0.114650965 -0.13392887 0.12993415 0.0041308324 -0.2829018 0.03178279
-0.12517524 0.22569521 0.018660445 -0.096111245 -0.10354938 -0.21155335 0.04572382 0.0035018725
0.18818574 -0.012417809 -0.12360649 -0.045635656 0.17758524 0.51867133 -0.16643253 0.2048462
0.01207146 0.19277456 0.7333897 -0.020902917 0.24320303 -0.024763422 0.003635074 0.52282906
0.0872859 0.07299448 0.039294295 -0.06710922 0.036252655 -0.17313223 0.06948113 0.33406505
0.25482562 -0.372816 0.19360453 0.059831914 0.71522164 0.44874164 -0.057316817 0.026363496
-0.07029634 0.6325161 0.39480394 0.45273012 -0.14974505 -0.0020263812 0.6624912 0.6709876
0.1949852 -0.038253456 0.06810956 -0.32127994 0.11084273 -0.1620204 0.32808465 0.100855686
00000000: 3d62 923d efc4 cf3d d491 6a3c 9c06 c53a
00000010: c6f3 893e 2d7b 313d 6a7d d43d 630f e8be
00000020: 34d2 8cbe b9c1 2b3e 0086 ba3e 5613 103f
00000030: 8148 57bb b0a9 dd3c 0a5a f53c ef2a c23e
00000040: f754 d43e 7ec0 45bd c017 84bd acaa 133e
00000050: f302 16bd 4032 703e 8dac 9bbe 9b79 3abe
00000060: 5845 573e 725e 513e 9b7d a1bd 31c8 2abe
00000070: 795e 953d 6377 153d 9b17 8a3e a122 b2bd
00000080: 2220 0ebf f623 b93d 0b70 adbc dba7 a13e
00000090: 9505 4ebe e220 29bf 4d0b 453b 4478 c0bd
000000a0: 2144 8e3d 8139 e6bc c5b7 53be 7af4 a73d
000000b0: a00b 5f3d b8c5 0b3d 5a71 803d d0c6 c33d
000000c0: b328 9dbd f822 0a3e 2a3d ffba 42c5 2b3b
000000d0: be46 6cbd 5d6e 4dbd 6c58 8d3d 19a6 a9bc
000000e0: 2858 5e3e 6f8d 5fbe 035f a63d 6c63 a3bc
000000f0: fb64 a33e fb20 173f ebc3 4b3d 8779 bbbb
00000100: 84d6 b13c 2c5a 353e 3c88 9b3e d173 8f3d
00000110: d328 11bd 90f9 393c ed3f 78be bc5f a63d
00000120: 73bb 35bd 2485 b53d 5acb 553c b5ce 2abc
00000130: 2f71 9bbe ebf3 95be e327 34bd a1a7 8a3e
00000140: b74e 19be dda0 babe ac35 cbbd b1f7 21be
00000150: 0c42 24be 690d 42be 3f41 983e 6bc9 fb3e
00000160: 36f4 0e3d 7995 98bd 0001 213e 09cd 9b3e
00000170: b5ee 843f 4bda 2fbe 55bc 763d 1e39 263c
00000180: 38f7 f0bd 9d9b c8bb eac5 c8bd da1c 83bd
00000190: d1c6 18bd 01a7 543a 28e6 c1bd 37cf 52bd
000001a0: ab0a b63d 5591 b23c 51f1 13be 69e0 02be
000001b0: 583e 373d 235b 94bd ef5d fbbd 3063 8ebe
000001c0: fc11 00bf 09d8 d1bd a483 61bd e382 483d
000001d0: 6b37 bebc d34a a3bd c5c3 d9be 6c1b 183d
000001e0: bb1e aabd 60d9 b23c 449f 9d3d db16 6cbe
000001f0: e535 653b 6010 2dbd 4397 03be 3b30 c6be
00000200: f836 033d 5c77 a1bc a938 1d3e bbd6 97be
00000210: 768a b2be 3730 783e 50ac 863d a5f6 61be
00000220: 8274 afbe 01d1 fdbe 20ce eabd a624 09be
00000230: 750d 053e ef5b 873b 81d8 90be ac2e 023d
00000240: f02d 00be a51c 673e cadd 983c f9d5 c4bd
00000250: b311 d4bd 71a1 58be e648 3b3d ac7f 653b
00000260: c3b3 403e 1174 4bbc 6625 fdbd 74ec 3abd
00000270: e8d8 353e a5c7 043f 4a6d 2abe 34c3 513e
00000280: 5fc7 453c b266 453e 6dbf 3b3f 983c abbc
00000290: 370a 793e a9dc cabc 6c3a 6e3b 20d8 053f
000002a0: f3c2 b23d 217e 953d 0ef3 203d 8f70 89bd
000002b0: aa7d 143d 9349 31be 1f4c 8e3d 930a ab3e
000002c0: 8178 823e bde1 bebe 4440 463e 4f12 753d
000002d0: c418 373f 77c1 e53e 0ac5 6abd 42f8 d73c
000002e0: 87f7 8fbd 93ec 213f be23 ca3e 3ecc e73e
000002f0: c456 19be 09cd 04bb 0699 293f d8c5 2b3f
00000300: 33aa 473e a8af 1cbd 067d 8b3d ce7e a4be
00000310: 8301 e33d ade8 25be b6fa a73e 6d8d ce3d

enc2.0.conv1.pointwise.weight f4 [1, 8, 1, 1]
-0.15159518 -0.1001894 -0.26260558 -0.06261302 -0.122595064 -0.08378332 -0.14370683 0.11931736
00000000: c43b 1bbe 1a30 cdbd 3d74 86be 413b 80bd
00000010: 1f13 fbbd 9796 abbd e227 13be a95c f43d

enc2.0.conv2.depthwise.weight f4 [1, 1, 5, 5]
0.068640426 -0.049624294 0.12445569 -0.06905367 0.09759695 0.1310337 -0.1155662 -0.021139108
-0.17627881 0.09834776 -0.032190844 -0.16113076 -0.63807416 -0.6841223 -0.20725052 -0.12725592
-0.19267325 -0.14390194 -0.23277552 -0.031078577 0.037625957 -0.11881489 -0.02109384 -0.115736075
0.13115244
00000000: 5a93 8c3d d842 4bbd a0e2 fe3d 036c 8dbd
00000010: e9e0 c73d b32d 063e f9ad ecbd ec2b adbc
00000020: 6f82 34be 8d6a c93d 8cda 03bd 76ff 24be
00000030: d458 23bf a422 2fbf 7b39 54be 604f 02be
00000040: 234c 45be 085b 13be b55c 6ebe 8098 febc
00000050: ad1d 1a3d 3955 f3bd fdcc acbc 0907 edbd
00000060: d34c 063e

enc2.0.proj.depthwise.weight f4 [8, 1, 3, 3]
0.15800236 0.111851946 0.04639859 0.04947874 -0.1979393 -0.36727223 -0.06662079 -0.3104535
-0.22165585 -0.02053059 -0.02348076 0.12239454 -0.08061268 0.31705597 0.15322112 0.012204049
0.037150685 -0.070593625 0.2121762 0.051704377 0.077956796 -0.19328782 0.059352875 -0.03614503
-0.26547706 -0.16278216 0.109927624 0.021822302 0.0608227 0.017204937 0.11078835 -0.13189729
0.12901077 -0.002122248 0.11012999 -0.42355004 0.009181672 -0.0003518018 -0.1014765 0.08459576
0.04307687 0.06470492 0.012379812 -0.006137934 -0.003995042 -0.08172845 0.06875332 -0.002709937
0.10251707 0.053769328 0.115630135 0.09169137 0.35473964 0.27326074 0.058387633 -0.13458604
0.24573392 0.02329263 -0.18945819 0.33749595 -0.019638391 -0.11019138 -0.21454334 0.05386869
0.12838046 -0.08029615 0.012261738 0.064008206 -0.21502571 0.02322164 -0.22614795 -0.09829479
00000000: 5fcb 213e a212 e53d 730c 3e3d 38aa 4a3d
00000010: 9ab0 4abe 1b0b bcbe 7b70 88bd c3f3 9ebe
00000020: c0f9 62be c52f a8bc b95a c0bc fda9 fa3d
00000030: 4318 a5bd 2955 a23e ffe5 1c3e 7ef3 473c
00000040: 512b 183d 6493 90bd b844 593e f8c7 533d
00000050: d0a7 9f3d 3eed 45be 001c 733d d00c 14bd
00000060: 9cec 87be 5eb0 26be bc21 e13d afc4 b23c
00000070: 3921 793d 5ef1 8c3c 01e5 e23d 1510 07be
00000080: 661b 043e 6a15 0bbb d58b e13d 8ddb d8be
00000090: b96e 163c 0a72 b8b9 e9d2 cfbd 8b40 ad3d
000000a0: 5f71 303d 0384 843d b2d4 4a3c b920 c9bb
000000b0: d7e8 82bb 3f61 a7bd 8ace 8c3d 3399 31bb
000000c0: 78f4 d13d 3a3d 5c3d 7ecf ec3d afc8 bb3d
000000d0: 6fa0 b53e d5e8 8b3e df27 6f3d ecd0 09be
000000e0: aca1 7b3e 30d0 be3c 5401 42be 45cc ac3e
000000f0: b1e0 a0bc 05ac e1bd 40b1 5bbe 6aa5 5c3d
00000100: 2b76 033e 4f72 a4bd 75e5 483c bc16 833d
00000110: b32f 5cbe 4f3b be3c 5493 67be c74e c9bd

enc2.0.proj.pointwise.weight f4 [1, 8, 1, 1]
-0.28750792 0.12413592 -0.12017012 -0.29855898 0.043475263 0.05263311 -0.009952842 0.04689211
00000000: 3d34 93be f93a fe3d c01b f6bd b9dc 98be
00000010: 1e13 323d d195 573d 3f11 23bc f111 403d

enc2.1.conv1.depthwise.weight f4 [1, 1, 5, 5]
-0.11428287 -0.15163328 -0.32671025 0.12441835 -0.02683159 0.03482707 -0.51951224 -0.5061745
-0.19471927 0.28867614 0.102015905 -0.16570742 -0.29699144 0.06277082 -0.117839046 0.063289225
0.12975521 -0.27265868 0.11283072 -0.04280132 0.06640174 0.1956215 -0.08899153 0.1823946
0.14011139
00000000: 230d eabd c145 1bbe 9146 a7be 0ccf fe3d
00000010: eccd dbbc d4a6 0e3d c1fe 04bf a794 01bf
00000020: 7d64 47be 5ccd 933e b7ed d03d 35af 29be
00000030: 430f 98be fd8d 803d 9955 f1bd c89d 813d
00000040: 8dde 043e eb99 8bbe cb13 e73d 7050 2fbd
00000050: a3fd 873d 0151 483e 3141 b6bd a6c5 3a3e
00000060: 5c79 0f3e

enc2.1.conv2.depthwise.weight f4 [1, 1, 5, 5]
-0.057267457 0.19853163 -0.19204803 0.0778665 -0.0604032 0.13162342 -0.0032137076 -0.047196947
-0.010975556 0.15638186 0.08925465 -0.107139446 -0.5409089 0.23868336 -0.19758973 0.110972404
0.011978272 -1.0713861 -0.8373478 0.061162435 0.071603596 -0.28442687 -0.6520472 -0.387993
-0.33303136
00000000: 4891 6abd e04b 4b3e 3da8 44be 7978 9f3d
00000010: 5969 77bd 4ac8 063e 119d 52bb 9651 41bd
00000020: d2d2 33bc 9122 203e 24cb b63d ed6b dbbd
00000030: 0179 0abf 6969 743e f654 4abe 8045 e33d
00000040: 8440 443c 2e23 89bf 6d5c 56bf 7685 7a3d
00000050: e8a4 923d 66a0 91be 91ec 26bf 05a7 c6be
00000060: 1683 aabe

enc3.0.conv1.depthwise.weight f4 [1, 1, 5, 5]
-0.14482366 -0.06649409 0.89330053 0.1922296 -0.06631541 0.3494945 0.011709496 0.6355181
0.36690128 0.21231279 -0.0065566394 -0.18137324 0.64982855 0.56777054 0.3232388 0.0598763
-0.11365948 0.08270892 0.014456572 0.014866089 -0.1700036 0.28710315 0.116251 -0.022703217
0.26900628
00000000: a74c 14be 0e2e 88bd 58af 643f d6d7 443e
00000010: 60d0 87bd f1f0 b23e 30d9 3f3c 50b1 223f
00000020: 7cda bb3e 8668 593e 14d9 d6bb e8b9 39be
00000030: 2a5b 263f 6959 113f 8e7f a53e da40 753d
00000040: 4dc6 e8bd 4b63 a93d 42db 6c3c e690 733c
00000050: 6c15 2ebe 2fff 923e 0115 ee3d 19fc b9bc
00000060: 31bb 893e

enc3.0.conv2.depthwise.weight f4 [1, 1, 5, 5]
0.027233202 -0.088677734 0.16000965 0.047084745 0.003986189 -0.013726367 0.06280319 0.043048885
-0.29685414 0.11143197 0.29043365 -0.03989261 0.72540796 -0.21220681 0.07677887 -0.35604128
-0.11423496 0.4283506 -0.048683453 -0.029991647 0.09387363 -0.12138702 0.2804098 -0.269286
-0.031044966
00000000: 2a18 df3c ac9c b5bd 92d9 233e efdb 403d
00000010: 949e 823b 8ee4 60bc f59e 803d 0754 303d
00000020: 44fd 97be 7236 e43d b8b3 943e 6f66 23bd
00000030: 56b4 393f be4c 59be 3d3e 9d3d 0b4b b6be
00000040: 05f4 e9bd c550 db3e 4d68 47bd 0bb1 f5bc
00000050: d140 c03d c299 f8bd e091 8f3e dbdf 89be
00000060: 0352 febc

enc3.0.conv2.pointwise.weight f4 [11, 1, 1, 1]
-0.5382795 0.8269272 -0.1488155 0.10113066 0.58599263 -0.82035726 1.1143304 -0.24752937
0.93671876 -0.36766806 0.6487122
00000000: afcc 09bf 80b1 533f 1763 18be 971d cf3d
00000010: 9d03 163f ef02 52bf 61a2 8e3f 5778 7dbe
00000020: cdcc 6f3f fd3e bcbe 0112 263f

enc3.0.conv2.pointwise.bias f4 [11]
0.6036091 0.31776607 -0.99946314 -0.41328058 -0.32276765 -1.0035477 0.18425608 -0.6896063
-0.21605533 -1.3003063 0.600149
00000000: 2086 1a3f 3cb2 a23e d1dc 7fbf 8399 d3be
00000010: cd41 a5be 4074 80bf a0ad 3c3e 0a8a 30bf
00000020: 9c3d 5dbe 7070 a6bf 5da3 193f

enc3.0.proj.depthwise.weight f4 [1, 1, 3, 3]
-0.01723315 -0.03809931 -0.19711721 -0.112514034 -0.24086384 -0.31163192 -0.08926197 -0.2866261
-0.3253784
00000000: 892c 8dbc 060e 1cbd 18d9 49be c26d e6bd
00000010: 03a5 76be 388e 9fbe fbce b6bd a8c0 92be
00000020: ff97 a6be

enc3.0.proj.pointwise.weight f4 [11, 1, 1, 1]
-0.31341755 -0.18073754 -0.16634493 -0.2676959 0.82935303 -0.20697625 0.30401844 -0.109308146
0.65715736 -0.39031968 1.3241558
00000000: 4478 a0be 4313 39be 5356 2abe 700f 89be
00000010: 7b50 543f 95f1 53be 4ea8 9b3e f3dc dfbd
00000020: 773b 283f fbd7 c7be f07d a93f

enc3.0.proj.pointwise.bias f4 [11]
0.3782765 0.32767874 -0.7864514 -0.25496435 -0.62433857 -0.79343784 0.33203056 -0.62961465
-0.18137766 -1.2183315 0.7624158
00000000: 75ad c13e 82c5 a73e e154 49bf b08a 82be
00000010: a7d4 1fbf be1e 4bbf e9ff a93e 6d2e 21bf
00000020: 11bb 39be 49f2 9bbf af2d 433f

enc3.1.conv1.depthwise.weight f4 [11, 1, 5, 5]
0.3358232 0.33717036 0.41797608 0.17076826 0.0025820027 0.120938696 0.2188193 0.07492523
-0.29248428 -0.14734462 -0.19536774 0.14413126 -0.55571955 0.13419737 0.59282565 0.24824972
0.12977329 -0.20401937 0.23430829 -0.20880625 0.15979822 0.34230542 0.2668863 0.2059505
0.2454066 -0.19535023 0.22111173 0.14055105 -0.083569795 0.07345454 -0.14152952 0.042397834
0.0398717 0.770994 0.4044475 0.046718907 -0.0528055 0.0890477 -0.066858776 0.2860964
-0.22494105 -0.05927807 0.23354045 -0.37353826 -0.13196959 0.18645501 -0.18337895 0.15113856
0.04741679 0.06958134 0.15861289 -0.3909471 0.1298509 -0.27399278 0.103845604 -0.30240607
0.1339851 -0.38546428 -0.38012657 0.27248505 0.2863812 0.1958056 0.09463769 -0.4178542
0.0058004935 -0.07673588 -0.31422424 -0.6159538 -0.32585827 -0.32393742 0.09202806 0.027721534
-0.12730518 -0.3987239 0.02272292 0.35128394 0.09595973 0.14997643 -0.007924991 0.083556995
0.22297141 0.120557815 0.09771491 0.19908458 0.11396392 -0.33571 -0.21381038 -0.34138334
0.24572991 0.08744935 0.089365706 0.54059315 0.2722553 0.22022036 0.32609248 0.45407674
0.062007535 -0.40784374 0.26253206 0.24402894 0.23879246 0.10403842 -0.10966019 -0.07633032
0.29211682 -0.039909203 0.21408507 -0.02972051 -0.14794835 -0.5316173 -0.19690773 0.018583978
-0.07107297 -0.32378694 -0.38798276 -0.45230436 -0.5934163 -0.6718338 -1.0576223 -0.63662064
-0.54317594 -0.31566224 0.06537935 -0.36196044 0.108194 -0.2858151 0.10017041 -0.3743317
-0.63718283 -0.6033438 -0.18704386 -0.14133197 -0.081188515 0.2597779 -0.06272449 0.056895953
-0.19968233 -0.63590103 -0.423792 -0.12015774 0.07563643 -0.37401852 -1.2741162 -0.7063922
-0.5331009 -0.0048666336 -0.10496308 -0.43328652 -0.67245144 -0.71125567 0.37466708 0.20090613
-0.17383347 0.6007631 -0.5789994 0.04916529 0.033658013 -0.5343872 0.10022138 -0.06642296
-0.44120732 -0.13257472 0.06581148 0.16833726 -0.12827373 0.047191285 0.2433633 0.6940283
0.2064035 0.3965042 -0.08000911 0.41224402 0.43603188 0.27334163 0.40272763 0.13789682
0.25179 0.28968164 0.32471952 -0.094649225 0.05008633 0.22863212 -0.10334966 0.023476603
-0.084392905 0.13424453 -0.3197468 -0.26567802 0.15984477 -0.35854453 0.14376664 0.37506595
-0.24506167 0.37701908 -0.06495578 -0.24195504 -0.3793103 0.17014207 0.3104208 -0.19802389
0.22348763 0.037851907 0.36241174 -0.34295732 -0.22488631 -0.14864603 -0.4940672 -0.19354415
-0.3503558 -0.30274594 0.2193521 0.23358525 -0.046972055 0.45687693 0.5161649 -0.037900064
-0.5494381 0.5623272 -0.05150844 -0.108777456 0.10124672 -0.22275649 0.28886864 0.30233642
-0.3302967 -0.27457026 -0.34118503 -0.32585046 -0.08166393 -0.19696659 0.05380543 0.25325447
0.16593921 0.11055756 -0.056192577 -0.1984521 -0.52662444 0.20593235 -0.031302493 0.10462862
-0.22954369 -0.31209067 -0.071345314 0.089671075 0.10716366 -0.080965385 -0.28268138 -0.28788275
0.08632293 0.21987973 0.08561264 0.21315752 -0.3381008 0.24984182 -0.19070566 -0.25029886
00000000: 05f1 ab3e 98a1 ac3e f600 d63e e0dd 2e3e
00000010: d136 293b b5ae f73d 2b12 603e 6672 993d
00000020: 80c0 95be 82e1 16be 7b0e 48be 2597 133e
00000030: a343 0ebf 096b 093e 6cc3 173f 2d35 7e3e
00000040: 4ae3 043e 74ea 50be 83ee 6f3e 4ed1 55be
00000050: 25a2 233e a842 af3e 52a5 883e b0e4 523e
00000060: de4b 7b3e e409 48be 1d6b 623e 9dec 0f3e
00000070: a426 abbd 556f 963d 1ded 10be 5aa9 2d3d
00000080: 8250 233d dd5f 453f be13 cf3e 535c 3f3d
00000090: 944a 58bd a45e b63d 41ed 88bd 3a7b 923e
000000a0: f256 66be 90cd 72bd 3a25 6f3e 6840 bfbe
000000b0: 0923 07be 10ee 3e3e b1c7 3bbe 11c4 1a3e
000000c0: 1c38 423d a980 8e3d 6b6b 223e 382a c8be
000000d0: a2f7 043e c848 8cbe 01ad d43d f8d4 9abe
000000e0: 6433 093e 935b c5be f39f c2be 2983 8b3e
000000f0: 8fa0 923e 4381 483e 68d1 c13d fcf0 d5be
00000100: 1112 be3b b327 9dbd 00e2 a0be 26af 1dbf
00000110: e5d6 a6be 20db a5be 3579 bc3d 4518 e33c
00000120: 4a5c 02be 8a25 ccbe 6b25 ba3c 7ddb b33e
00000130: 8986 c43d 6c93 193e d2d7 01bc ee1f ab3d
00000140: 9e52 643e 04e7 f63d c11e c83d d4dc 4b3e
00000150: ea65 e93d 2ee2 abbe 1cf1 5abe ccc9 aebe
00000160: 9fa0 7b3e a518 b33d 5e05 b73d 5064 0a3f
00000170: 0c65 8b3e 7281 613e 98f5 a63e bf7c e83e
00000180: 9dfb 7d3d e5d0 d0be 9a6a 863e b9e2 793e
00000190: 0386 743e 1812 d53d 8695 e0bd 1253 9cbd
000001a0: 5690 953e d577 23bd 1e39 5b3e 6d78 f3bc
000001b0: c67f 17be 1218 08bf 2ea2 49be 6d3d 983c
000001c0: b58e 91bd 67c7 a5be ada5 c6be 7094 e7be
000001d0: 21ea 17bf 4dfd 2bbf 2b60 87bf 92f9 22bf
000001e0: 940d 0bbf 7b9e a1be 9ce5 853d e152 b9be
000001f0: d194 dd3d 5b56 92be 2526 cd3d 68a8 bfbe
00000200: 6a1e 23bf bd74 1abf 6d88 3fbe 54b9 10be
00000210: 2a46 a6bd 9c01 853e b375 80bd bb0b 693d
00000220: 8679 4cbe 69ca 22bf 44fb d8be 4315 f6bd
00000230: 46e7 9a3d 5b7f bfbe 3d16 a3bf 1fd6 34bf
00000240: 4d79 08bf 4878 9fbb e2f6 d6bd bbd7 ddbe
00000250: c725 2cbf da14 36bf 5dd4 bf3e 56ba 4d3e
00000260: 6701 32be 9ccb 193f 4e39 14bf 8b61 493d
00000270: fcdc 093d 99cd 08bf de40 cd3d c308 88bd
00000280: ede5 e1be abc1 07be 2bc8 863d 9a60 2c3e
00000290: 305a 03be a64b 413d 3b34 793e d7ab 313f
000002a0: 705b 533e 9902 cb3e d1db a3bd a611 d33e
000002b0: 923f df3e 6ff3 8b3e 5132 ce3e d334 0d3e
000002c0: 9eea 803e 2751 943e a341 a63e 74d7 c1bd
000002d0: 5327 4d3d 8a1e 6a3e fda8 d3bd 0152 c03c
000002e0: 30d6 acbd 6677 093e dab5 a3be f306 88be
000002f0: 59ae 233e 2693 b7be 9037 133e a508 c03e
00000300: 72f1 7abe a508 c13e 8907 85bd 10c3 77be
00000310: f634 c2be b939 2e3e 7aef 9e3e c6c6 4abe
00000320: f1d9 643e 9a0a 1b3d 088e b93e 1a98 afbe
00000330: 9948 66be aa36 18be 60f6 fcbe 7030 46be
00000340: d661 b3be 8401 9bbe d69d 603e f930 6f3e
00000350: c565 40bd c6eb e93e 6223 043f 193d 1bbd
00000360: faa7 0cbf adf4 0f3f 84fa 52bd b7c6 debd
00000370: 715a cf3d 471a 64be 97e6 933e d7cb 9a3e
00000380: a61c a9be 7994 8cbe ceaf aebe dfd5 a6be
00000390: 6b3f a7bd 9cb1 49be 1563 5c3d 92aa 813e
000003a0: f8eb 293e 016c e23d 302a 66bd 0737 4bbe
000003b0: dcd0 06bf eedf 523e 0b37 00bd 8847 d63d
000003c0: 800d 6bbe 59ca 9fbe 7e1d 92bd 78a5 b73d
000003d0: 9f78 db3d 2ed1 a5bd 9dbb 90be 5e65 93be
000003e0: 14ca b03d 2728 613e ae55 af3d f745 5a3e
000003f0: 8c1b adbe 89d6 7f3e 5848 43be 2c27 80be

enc3.1.conv1.pointwise.weight f4 [1, 11, 1, 1]
0.13084772 -0.12005839 -0.31238094 -0.49023584 -0.79218334 -0.35902098 0.80062765 -1.396152
-0.032750845 -0.35043588 -0.038332835
00000000: f2fc 053e 2ce1 f5bd 65f0 9fbe 3100 fbbe
00000010: 87cc 4abf 99d1 b7be eff5 4c3f 1cb5 b2bf
00000020: c025 06bd 556c b3be e402 1dbd

enc3.1.conv2.depthwise.weight f4 [1, 1, 5, 5]
0.0013036212 0.036426704 -0.106013246 -0.021142518 0.040920116 -0.048377674 -0.0008116615 -0.052198157
0.006288858 -0.012200403 0.04124426 -0.12954503 0.053153824 -0.083504714 0.05853124 0.014030518
-0.0320528 0.032533087 0.06080122 -0.085381486 0.002352909 -0.014657916 0.010871872 -0.050451074
0.022238892
00000000: 45de aa3a 2b34 153d 791d d9bd 1333 adbc
00000010: da9b 273d ab27 46bd aec5 54ba bccd 55bd
00000020: c412 ce3b 33e4 47bc beef 283d 74a7 04be
00000030: d3b7 593d 8504 abbd 74be 6f3d 42e0 653c
00000040: cc49 03bd 6a41 053d b30a 793d 7ddc aebd
00000050: 4333 1a3b c127 70bc f01f 323c c9a5 4ebd
00000060: 562e b63c

enc3.1.conv2.pointwise.weight f4 [11, 1, 1, 1]
1.0193264 -0.20811066 0.54183865 0.5047989 0.460292 -0.1509061 0.7072596 -0.13042861
0.83127064 0.62010175 0.08995383
00000000: 4a79 823f f61a 55be f0b5 0a3f 803a 013f
00000010: 65ab eb3e 2187 1abe f70e 353f 148f 05be
00000020: 27ce 543f fdbe 1e3f b739 b83d

enc3.1.conv2.pointwise.bias f4 [11]
0.33037016 -0.08215047 -1.3612068 -0.6680179 0.5808398 -0.85047805 0.29393765 -0.9314497
0.39560467 -0.43295783 -0.22218725
00000000: 4726 a93e 813e a8bd 063c aebf 3903 2bbf
00000010: ebb1 143f eeb8 59bf ff7e 963e 7d73 6ebf
00000020: b28c ca3e a6ac ddbe 0e85 63be

enc3.2.conv1.depthwise.weight f4 [11, 1, 5, 5]
0.46708843 0.57802826 0.3230443 0.014829315 -0.15519436 -0.19237748 0.56887925 0.23923272
-0.23253307 0.050083473 -0.27047792 -0.6015054 -0.31274936 -0.0077866204 0.5804042 -0.060646236
-0.5289349 0.048079234 0.31237942 0.50212973 -0.037422106 -0.367756 0.20287244 0.015715847
0.02872897 0.04632447 0.35566545 -0.034439612 0.13129151 0.041954286 0.069584996 0.5106545
0.26482737 -0.3380843 -0.2122023 -0.21522678 0.32022205 0.12911738 0.37287194 0.5257945
-0.26033992 0.21305645 0.057601433 0.16589253 0.44516334 0.13749698 0.18360683 -0.11088614
-0.13302411 0.3606961 0.18810812 -0.49503082 0.27823666 0.4326119 -0.54822135 0.5256939
0.35244086 -0.24724527 0.05676738 -0.54765344 0.33773908 0.71251595 0.5370521 -0.22199763
-0.5846147 0.12279795 0.21107048 0.632638 -0.14134564 -0.07371571 -0.06523466 0.27748078
0.89931995 0.46476734 0.21640429 -0.7155863 -0.28822735 0.07099613 -0.16599828 -0.32540733
-0.6236737 -0.04780016 -0.19918661 -0.37156063 -0.120408826 -0.6150712 -0.21486893 0.27496308
0.020269087 -0.20879836 -0.0065967394 -0.012834714 0.10904903 -0.38514677 0.3089472 -0.35250974
0.023119988 0.27294976 0.6746789 0.13415873 -0.63131654 -0.98596334 -0.50964844 -0.3979968
-0.45119026 -0.22131911 -0.15291682 -0.31121537 -0.20908624 -0.19920218 -0.12153583 0.23874384
0.47373286 0.23055789 -0.46653476 -0.047576524 -0.3654739 -0.8293517 -0.28473437 -0.08323211
-0.0069517065 0.020856027 -0.41556802 -0.18005323 -0.22091158 -0.19681287 0.1349935 0.6907285
0.2594577 0.46181014 -0.20382148 0.01553034 0.04949776 -0.4969767 0.35607713 0.26440543
0.64272416 0.4129594 0.17616883 0.14968914 -0.039979126 0.20712383 0.26770455 0.21592602
0.34401885 0.094666876 -0.6830509 -0.21956733 -0.5285319 -0.47311777 -0.9578334 -0.17636903
0.20302567 -0.13655253 -0.8010255 0.018638387 0.08072589 0.42856783 0.08646164 -0.17258406
-0.15798517 -0.3741814 0.11606843 -0.4969189 -0.2014148 -0.36308074 -0.16696122 0.6282958
0.43996918 0.45924664 0.1633765 0.37600142 0.4240181 0.3708188 0.21946207 0.2832763
0.20244141 0.22376451 0.019183174 0.05754094 0.17541417 -0.10973335 0.43665716 0.5551917
-0.009705399 0.4475028 -0.25939676 0.018193252 0.6251626 0.062377788 0.051690467 -0.104368836
-0.00857336 -0.11991808 0.6811288 -0.10020414 -0.027199866 -0.30123526 -0.007859591 0.32518333
0.09766286 -0.216312 -0.18082882 -0.0799212 -0.15480286 -0.1756698 -0.16529417 -0.5790231
-1.0280675 -0.26958287 -0.11845485 0.08872664 0.16189852 -0.093130775 -0.004244112 0.4930214
0.05255298 -0.24057211 -0.27151582 -0.5601637 -0.20497487 -0.05175916 -0.2158172 -0.18513586
-0.0061177528 0.36847436 -0.12745851 -0.16001336 -0.14860983 -0.2526505 0.2818018 -0.15425016
0.39885578 0.15029077 0.12078224 0.62468255 0.2591782 0.2324703 0.13932891 -0.14869866
0.49263418 -0.047085404 0.3886864 0.08592764 -0.11787653 -0.03755044 0.16338946 0.26668873
0.04928032 0.026602138 -0.20010975 -0.23914924 -0.33009455 0.1534259 -0.14413595 -0.26297432
00000000: 3726 ef3e a9f9 133f 1066 a53e a8f6 723c
00000010: 45eb 1ebe 9afe 44be 12a2 113f 6cf9 743e
00000020: 261d 6ebe 5424 4d3d 157c 8abe 42fc 19bf
00000030: af20 a0be e826 ffbb 5f95 143f 3068 78bd
00000040: 4768 07bf bbee 443d 32f0 9f3e 938b 003f
00000050: ec47 19bd 844a bcbe cbbd 4f3e 85be 803c
00000060: 0459 eb3c babe 3d3d c819 b63e 8d10 0dbd
00000070: 4871 063e 42d8 2b3d 9482 8e3d 41ba 023f
00000080: 7497 873e 6319 adbe 8f4b 59be 6964 5cbe
00000090: 25f4 a33e 5937 043e 12e9 be3e 789a 063f
000000a0: 464b 85be 782b 5a3e 7bef 6b3d bbdf 293e
000000b0: 73ec e33e 02cc 0c3e 6e03 3c3e 4618 e3bd
000000c0: 7937 08be 29ad b83e 6a9f 403e ae74 fdbe
000000d0: 0975 8e3e 4f7f dd3e 3c58 0cbf e093 063f
000000e0: 2173 b43e dd2d 7dbe ea84 683d 0433 0cbf
000000f0: 23ec ac3e 7267 363f 3f7c 093f 5953 63be
00000100: 4fa9 15bf 7e7d fb3d dc22 583e 90f4 213f
00000110: e9bc 10be 43f8 96bd c099 85bd f611 8e3e
00000120: d539 663f fcf5 ed3e 1699 5d3e aa30 37bf
00000130: 8992 93be 6b66 913d 74fb 29be ca9b a6be
00000140: 14a9 1fbf 1aca 43bd 93f7 4bbe 323d bebe
00000150: e798 f6bd 4e75 1dbf 9a06 5cbe f6c7 8c3e
00000160: 5b0b a63c 3dcf 55be 7629 d8bb b148 52bc
00000170: 1955 df3d f531 c5be 542e 9e3e 287c b4be
00000180: 2166 bd3c 12c0 8b3e c2b7 2c3f e860 093e
00000190: f69d 21bf 1868 7cbf 5278 02bf 3dc6 cbbe
000001a0: 6902 e7be 7aa1 62be 3a96 1cbe 9f57 9fbe
000001b0: b41a 56be a8fb 4bbe c7e7 f8bd 4479 743e
000001c0: 1d8d f23e 5e17 6c3e a5dd eebe 9adf 42bd
000001d0: 651f bbbe 6550 54bf b4c8 91be 9975 aabd
000001e0: 24cb e3bb 42da aa3c 55c5 d4be e05f 38be
000001f0: a536 62be 5089 49be bc3b 0a3e 95d3 303f
00000200: a4d7 843e 6172 ec3e 94b6 50be f872 7e3c
00000210: 2abe 4a3d bb73 febe be4f b63e 2660 873e
00000220: 9289 243f 6a6f d33e 9a65 343e 1c48 193e
00000230: 27c1 23bd 4518 543e 9210 893e b61b 5d3e
00000240: 3d23 b03e b5e0 c13d 6cdc 2ebf 42d6 60be
00000250: de4d 07bf 7e3c f2be 9234 75bf 159a 34be
00000260: f6e5 4f3e 6dd4 0bbe 0210 4dbf 88af 983c
00000270: 9e53 a53d 3e6d db3e cd12 b13d e0b9 30be
00000280: ddc6 21be b494 bfbe 49b5 ed3d 276c febe
00000290: ae3f 4ebe b8e5 b9be e2f7 2abe fed7 203f
000002a0: a443 e13e 6022 eb3e 2b4c 273e 4283 c03e
000002b0: e718 d93e f6db bd3e aaba 603e 9709 913e
000002c0: cd4c 4f3e 8622 653e 0826 9d3c 0cb0 6b3d
000002d0: c69f 333e e1bb e0bd 8791 df3e 0b21 0e3f
000002e0: 6503 1fbc 161f e53e a7cf 84be 040a 953c
000002f0: a80a 203f da7f 7f3d 62b9 533d 54bf d5bd
00000300: 4777 0cbc 9c97 f5bd 755e 2e3f d437 cdbd
00000310: 41d2 debc 823b 9abe 84c5 00bc 6e7e a63e
00000320: 7703 c83d e580 5dbe 312b 39be baad a3bd
00000330: a484 1ebe c9e2 33be e042 29be dc3a 14bf
00000340: b797 83bf c406 8abe 7598 f2bd 50b6 b53d
00000350: bac8 253e 59bb bebd 3112 8bbb 4d6d fc3e
00000360: cb41 573d 8958 76be 1f04 8bbe e366 0fbf
00000370: efe4 51be 6a01 54bd 2fff 5cbe 4194 3dbe
00000380: 6e77 c8bb aca8 bc3e 7c84 02be 8bda 23be
00000390: 2d2d 18be 685b 81be 5348 903e c1f3 1dbe
000003a0: d336 cc3e d3e5 193e ae5c f73d 32eb 1f3f
000003b0: 01b3 843e b20c 6e3e 3dac 0e3e 7644 18be
000003c0: 8c3a fc3e a0dc 40bd e701 c73e d5fa af3d
000003d0: 4069 f1bd 7dce 19bd 914f 273e 6d8b 883e
000003e0: 29da 493d baec d93c 92e9 4cbe 8ae3 74be
000003f0: 2702 a9be ae1b 1d3e 6098 13be 92a4 86be

enc3.2.conv1.pointwise.weight f4 [2, 11, 1, 1]
0.64967054 -0.67006975 0.4548399 0.18755832 0.8413077 0.7181425 -0.6869897 -0.5045421
0.428669 -0.064725004 0.73140514 0.7403213 -0.35268047 0.70900434 -0.26276252 -0.46132
-0.50992 -0.99236757 -0.073734656 0.15001899 0.5197441 0.6569101
00000000: cf50 263f b189 2bbf c6e0 e83e 4a0f 403e
00000010: f15f 573f 30d8 373f 8fde 2fbf ac29 01bf
00000020: 817a db3e 8b8e 84bd 5e3d 3b3f b285 3d3f
00000030: 8992 b4be 4f81 353f cf88 86be 2332 ecbe
00000040: 1e8a 02bf cd0b 7ebf 3202 97bd 949e 193e
00000050: f30d 053f 432b 283f

enc3.2.conv1.pointwise.bias f4 [2]
-1.3090601 -1.1582571
00000000: 488f a7bf c541 94bf

enc3.2.conv2.depthwise.weight f4 [2, 1, 5, 5]
0.020861091 -0.09842323 0.12352458 -0.08336991 0.102902964 -0.15651266 -0.15525681 -0.017390097
-0.007855196 -0.13270229 0.25411877 0.035532326 0.667904 0.15690629 0.1858923 -0.22026551
-0.075303175 0.2389597 -0.14535213 -0.17545013 0.1591195 0.010477373 0.33092657 -0.21757478
0.04533578 0.074636854 -0.029645352 -0.012842049 0.028955128 0.0040682936 -0.012076879 -0.09944972
-0.08412713 0.056383938 0.044333745 -0.09582402 0.057402283 0.085468635 -0.039540906 -0.039669197
0.13939564 -0.15922043 0.14110924 -0.03793383 -0.072818965 -0.09951606 0.11425115 -0.2332277
-0.34542176 -0.27466086
00000000: e1e4 aa3c 1e92 c9bd 74fa fc3d d8bd aabd
00000010: cabe d23d db44 20be a4fb 1ebe ad75 8ebc
00000020: 14b3 00bc 1ce3 07be db1b 823e 588a 113d
00000030: c2fb 2a3f 0bac 203e 8d5a 3e3e 488d 61be
00000040: 8d38 9abd dab1 743e 30d7 14be 33a9 33be
00000050: 39f0 223e 4aa9 2b3c 356f a93e eccb 5ebe
00000060: 03b2 393d 35db 983d cfda f2bc 7567 52bc
00000070: 4e33 ed3c 524f 853b 1ade 45bc 4bac cbbd
00000080: d84a acbd d8f2 663d 4d97 353d 623f c4bd
00000090: a81e 6b3d 2e0a af3d a5f5 21bd 2b7c 22bd
000000a0: bbbd 0e3e ae0a 23be f17e 103e 8160 1bbd
000000b0: 1c22 95bd 13cf cbbd 82fc e93d 3ed3 6ebe
000000c0: 1fdb b0be 59a0 8cbe

enc3.2.conv2.pointwise.weight f4 [11, 2, 1, 1]
0.32442254 0.23924781 0.088990316 0.18661252 0.5331332 -0.47643858 0.10095612 -0.34329396
0.20947215 -0.3711094 0.16087753 -0.48898053 -0.14290382 -0.15698291 0.29957843 -0.19123244
0.28133917 0.30559084 -0.082996584 0.4391936 -0.023042992 -0.14165719
00000000: b61a a63e 61fd 743e 8e40 b63d 5a17 3f3e
00000010: 6b7b 083f c2ef f3be 15c2 ce3d 3ac4 afbe
00000020: de7f 563e 0d02 bebe 14bd 243e a85b fabe
00000030: 6155 12be 21c0 20be 5862 993e 70d2 43be
00000040: b00b 903e 6776 9c3e 1dfa a9bd fcdd e03e
00000050: a8c4 bcbc 950e 11be

enc3.2.conv2.pointwise.bias f4 [11]
0.07555446 -0.252276 0.67177016 -1.0169257 -0.13011797 -1.1148508 -0.3207607 -1.2210946
0.27493653 -0.36132616 -0.11235117
00000000: 4cbc 9a3d 522a 81be 21f9 2b3f 9f2a 82bf
00000010: a53d 05be 6eb3 8ebf bf3a a4be d44c 9cbf
00000020: 7bc4 8c3e beff b8be 5f18 e6bd

enc3.3.conv1.depthwise.weight f4 [11, 1, 5, 5]
0.18160172 -0.18960603 -0.15052558 -0.020822175 0.16223887 -0.18447234 0.3338117 0.007653263
-0.05959661 -0.11788177 -0.34364957 -0.32923087 -0.59124017 -0.6403074 -0.11899345 0.010487681
0.43974644 -0.11638966 -0.051534925 0.3130165 0.17546159 -0.1311622 -0.0362616 0.09587803
-0.16965596 -0.51845187 -0.57024795 -0.12948692 -0.05496827 -0.11794508 -0.20303908 -0.106120676
0.054280836 0.09761866 0.62075704 -0.3721194 -0.30777344 -0.282319 -0.6206085 -0.28520793
-0.36097366 -0.20144792 -0.23438829 -0.5394837 0.2288064 -0.6281885 -0.27129057 -0.12216144
-0.08092739 0.21716936 -0.417357 -0.10927359 -0.03150592 -0.16844681 0.06650325 -0.53114957
-0.522793 -0.2294487 -0.22290315 0.17859425 -0.377895 0.14781184 -0.15057726 -0.30162293
-0.16336048 -0.23248185 -0.17084049 0.39929467 0.2913733 0.062846005 -0.34732804 0.059684336
-0.033125725 0.1543573 -0.12408795 -0.33959413 0.34287933 0.2321799 0.09994674 0.2047146
-0.014592027 0.16685341 0.09593125 0.53789145 0.15369457 0.05727862 -0.14930342 -0.49862605
-0.32758072 0.43535498 0.2637956 -0.22283809 -0.23400088 0.22947098 0.37279466 0.2500036
-0.15047882 -0.6388307 -0.22549292 -0.03560688 -0.21001472 -0.5578224 -0.3749602 0.085017934
-0.6770693 -0.12474343 -0.49558043 0.061210975 0.38909873 -0.22005104 -0.22865525 -0.27911815
0.27872622 0.033644322 0.016889695 -0.82303447 -0.06534392 0.06738779 0.03996545 -0.5324272
-0.33398774 -0.035037674 0.08958746 0.07608499 -0.18629491 -0.13381788 -0.017563704 -0.017426567
-0.00034140205 -0.09022755 -0.26149094 -0.32159775 -0.21051379 0.34876 -0.268129 0.2606233
0.03438085 0.28364062 0.641857 -0.19512069 0.37782294 -0.20501992 0.25274453 0.52695787
-0.20216382 0.09470938 -0.040538527 -0.14194597 -0.3532916 -0.49718556 0.102630675 0.10104767
-0.08061344 -0.14179997 -0.5567565 0.13537115 -0.28665784 0.60325295 -0.08632023 0.14028509
-0.2020332 0.11480151 0.108137876 0.19649582 0.21204188 0.2419104 0.14345989 0.2537162
-0.04825727 0.96072656 -0.16601536 0.31262818 0.47788748 0.04901623 0.4407398 -0.2832265
-0.09582402 0.0978822 -0.20614374 -0.09068937 -0.1357943 0.054323316 0.060515326 0.4771191
0.068509676 0.66993123 0.65953547 0.73316354 1.0163977 0.82604665 0.02836806 -0.124105416
0.4682485 0.5015141 0.092478335 0.0857533 0.13650423 0.3389351 0.5114187 0.77635515
0.017425215 0.11785855 -0.18321618 -0.14238982 0.24360073 -0.17378034 0.2800772 0.17806922
-0.23646857 -0.4991819 0.09254827 -0.13952686 0.22805177 -0.33237195 -0.47127748 0.08484975
-0.3230788 -0.7747158 0.07398259 -0.015055594 -0.36045507 -0.6949606 -0.07187751 -0.25375113
0.042732995 -0.13171223 -0.008438517 -0.028718635 -0.22879787 0.11751514 -0.11398882 -0.376981
-0.30423385 -0.0718264 0.35971403 -0.25784042 -0.7094212 -0.7276263 -0.4444198 -0.31514063
-0.33473983 -0.35038465 0.072613515 -0.3150152 -0.20069885 -0.13594039 -0.14807373 0.77414805
0.18768506 -0.13512613 -0.0018085298 -0.06496326 0.06463166 0.028387437 0.38357592 0.10341162
00000000: cdf5 393e 1528 42be 6123 1abe 4493 aabc
00000010: f221 263e 51e6 3cbe 5ee9 aa3e 39c8 fa3b
00000020: 931b 74bd ff6b f1bd d6f2 afbe f390 a8be
00000030: 845b 17bf 30eb 23bf d7b2 f3bd 86d4 2b3c
00000040: 7226 e13e b45d eebd 4916 53bd b343 a03e
00000050: 34ac 333e 624f 06be 0b87 14bd b35b c43d
00000060: 4bba 2dbe 43b9 04bf c5fb 11bf 3898 04be
00000070: 6926 61bd 318d f1bd 7ae9 4fbe cc55 d9bd
00000080: 9555 5e3d 4bec c73d efe9 1e3f 6f86 bebe
00000090: 7b94 9dbe 1e8c 90be 33e0 1ebf c606 92be
000000a0: 8ad1 b8be 5d48 4ebe 7c03 70be 9b1b 0abf
000000b0: 3a4c 6a3e f6d0 20bf 99e6 8abe c72f fabd
000000c0: 42bd a5bd a561 5e3e d1af d5be d5ca dfbd
000000d0: 5a0c 01bd 527d 2cbe db32 883d 6bf9 07bf
000000e0: c3d5 05bf 9af4 6abe b940 64be 69e1 363e
000000f0: 747b c1be fd5b 173e ed30 1abe 526e 9abe
00000100: f847 27be b90f 6ebe cff0 2ebe 5a70 cc3e
00000110: e22e 953e 68b5 803d fbd4 b1be 9077 743d
00000120: d7ae 07bd d70f 1e3e d321 febd 48df adbe
00000130: e18d af3e 91c0 6d3e e0b0 cc3d b4a0 513e
00000140: 6613 6fbc 9fdb 2a3e 9a77 c43d 41b3 093f
00000150: 1c62 1d3e fc9c 6a3d ffe2 18be ea4b ffbe
00000160: a9b8 a7be d9e6 de3e 3810 873e ab2f 64be
00000170: ed9d 6fbe 71fa 6a3e f1de be3e 7900 803e
00000180: 1f17 1abe 698a 23bf 9ee7 66be 85d8 11bd
00000190: 190e 57be 73cd 0ebf c9fa bfbe e21d ae3d
000001a0: 6a54 2dbf 7c79 ffbd b8bc fdbe 5cb8 7a3d
000001b0: f337 c73e 0f55 61be 9a24 6abe 93e8 8ebe
000001c0: 34b5 8e3e a1ce 093d 425c 8a3c 63b2 52bf
000001d0: 08d3 85bd 9c02 8a3d d0b2 233d 264d 08bf
000001e0: 7100 abbe aa83 0fbd a179 b73d 72d2 9b3d
000001f0: 18c4 3ebe 8e07 09be c2e1 8fbc 29c2 8ebc
00000200: 35fe b2b9 39c9 b8bd 24e2 85be 76a8 a4be
00000210: ed90 57be ac90 b23e 3448 89be 6b70 853e
00000220: efd2 0c3d 5839 913e be50 243f b8cd 47be
00000230: 0272 c13e bef0 51be bb67 813e b6e6 063f
00000240: 0804 4fbe fef6 c13d ba0b 26bd 495a 11be
00000250: a3e2 b4be 1b8f febe 0830 d23d 15f2 ce3d
00000260: a918 a5bd 0334 11be 9887 0ebf bc9e 0a3e
00000270: d1c4 92be c96e 1a3f a9c8 b0bd e5a6 0f3e
00000280: cbe1 4ebe 0e1d eb3d 6477 dd3d 3336 493e
00000290: 8221 593e 5cb7 773e 26e7 123e 17e7 813e
000002a0: 6aa9 45bd 2df2 753f eeff 29be cd10 a03e
000002b0: abad f43e 3ec5 483d a6a8 e13e 1003 91be
000002c0: 623f c4bd 7676 c83d 5817 53be 59bb b9bd
000002d0: a90d 0bbe 2082 5e3d ebde 773d f448 f43e
000002e0: cd4e 8c3d 9d80 2b3f 51d7 283f 9bb0 3b3f
000002f0: 5219 823f cb77 533f 2264 e83c fb2a febd
00000300: 44be ef3e 3a63 003f 4865 bd3d 6d9f af3d
00000310: c4c7 0b3e e788 ad3e 56ec 023f 36bf 463f
00000320: 53bf 8e3c d35f f13d 069d 3bbe a3ce 11be
00000330: 7872 793e 79f3 31be 4766 8f3e c757 363e
00000340: d124 72be c594 ffbe f389 bd3d 21e0 0ebe
00000350: 6786 693e a82c aabe 484b f1be b5c5 ad3d
00000360: 966a a5be c653 46bf 2f84 973d bdab 76bc
00000370: 918d b8be f0e8 31bf 8434 93bd abeb 81be
00000380: cb08 2f3d 92df 06be b541 0abc 5843 ebbc
00000390: fd49 6abe c7ab f03d f872 e9bd a703 c1be
000003a0: 8ac4 9bbe b819 93bd 702c b83e a903 84be
000003b0: a19c 35bf b845 3abf fe8a e3be 1d5a a1be
000003c0: 0563 abbe 9e65 b3be 65b6 943d ac49 a1be
000003d0: 0084 4dbe f533 0bbe a4a0 17be 912e 463f
000003e0: 8330 403e 815e 0abe 310c edba 750b 85bd
000003f0: 9b5d 843d c58c e83c 1064 c43e 79c9 d33d

enc3.3.conv1.pointwise.weight f4 [3, 11, 1, 1]
-1.0057316 -0.30921486 0.14356032 0.06844799 0.39565724 -0.41036692 -0.53559256 -0.72291476
-0.1510222 0.18080266 -0.32809502 0.3347761 0.18124498 0.14650325 -0.15626094 0.1887804
-0.72475326 0.75450444 0.08423846 -0.73216665 0.15824792 -0.7278328 0.76942617 0.21197447
0.60592407 -1.0151703 -0.33624938 -0.66933066 -0.12347042 0.44466487 0.20638496 0.56188136
-0.60464543
00000000: d0bb 80bf 6951 9ebe 7a01 133e 762e 8c3d
00000010: 9693 ca3e 9d1b d2be 981c 09bf f110 39bf
00000020: 90a5 1abe 5524 393e 12fc a7be c667 ab3e
00000030: 4998 393e f304 163e de02 20be a64f 413e
00000040: 6e89 39bf 3427 413f 3785 ac3d 466f 3bbf
00000050: be0b 223e 4053 3abf 1df9 443f d60f 593e
00000060: d71d 1b3f 1af1 81bf e128 acbe 4159 2bbf
00000070: 0fde fcbd 1dab e33e 9456 533e 75d7 0f3f
00000080: 0bca 1abf

enc3.3.conv1.pointwise.bias f4 [3]
0.21130422 -0.18406735 -0.63848615
00000000: 2260 583e 277c 3cbe d473 23bf

enc3.3.conv2.depthwise.weight f4 [3, 1, 5, 5]
-0.016923515 -0.037643816 0.12874359 -0.0046727015 -0.0048389304 -0.07540813 0.09666322 -0.18339556
-0.14549202 -0.013102522 0.00284807 0.21362817 0.33245885 0.031319026 0.12442663 -0.030332956
-0.05365125 0.10755982 -0.14905876 -0.022734554 -0.05299386 0.051409755 -0.062568754 -0.06685486
-0.008311807 -0.0033761077 -0.15522815 -0.20992681 0.012511468 0.12539268 0.11191762 -0.18419069
0.12845738 -0.19193847 -0.01768539 0.19309524 0.052685473 -0.049726367 0.11060407 0.05927657
0.20214465 -0.08988235 0.054128814 -0.11653239 0.17593718 0.49114007 0.280756 0.44528574
0.28865048 0.44067714 0.020009574 -0.08580479 0.2662807 -0.042735804 -0.07271205 0.058734853
-0.1484923 0.1510138 -0.17499226 0.017248433 -0.016322413 -0.029102882 0.13756756 -0.0008933794
0.12356385 -0.17892264 -0.07544094 -0.21713547 -0.023448875 -0.09366158 0.26712316 -0.11801184
0.045561533 -0.09245174 -0.3347989
00000000: 2fa3 8abc 6730 1abd 5cd5 033e 761d 99bb
00000010: e48f 9ebb 946f 9abd 5ef7 c53d 0ccc 3bbe
00000020: dcfb 14be f6ab 56bc b0a6 3a3b 58c1 5a3e
00000030: 0c38 aa3e 6148 003d 64d3 fe3d d27c f8bc
00000040: 6ac1 5bbd 5348 dc3d dca2 18be d13d babc
00000050: 1710 59bd 0993 523d 0c24 80bd 33eb 88bd
00000060: 3f2e 08bc b041 5dbb 21f4 1ebe 0ef7 56be
00000070: e6fc 4c3c f066 003e 1135 e53d 7c9c 3cbe
00000080: 558a 033e 858b 44be f3e0 90bc c2ba 453e
00000090: b9cc 573d e0ad 4bbd 6384 e23d fdcb 723d
000000a0: 02ff 4e3e 3d14 b8bd 2db6 5d3d 89a8 eebd
000000b0: e028 343e b676 fb3e 40bf 8f3e 7efc e33e
000000c0: ffc9 933e 6fa0 e13e 1eeb a33c 6cba afbd
000000d0: f255 883e bd0b 2fbd 0eea 94bd f593 703d
000000e0: 5e0e 18be 5da3 1a3e 2c31 33be 964c 8d3c
000000f0: 95b6 85bc 2b69 eebc 83de 0c3e ad31 6aba
00000100: 0b0f fd3d 7f37 37be c880 9abd c358 5ebe
00000110: db17 c0bc a4d1 bfbd 5ec4 883e 31b0 f1bd
00000120: bb9e 3a3d 5657 bdbd c36a abbe

enc3.3.conv2.pointwise.weight f4 [11, 3, 1, 1]
0.40799335 -0.75864387 0.09501123 -0.66713494 -0.8502451 -0.06200587 -0.09829518 -0.3168177
-0.26990634 0.257384 -1.0801842 0.15932715 0.65186274 -0.22432719 -0.27022067 0.3509989
0.13797262 -0.27749065 -0.051103074 -0.15581754 -0.01895829 -0.2067102 0.56071645 0.2580946
0.39938763 0.036834594 -0.00697532 -0.009471385 -0.15592253 0.8961789 0.10802427 0.18750884
0.058257498
00000000: 81e4 d03e 7c36 42bf 3f95 c23d 5bc9 2abf
00000010: aaa9 59bf def9 7dbd fc4e c9bd ee35 a2be
00000020: 2a31 8abe d6c7 833e 7a43 8abf a826 233e
00000030: 7ae0 263f 07b6 65be 5d5a 8abe 21b6 b33e
00000040: b248 0d3e 4113 8ebe 7551 51bd a28e 1fbe
00000050: 6a4e 9bbc d7ab 53be 1d8b 0f3f fa24 843e
00000060: 897c cc3e dfdf 163d 3a91 e4bb de2d 1bbc
00000070: 28aa 1fbe fb6b 653f d43b dd3d 5102 403e
00000080: 6a9f 6e3d

enc3.3.conv2.pointwise.bias f4 [11]
0.026107498 -0.91611403 -0.37041172 -1.2062001 -0.14371113 -1.3146803 0.4932013 -0.5972773
0.2234684 -0.7136334 -0.20325615
00000000: 64df d53c 7386 6abf 9ba6 bdbe c464 9abf
00000010: 0329 13be 7247 a8bf e184 fc3e 2ae7 18bf
00000020: e6d4 643e aeb0 36bf 6122 50be

enc4.0.conv1.depthwise.weight f4 [11, 1, 5, 5]
0.37657353 -0.29866478 -0.33109537 0.052546967 -0.1792869 -0.13856225 -0.64321625 0.052994855
-0.29754412 -0.30385995 0.27594018 0.2230942 -0.016588395 0.1290961 -0.07809634 0.3365804
-0.06704931 0.21660472 0.47411993 0.35742635 0.43558052 0.31700334 -0.19854084 -0.42812157
-0.10534896 0.1741172 -0.19406387 -0.26260075 -0.26310718 0.48632246 0.33645 0.3743198
0.09083446 -0.3163597 -0.07298051 0.14261226 -0.24336958 0.08110318 0.12724845 -0.16309066
0.5885668 -0.061911087 -0.27928087 -0.42863718 0.18314233 0.25058675 0.039065603 0.010185898
0.31016955 -0.23757069 0.45302212 0.1681366 0.5110838 -0.18786518 0.3070179 0.1232864
0.22866929 0.023099884 0.20528848 -0.050992325 0.10457404 -0.14819275 -0.0760136 0.044693258
0.2503536 0.044510778 0.42988265 0.22278678 -0.029650882 -0.077908345 0.34889352 0.36440113
0.63040507 -0.13824812 0.31437242 -0.7483491 0.28019857 0.11890832 -0.022771174 0.18663135
-0.048148893 0.048851687 -0.07015297 -0.16560538 0.08955767 0.02726709 -0.33099103 -0.3394606
-0.5310797 -0.04521034 -0.3811928 -0.14427716 0.1896662 0.44619244 0.29840595 0.40069193
-0.6195025 -0.076065235 0.5224998 0.19590132 -0.246437 -0.42628014 -0.098717995 -0.53825617
-0.2088156 -0.49281177 0.0029272023 -0.25975135 0.36380032 -0.37021497 -0.21576464 0.09753434
-0.25807843 -0.054685906 -0.36252096 0.39198434 0.09587566 0.17255576 0.41523194 0.20146567
-0.03871214 -0.016178686 0.090520926 0.22594027 -0.1569422 -0.6543228 -0.2572717 -0.16582963
0.2090132 -0.4788318 -0.0350469 -0.18027045 0.2585371 0.2564564 -0.17493689 -0.46418348
-0.2854172 -0.23301092 0.13978791 -0.40308046 0.194156 -0.10170619 -0.09512501 -0.057652898
-0.5788511 0.06308939 -0.4195356 0.33702704 0.26081818 0.5020725 -0.29522926 -0.60272014
-0.07797931 -0.29533887 -0.4793385 -0.07531112 0.37201384 -0.16305198 -0.15759712 -0.4962767
-0.16282935 -0.085579075 -0.47835496 -0.07423646 -0.14876048 0.17880446 0.4750516 -0.053957928
-0.110289566 -0.16526726 0.19646557 0.4680857 -0.29711077 0.27231386 -0.053463034 -0.5839401
0.041284963 0.06107438 -0.05845435 0.4193019 -0.40912354 -0.7165452 -0.2931422 0.33334154
-0.45173955 0.11962078 -0.3054956 0.4444441 -0.0991742 0.16254035 -0.05085515 0.0187952
0.1582286 -0.0076671196 0.31581408 0.27494884 -0.16437249 0.20199046 -0.5109854 0.24657361
-0.49020168 -0.17673872 -0.13142595 -0.6784826 0.19073051 0.2579606 0.16941193 -0.21792375
-0.0028339375 -0.17653243 0.019491829 -0.19557004 -0.1382648 -0.056311227 0.2972493 0.041051783
0.2681209 0.14258474 0.13313836 0.20480296 -0.14095654 -0.05126979 0.33725193 -0.18311569
-0.1833698 -0.011814879 0.15415828 0.11775215 0.44046554 -0.010570036 -0.16603526 0.6624202
-0.5514887 -0.025334697 0.36279202 -0.032274734 0.27439314 -0.19815034 -0.23373328 -0.28954417
0.24058165 0.43716577 -0.46235517 0.018538278 0.33530164 0.27978933 0.30813855 -0.14131977
0.6157001 0.36380318 0.23372704 -0.69914365 -0.20375976 0.78539765 0.19464862 0.19018202
00000000: 3fce c03e 97ea 98be 5585 a9be 7d3b 573d
00000010: fc96 37be 43e3 0dbe d2a9 24bf 2211 593d
00000020: b457 98be 8893 9bbe 0848 8d3e ce72 643e
00000030: 63e4 87bc c531 043e f9f0 9fbd 4454 ac3e
00000040: 2651 89bd a1cd 5d3e d9bf f23e 9600 b73e
00000050: 6904 df3e 434e a23e 4a4e 4bbe c032 dbbe
00000060: 32c1 d7bd c74b 323e aeb8 46be 9b73 86be
00000070: fcb5 86be 42ff f83e 2d43 ac3e d8a6 bf3e
00000080: 6b07 ba3d e6f9 a1be ce76 95bd f308 123e
00000090: e035 79be 6d19 a63d 6b4d 023e 3d01 27be
000000a0: 50ac 163f 7b96 7dbd e7fd 8ebe 5576 dbbe
000000b0: aa89 3b3e e84c 803e 4103 203d c1e2 263c
000000c0: 8bce 9e3e bb45 73be 84f2 e73e 002c 2c3e
000000d0: 63d6 023f bb5f 40be 7331 9d3e 957d fc3d
000000e0: 4828 6a3e f83b bd3c 2537 523e 54dd 50bd
000000f0: ea2a d63d d7bf 17be 05ad 9bbd 4710 373d
00000100: 592e 803e ef50 363d 9419 dc3e 3822 643e
00000110: 68e6 f2bc 698e 9fbd 2ca2 b23e c992 ba3e
00000120: 3a62 213f ea90 0dbe 6cf5 a03e ce93 3fbf
00000130: 3076 8f3e 3586 f33d 9d8a babc 4a1c 3f3e
00000140: c637 45bd b518 483d 5cac 8fbd 7594 29be
00000150: 036a b73d 3b5f df3c a877 a9be c8cd adbe
00000160: d7f4 07bf 7a2e 39bd b42b c3be 64bd 13be
00000170: db37 423e 5673 e43e aac8 983e 7e27 cd3e
00000180: b797 1ebf 17c8 9bbd 8cc2 053f 5b9a 483e
00000190: fb59 7cbe 6441 dabe a92c cabd 28cb 09bf
000001a0: c2d3 55be d351 fcbe 4ed6 3f3b 21fe 84be
000001b0: 0944 ba3e d18c bdbe 68f1 5cbe 16c0 c73d
000001c0: db22 84be 54fe 5fbd 599c b9be 2cb2 c83e
000001d0: 755a c43d 75b2 303e 4899 d43e 044d 4e3e
000001e0: 9f90 1ebd 2a89 84bc 0963 b93d e35c 673e
000001f0: 75b5 20be b381 27bf 1eb9 83be 3ecf 29be
00000200: 8e07 563e 7129 f5be 578d 0fbd d198 38be
00000210: fa5e 843e 414e 833e a822 33be 75a9 edbe
00000220: 3422 92be 6a9a 6ebe 9024 0f3e 9060 cebe
00000230: d5d0 463e 564b d0bd e7d0 c2bd 7225 6cbd
00000240: 962f 14bf 0335 813d 5fcd d6be cf8e ac3e
00000250: f689 853e d387 003f 4a28 97be de4b 1abf
00000260: 9eb3 9fbd a836 97be db6b f5be b73c 9abd
00000270: 9978 be3e 19f7 26be 2461 21be fb17 febe
00000280: bdbc 26be 1544 afbd f1ea f4be 4909 98bd
00000290: ab54 18be 8418 373e f739 f33e fd02 5dbd
000002a0: 7fdf e1bd d23b 29be 452e 493e eea8 ef3e
000002b0: e71e 98be b96c 8b3e 0efc 5abd 197d 15bf
000002c0: 6c1a 293d 2129 7a3d d46d 6fbd bdae d63e
000002d0: a478 d1be 826f 37bf bc16 96be beab aa3e
000002e0: 684a e7be bdfb f43d eb69 9cbe 2d8e e33e
000002f0: d81b cbbd fa70 263e 7d4d 50bd 64f8 993c
00000300: ae06 223e 763c fbbb 62b2 a13e 18c6 8c3e
00000310: 4351 28be 96d6 4e3e f0cf 02bf cb7d 7c3e
00000320: b7fb fabe fffa 34be 8694 06be 09b1 2dbf
00000330: dc4e 433e 6913 843e 527a 2d3e 6727 5fbe
00000340: 95b9 39bb ebc4 34be 54ad 9f3c 8343 48be
00000350: 4a95 0dbe 9aa6 66bd 0f31 983e ea25 283d
00000360: 2547 893e bc01 123e 6c55 083e deb7 513e
00000370: e956 10be 4500 52bd 49ac ac3e ae82 3bbe
00000380: 4bc5 3bbe 3293 41bc abdb 1d3e 0a28 f13d
00000390: b384 e13e f22d 2dbc 2605 2abe 5f94 293f
000003a0: 5d2e 0dbf b68a cfbc e0bf b93e 8332 04bd
000003b0: 427d 8c3e ece7 4abe c757 6fbe 223f 94be
000003c0: 095b 763e 31d4 df3e d1b9 ecbe 96dd 973c
000003d0: a8ac ab3e 8c40 8f3e 56c4 9d3e 21b6 10be
000003e0: 869e 1d3f 6944 ba3e 2456 6f3e 14fb 32bf
000003f0: 66a6 50be d20f 493f f851 473e 13bf 423e

enc4.0.conv1.pointwise.weight f4 [1, 11, 1, 1]
-0.09986725 0.13833705 -0.85269594 -0.10692373 0.71649164 0.0715874 0.208984 -0.060040075
0.463961 -0.6209938 -0.4576044
00000000: 3387 ccbd 3aa8 0d3e 484a 5abf d4fa dabd
00000010: ff6b 373f 6a9c 923d e7ff 553e 95ec 75bd
00000020: 4c8c ed3e 73f9 1ebf 204b eabe

enc4.0.conv2.depthwise.weight f4 [1, 1, 5, 5]
-0.26872936 -0.26286843 -0.26602203 -0.19985494 -0.59524655 0.08174436 -0.5966747 -0.50414205
-0.44713145 -0.032913025 -0.3173225 -0.34181795 -0.2850984 0.13678111 -0.38580853 -0.41084468
0.22540341 -0.4590036 -0.16937852 0.6359614 -0.5202135 -0.56545824 -0.3667648 -0.2546202
0.14654034
00000000: e596 89be b196 86be 0a34 88be c6a6 4cbe
00000010: 1462 18bf 9669 a73d acbf 18bf 740f 01bf
00000020: 6aee e4be cfcf 06bd 1878 a2be c302 afbe
00000030: 6bf8 91be 5910 0c3e b288 c5be 3c5a d2be
00000040: 27d0 663e 8502 ebbe 9071 2dbe 5ece 223f
00000050: b62c 05bf dfc1 10bf 99c8 bbbe 945d 82be
00000060: ac0e 163e
