archs/basicSR_models/onnx/sim_pruned_model90_PMRIDd2_denoising.onnx (onnx, 36668 bytes, 100 tensors)

conv0.conv.weight f4 [8, 3, 3, 3]
-0.05438378 -0.059409853 -0.07155742 0.13315685 -0.18602645 -0.043262966 0.08269093 -0.024148623
-0.027534032 0.03702263 0.041042347 0.09395044 -0.014503767 0.51711494 0.008449968 0.014389754
0.06552499 0.06679163 -0.023209604 -0.050576452 -0.043871034 -0.10191489 -0.13554905 -0.0072937706
-0.107014604 -0.0009533808 -0.040740874 0.039259627 0.012871752 -0.0020344686 0.0229419 -0.07742606
-0.010070284 0.0036167584 0.02021212 -0.03614689 -0.0028709834 0.011943909 0.041653436 -0.0040754126
0.5881763 0.01529493 -0.046858758 -0.06693028 0.04174903 0.015572158 -0.01013442 -0.03757418
0.059896376 -0.38415307 -0.01212626 0.033929065 -0.0716524 -0.015058542 -0.1878574 -0.09003627
-0.02465433 -0.07408425 0.77638304 0.01537321 0.050550748 0.14776222 0.094687164 0.077913254
0.11455569 0.04076727 0.027811944 -0.07128158 -0.024235668 0.025523942 -0.06801459 0.0013476063
0.106402606 0.12518705 0.06305583 0.030849895 -0.20628335 -0.00484073 -0.051760346 -0.038024597
-0.009828989 -0.009585662 -0.018219627 0.053069092 0.14051819 -0.09702879 -0.05928518 0.2995103
-0.25187647 -0.06509642 -0.018748272 -0.023087485 0.02685725 0.15972655 -0.08762662 -0.07589548
0.32831445 -0.25117144 -0.0922434 -0.011069179 -0.025661392 0.026333513 0.16720618 -0.092778064
-0.08128416 0.3521763 -0.26327872 -0.10186446 0.032928884 0.07428639 0.02568777 0.03883836
0.29131576 -0.022450557 0.0027852806 -0.08224269 -0.04128068 -0.056634977 0.0468252 0.02487661
-0.0057497583 0.33213603 0.040872302 -0.009098583 0.001106177 -0.003062829 -0.07498655 -0.04074648
0.03736502 -0.056452636 0.41007227 0.024054157 0.005320924 -0.06743566 -0.007045826 -0.057145845
0.012314827 -0.09600927 -0.29382116 -0.05960936 -0.09723741 -0.08695142 -0.057344183 -0.106317446
0.04567391 0.05270872 0.04362631 0.13986528 -0.0919021 0.014085498 0.06963985 0.02223721
0.09792843 0.08099762 0.1280186 0.081934474 0.13809693 0.661822 0.17931984 0.09830378
0.068459205 0.08103269 -0.011261417 -0.059289005 -0.0014605724 -0.07310451 -0.279539 -0.11304296
0.047562186 0.3269887 0.07579099 0.019252783 -0.039665204 0.042135347 -0.06095129 -0.31493703
-0.08233315 0.080719754 0.35153556 0.09863449 0.0122888675 -0.047821093 0.03539398 -0.082588665
-0.24733874 -0.09895463 0.06761475 0.34059376 0.06476267 0.026190726 -0.048943825 0.043615498
-0.0879256 -0.28255802 -0.060430653 0.06434039 0.29450294 0.0615958 0.01760218 -0.05336937
0.023769695 -0.09302196 -0.2872843 -0.068772 0.06375585 0.31280503 0.051762942 0.013639115
-0.05589474 0.01344535 -0.08409243 -0.28373593 -0.07195095 0.075376704 0.31750447 0.046435468
00000000: 87c1 5ebd bf57 73bd b28c 92bd 455a 083e
00000010: b87d 3ebe 8234 31bd dd59 a93d 55d3 c5bc
00000020: 0d8f e1bc 0ba5 173d 051c 283d 1769 c03d
00000030: 35a1 6dbc a561 043f bc71 0a3c 01c3 6b3c
00000040: f731 863d 0dca 883d 1122 bebc 4129 4fbd
00000050: 1db2 33bd c1b8 d0bd 5fcd 0abe 9500 efbb
00000060: 792a dbbd 4dec 79ba e7df 26bd b4ce 203d
00000070: 0ae4 523c b854 05bb a7f0 bb3c 8e91 9ebd
00000080: d5fd 24bc 2307 6d3b e393 a53c c30e 14bd
00000090: 1c27 3cbb 63b0 433c cb9c 2a3d 0a8b 85bb
000000a0: b992 163f 9697 7a3c f8ee 3fbd be12 89bd
000000b0: 0801 2b3d 5d22 7f3c d70a 26bc 62e7 19bd
000000c0: e755 753d b6af c4be 39ad 46bc 34f9 0a3d
000000d0: 7ebe 92bd 1ab8 76bc b15d 40be f064 b8bd
000000e0: e1f7 c9bc 7cb9 97bd 0ac1 463f ebdf 7b3c
000000f0: 4d0e 4f3d fb4e 173e 58eb c13d fc90 9f3d
00000100: 2c9c ea3d 95fb 263d e0d5 e33c 14fc 91bd
00000110: e189 c6bc 9617 d13c 3c4b 8bbd 2aa2 b03a
00000120: 9ce9 d93d 0931 003e 6a23 813d ebb8 fc3c
00000130: f13b 53be fd9e 9ebb a802 54bd aebf 1bbd
00000140: c509 21bc 2e0d 1dbc 5441 95bc fa5e 593d
00000150: 00e4 0f3e 08b7 c6bd 04d5 72bd 6a59 993e
00000160: f4f5 80be 4651 85bd fa95 99bc f721 bdbc
00000170: bc03 dc3c 5b8f 233e 9675 b3bd 176f 9bbd
00000180: d518 a83e 8b99 80be 1cea bcbd 805b 35bc
00000190: d737 d2bc 61b9 d73c 1938 2b3e 6d02 bebd
000001a0: 4f78 a6bd 7450 b43e 78cc 86be 509e d0bd
000001b0: 70e0 063d 7623 983d 296f d23c f914 1f3d
000001c0: 5727 953e 3bea b7bc 4189 363b db6e a8bd
000001d0: ee15 29bd 14fa 67bd c8cb 3f3d 08ca cb3c
000001e0: 7868 bcbb bc0d aa3e b769 273d 3912 15bc
000001f0: 24fd 903a beb9 48bb 8c92 99bd c8e5 26bd
00000200: 100c 193d e13a 67bd fef4 d13e 390d c53c
00000210: 255b ae3b b51b 8abd ace0 e6bb c311 6abd
00000220: 21c4 493c 82a0 c4bd ba6f 96be f228 74bd
00000230: 6824 c7bd 9613 b2bd bce1 6abd f6bc d9bd
00000240: 9114 3b3d 19e5 573d 80b1 323d d838 0f3e
00000250: 2b37 bcbd dcc6 663c 569f 8e3d cf2a b63c
00000260: b38e c83d 15e2 a53d 4f17 033e 43cd a73d
00000270: 4869 0d3e 2b6d 293f 9f9f 373e 7e53 c93d
00000280: 5734 8c3d 78f4 a53d ce81 38bc 07d9 72bd
00000290: ad70 bfba d1b7 95bd bc1f 8fbe 1183 e7bd
000002a0: 91d0 423d 106b a73e 4e38 9b3d 03b8 9d3c
000002b0: fb77 22bd 1d96 2c3d 0fa8 79bd 6d3f a1be
000002c0: 489e a8bd 6650 a53d 78fc b33e e100 ca3d
000002d0: 3f57 493c 0de0 43bd 47f9 103d 3f24 a9bd
000002e0: 5e46 7dbe baa8 cabd 9a79 8a3d 4e62 ae3e
000002f0: 4aa2 843d ef8d d63c 5279 48bd 2aa6 323d
00000300: 5612 b4bd 72ab 90be 2286 77bd e5c4 833d
00000310: 17c9 963e e14b 7c3d 7232 903c d799 5abd
00000320: aab8 c23c 4c82 bebd ee16 93be 56d8 8cbd
00000330: 6d92 823d fb27 a03e 6105 543d 9876 5f3c
00000340: e2f1 64bd e349 5c3c a738 acbd d645 91be
00000350: 055b 93bd 1a5f 9a3d f28f a23e 1e33 3e3d

conv0.conv.bias f4 [8]
6.246495 5.330725 2.61188 -3.1421678 4.242718 -0.15069245 6.055627 -5.0795455
00000000: 49e3 c740 4d95 aa40 0b29 2740 4719 49c0
00000010: 59c4 8740 1f4f 1abe b2c7 c140 a38b a2c0

enc2.0.conv1.depthwise.weight f4 [8, 1, 5, 5]
-0.08002447 -0.090706095 -0.06639432 -0.09301103 -0.121754326 0.03307773 0.06592794 -0.03287306
-0.06569885 -0.091871746 -0.22244632 -0.19250897 -0.21165413 -0.16442087 -0.28681016 0.008360353
0.05368437 0.017094325 0.021187885 -0.14158107 0.0265883 -0.032173377 -0.10430176 -0.17347865
-0.2439183 -0.12916543 -0.036021553 0.10035961 0.0792356 0.107158825 -0.043554503 0.0072933687
0.007873339 0.016221702 0.05654745 -0.078943126 -0.15335469 -0.014914693 0.049874026 -0.017286489
0.053516585 -0.01413547 0.03322322 0.053947546 -0.027246369 0.0016065227 -0.12649348 -0.10136968
-0.09544997 -0.084562816 -0.021530459 0.08395551 0.15668052 0.16270323 0.12683962 -0.095992535
0.004682625 0.09499934 0.10220362 -0.144135 -0.10142498 -0.27966282 0.014558902 -0.13648084
-0.19984227 -0.21790668 -0.40356702 -0.017552916 -0.0452366 -0.0449037 -0.087789014 -0.1694801
-0.037725 0.008929642 -0.003115341 0.017900836 -0.3595991 -0.8212986 -0.088176206 0.036119275
0.06971536 0.23009071 -0.777297 -0.628676 -0.08286412 0.022899987 0.21573913 -0.60648674
-0.2388931 -0.038672417 -0.017940702 -0.07252075 -0.24722223 0.24310079 -0.10557005 -0.08218486
-0.03209889 0.10263216 0.2595836 0.035357937 0.008807169 0.057278153 0.020934295 0.14593999
0.2676874 0.004147681 -0.04793748 -0.065635026 -0.010141951 0.25461298 -0.031868257 -0.03275291
-0.15569596 -0.14581387 0.11712832 0.056846656 0.07260128 -0.05777573 -0.13818446 -0.05162357
-0.10005513 -0.04690276 -0.08454204 -0.0029353525 -0.0016417142 0.021407291 0.10505755 0.12241255
-0.0046566864 -0.00065115467 -0.048325546 -0.056274403 -0.13235514 -0.06667116 -0.006829815 0.038630836
0.08735086 -0.26106974 -0.154705 -0.20400901 0.114464976 0.44660124 0.018222872 0.013581523
-0.15207729 -0.07637358 0.095304176 0.07975358 -0.03893487 -0.13732584 0.2712279 0.23241112
0.27157125 0.3011341 0.36023152 0.43533567 0.2766722 0.027673779 0.11036193 0.19874643
0.4201137 -0.013545201 -0.45895833 -0.44483057 -0.022116154 0.19032079 -0.23870192 -0.69707817
-0.6599617 -0.1994549 0.026754411 -0.14668748 -0.36168095 -0.30299097 0.001925212 0.013309689
0.28151354 0.08875465 0.08700957 0.16181633 -0.08124777 -0.44618368 -0.60030097 -0.42870498
-0.51316625 -0.46956962 -0.44022337 -0.5956002 -0.6343104 -0.7657542 -0.6215858 -0.43172887
-0.6717467 -0.93564403 -0.8721037 -0.2634846 -0.39556468 -0.67180824 -0.64100456 -0.36490127
00000000: dfe3 a3bd 1ec4 b9bd bff9 87bd 917c bebd
00000010: 555a f9bd 847c 073d 3a05 873d e7a5 06bd
00000020: 1e8d 86bd 4127 bcbd f8c8 63be 1221 45be
00000030: dcbb 58be f25d 28be c8d8 92be ddf9 083c
00000040: 24e4 5b3d 6609 8c3c 3792 ad3c a1fa 10be
00000050: b5cf d93c 3bc8 03bd 299c d5bd 63a4 31be
00000060: b8c5 79be f143 04be 568b 13bd 5789 cd3d
00000070: 4646 a23d 1676 db3d 3566 32bd 36fd ee3b
00000080: 2dff 003c 60e3 843c 4d9e 673d efac a1bd
00000090: 0309 1dbe c25c 74bc b548 4c3d 659c 8dbc
000000a0: 3534 5b3d 7598 67bc 1215 083d 1af8 5c3d
000000b0: c733 dfbc f591 d23a 8287 01be e89a cfbd
000000c0: 467b c3bd 452f adbd a560 b0bc def0 ab3d
000000d0: dc70 203e ad9b 263e 3fe2 013e bc97 c4bd
000000e0: b570 993b 048f c23d 2250 d13d 2098 13be
000000f0: e6b7 cfbd f72f 8fbe 7688 6e3c a2c1 0bbe
00000100: 74a3 4cbe ee22 5fbe 56a0 cebe 22cb 8fbc
00000110: 034a 39bd f1ec 37bd baca b3bd 318c 2dbe
00000120: 8885 1abd a24d 123c c02a 4cbb c6a4 923c
00000130: 601d b8be a040 52bf ba95 b4bd cef1 133d
00000140: edc6 8e3d e69c 6b3e f0fc 46bf e9f0 20bf
00000150: aab4 a9bd c198 bb3c b8ea 5c3e b742 1bbf
00000160: 65a0 74be f866 1ebd 61f8 92bc c285 94bd
00000170: d327 7dbe 6aef 783e 1c35 d8bd 8950 a8bd
00000180: 207a 03bd cf30 d23d 24e8 843e 7cd3 103d
00000190: f24b 103c 7f9c 6a3d 667e ab3c 4b71 153e
000001a0: 530e 893e 45e9 873b 175a 44bd a86b 86bd
000001b0: 6d2a 26bc a25c 823e 4a88 02bd ea27 06bd
000001c0: c36e 1fbe 3b50 15be f9e0 ef3d 0ad8 683d
000001d0: fbaf 943d 3ea6 6cbd 3a80 0dbe 3d73 53bd
000001e0: b4e9 ccbd 1c1d 40bd 6124 adbd 0b5f 40bb
000001f0: ca2e d7ba 585e af3c 6a28 d73d 6eb3 fa3d
00000200: 1e97 98bb 40b2 2aba 02f1 45bd fd7f 66bd
00000210: 1b88 07be e48a 88bd a4cc dfbb 5e3b 1e3d
00000220: 02e5 b23d efaa 85be fd6a 1ebe bde7 50be
00000230: 9d6c ea3d eba8 e43e 2248 953c 0985 5e3c
00000240: 26ba 1bbe c069 9cbd d62e c33d d855 a33d
00000250: 2c7a 1fbd 259f 0cbe 62de 8a3e 2efd 6d3e
00000260: 630b 8b3e 402e 9a3e 4470 b83e 51e4 de3e
00000270: fba7 8d3e 1fb4 e23c 7005 e23d 2f84 4b3e
00000280: 2519 d73e b1ec 5dbc 96fc eabe d5c0 e3be
00000290: f02c b5bc 74e3 423e 476e 74be b773 32bf
000002a0: 40f3 28bf e83d 4cbe 112c db3c 3e35 16be
000002b0: 3f2e b9be a221 9bbe 6557 fc3a e210 5a3c
000002c0: 8b22 903e ffc4 b53d 1332 b23d 2eb3 253e
000002d0: 3b65 a6bd 3072 e4be 53ad 19bf 387f dbbe
000002e0: dd5e 03bf 6e6b f0be f564 e1be 4179 18bf
000002f0: 2b62 22bf 7808 44bf 3f20 1fbf 910b ddbe
00000300: 97f7 2bbf 5e86 6fbf 3042 5fbf 74e7 86be
00000310: 7487 cabe a0fb 2bbf e018 24bf 57d4 babe

enc2.0.conv1.pointwise.weight f4 [1, 8, 1, 1]
0.2357928 -0.052568216 -0.090505406 0.5406305 -0.06187035 -0.015788294 -0.51857823 0.7207989
00000000: ab73 713e c551 57bd e65a b9bd c366 0a3f
00000010: c46b 7dbd 7456 81bc 8bc1 04bf 4786 383f

enc2.0.conv2.depthwise.weight f4 [1, 1, 5, 5]
0.00884046 0.20812422 0.13282044 0.0043432657 -0.049906664 0.056923646 0.022261074 0.33143547
-0.22477332 0.06457701 0.08936668 -0.32802835 -0.90500206 0.37264842 0.016217716 0.0936861
0.025435062 0.11168666 0.09250978 0.05306568 0.044319887 0.08003478 0.086890705 0.037350796
-0.013662327
00000000: 94d7 103c 841e 553e 1502 083e f451 8e3b
00000010: ee6a 4cbd c528 693d db5c b63c e9b1 a93e
00000020: fa2a 66be f440 843d e105 b73d 55f3 a7be
00000030: 37ae 67bf c6cb be3e 04db 843c 7fde bf3d
00000040: 315d d03c fabb e43d c475 bd3d 665b 593d
00000050: c588 353d 46e9 a33d c1f3 b13d 26fd 183d
00000060: f4d7 5fbc

enc2.0.proj.depthwise.weight f4 [8, 1, 3, 3]
-0.20219 -0.1635485 -0.0876137 -0.07873139 -0.083501175 -0.022067936 -0.12804654 -0.1471609
-0.06879567 0.014677921 0.06064217 0.06082712 0.05269112 0.120216094 0.09170915 0.018337836
0.08637518 0.06562241 0.10201514 0.15717594 0.09171825 0.17563874 0.27551314 0.1743488
0.11815293 0.19897707 0.10513751 -0.053035233 0.11909901 0.15048553 -0.007941616 0.080483064
0.034198143 0.05209077 0.10231178 -0.071444966 -0.01832528 -0.018534468 -0.019214744 -0.020668263
0.027491158 0.026780272 0.00083498925 0.03157373 0.045658756 -0.0028706517 0.045360394 0.037887167
0.05258114 0.12301051 0.11050322 0.0655976 0.15529874 0.13867518 -0.0029585727 0.08269211
0.05422871 0.1262174 0.23816563 0.17183323 0.1643991 0.19397908 0.14367352 -0.03334141
-0.04622288 0.0023793327 -0.05779853 -0.08179001 -0.03983461 -0.030773493 -0.03624623 -0.06345274
00000000: e50a 4fbe 4279 27be d06e b3bd ec3d a1bd
00000010: aa02 abbd d1c7 b4bc a21e 03be 59b1 16be
00000020: bfe4 8cbd aa7b 703c ed63 783d dc25 793d
00000030: a5d2 573d db33 f63d 02d2 bb3d 3b39 963c
00000040: 78e5 b03d 0b65 863d 50ed d03d bbf2 203e
00000050: c7d6 bb3d a4da 333e 0f10 8d3e 7e88 323e
00000060: 2afa f13d a5c0 4b3e 5652 d73d 793b 59bd
00000070: 2fea f33d e118 1a3e 8d1d 02bc 4ed4 a43d
00000080: 5a13 0c3d 225d 553d d788 d13d bd51 92bd
00000090: e61e 96bc 99d5 97bc 3d68 9dbc 7d50 a9bc
000000a0: 2335 e13c 4d62 db3c 2ee3 5a3a 7553 013d
000000b0: ad04 3b3d 8b21 3cbb d2cb 393d 932f 1b3d
000000c0: 525f 573d efec fb3d 834f e23d 0958 863d
000000d0: a206 1f3e de00 0e3e 9de4 41bb 7b5a a93d
000000e0: ec1e 5e3d 223f 013e b1e1 733e 0df5 2f3e
000000f0: 3d58 283e 74a2 463e 271f 133e 0191 08bd
00000100: 3454 3dbd 94ee 1b3b 27be 6cbd 8581 a7bd
00000110: 9e29 23bd b118 fcbc ed76 14bd 83f3 81bd

enc2.0.proj.pointwise.weight f4 [1, 8, 1, 1]
-0.012818971 0.091731064 0.08213582 0.14448598 -0.07662068 0.060449585 -0.14282 -0.6855353
00000000: a906 52bc 7fdd bb3d d336 a83d 22f4 133e
00000010: 4eeb 9cbd fc99 773d 683f 12be 3e7f 2fbf

enc2.1.conv1.depthwise.weight f4 [1, 1, 5, 5]
-0.09069333 0.05118737 0.0011398697 0.10276969 -0.13327907 -0.012650384 0.13932532 -0.038949534
0.1489778 0.06630188 0.022553839 -0.117734954 -0.39377254 -0.042909246 -0.0099536395 0.087527946
-0.009466313 -0.2593695 -0.2863595 0.06803513 -0.08109142 0.09645734 -0.08477231 0.05697315
0.0010752876
00000000: 6dbd b9bd d9a9 513d ae67 953a ea78 d23d
00000010: 4f7a 08be 8e43 4fbc 4cab 0e3e 8c89 1fbd
00000020: a38d 183e 48c9 873d d4c2 b83c 061f f1bd
00000030: 8e9c c9be 9bc1 2fbd 9714 23bc da41 b33d
00000040: 9818 1bbc 14cc 84be b69d 92be 0156 8b3d
00000050: 4213 a6bd 6d8b c53d 1b9d adbd ae5c 693d
00000060: aaf0 8c3a

enc2.1.conv2.depthwise.weight f4 [1, 1, 5, 5]
-0.17081149 0.12824185 0.14467977 -0.10536393 -0.15069275 -0.026912365 0.22207 0.388411
-0.0032060966 -0.02400281 0.015291894 0.18882072 0.35525164 -0.020077238 0.034397878 -0.01767549
0.02563096 0.10268917 -0.01870249 -0.0314079 -0.10293119 -0.09041443 -0.06872821 -0.15950847
-0.029670674
00000000: 35e9 2ebe d551 033e ef26 143e 0bc9 d7bd
00000010: 334f 1abe 5277 dcbc 5166 633e cedd c63e
00000020: 601d 52bb 8aa1 c4bc da8a 7a3c 385a 413e
00000030: 8be3 b53e 0579 a4bc cae4 0c3d 30cc 90bc
00000040: 05f8 d13c b34e d23d f735 99bc 92a5 00bd
00000050: 96cd d2bd 332b b9bd 60c1 8cbd 3056 23be
00000060: ea0f f3bc

enc3.0.conv1.depthwise.weight f4 [1, 1, 5, 5]
-0.08633666 -0.0682185 0.09018025 -0.025562523 -0.12765954 -0.083760634 0.025602 0.35675848
0.106504224 -0.06562793 0.020944059 0.1381793 0.19445817 0.15368657 0.08420426 0.014814425
0.018403396 0.0121914055 0.14122267 -0.043434635 0.019889629 -0.07153624 -0.0024946774 0.031916637
-0.053087503
00000000: 46d1 b0bd 24b6 8bbd 6cb0 b83d 7f68 d1bc
00000010: 2fb9 02be b28a abbd 49bb d13c 0ca9 b63e
00000020: e31e da3d f067 86bd e092 ab3c e07e 0d3e
00000030: 0b20 473e 0360 1d3e 4873 ac3d 34b8 723c
00000040: b8c2 963c 76be 473c ad9c 103e 84e8 31bd
00000050: 93ef a23c 9881 92bd be7d 23bb 05bb 023d
00000060: 4872 59bd

enc3.0.conv2.depthwise.weight f4 [1, 1, 5, 5]
0.017542602 0.048060376 -0.17003715 0.012537209 0.011422737 0.09161614 0.057352636 -0.18743603
-0.05808953 0.028416 0.023696488 -0.114041574 -1.345939 -0.22755983 -0.018009827 0.022711817
-0.033139627 -0.2845196 -0.15756667 0.03515964 0.048104767 0.047926314 0.047895826 -0.014952325
0.028344078
00000000: 81b5 8f3c f5da 443d 381e 2ebe de68 4d3c
00000010: 6e26 3b3c 3ea1 bb3d 99ea 6a3d 3bef 3fbe
00000020: 49ef 6dbd acc8 e83c 231f c23c a18e e9bd
00000030: bb47 acbf 7205 69be 5889 93bc 220e ba3c
00000040: 6bbd 07bd 8eac 91be 2859 21be 8e03 103d
00000050: 8109 453d 624e 443d 6a2e 443d 99fa 74bc
00000060: d731 e83c

enc3.0.conv2.pointwise.weight f4 [4, 1, 1, 1]
0.6257878 -1.0800264 -0.114797026 -0.1017734
00000000: a133 203f 4e3e 8abf b41a ebbd 936e d0bd

enc3.0.conv2.pointwise.bias f4 [4]
0.2548609 0.05824535 -0.8313464 -0.31389785
00000000: 217d 823e ad92 6e3d 1ed3 54bf 38b7 a0be

enc3.0.proj.depthwise.weight f4 [1, 1, 3, 3]
0.00938886 -0.0026443144 0.021276988 0.011606341 -0.059630137 -0.035673674 0.007120721 -0.03938088
-0.06371885
00000000: bcd3 193c 3c4c 2dbb 144d ae3c 8628 3e3c
00000010: bb3e 74bd 8f1e 12bd f054 e93b d84d 21bd
00000020: 077f 82bd

enc3.0.proj.pointwise.weight f4 [4, 1, 1, 1]
0.0666951 -0.35363287 0.46389645 -0.3877091
00000000: 7197 883d 5e0f b5be d683 ed3e cf81 c6be

enc3.0.proj.pointwise.bias f4 [4]
0.23523992 0.01783317 -0.7713575 -0.3583605
00000000: bce2 703e de16 923c af77 45bf 077b b7be

enc3.1.conv1.depthwise.weight f4 [4, 1, 5, 5]
0.015797412 0.030724026 -0.19414574 -0.2193483 0.121821284 -0.113274164 -0.24468601 -0.55504245
-0.36920652 -0.16628937 -0.105084 -0.084903866 -0.3415019 -0.62041837 -0.016389651 -0.095538646
0.25147524 0.016647542 -0.352263 -0.017359968 -0.070737 0.053368017 -0.047203682 -0.214991
-0.08363244 0.045205165 0.07489716 0.034846183 0.102129266 -0.023519432 0.017289577 0.15259913
-0.2047585 0.017996201 -0.037748925 -0.07344643 -0.11026937 -0.9512613 0.19215353 -0.0044827033
-0.033535477 -0.006936956 -0.39091823 0.016453331 -0.060481347 -0.018771177 -0.002956288 -0.12221195
-0.042850852 -0.10639613 -0.14246128 0.05840777 0.052504558 0.06700086 -0.011745703 0.21317361
0.18212812 0.3488091 0.5363407 0.496351 0.30325413 0.19181675 1.441163 0.5024581
0.3855239 0.031308472 0.07996427 0.43745545 0.057909425 0.2743998 0.02410395 0.2178867
-0.0050692456 0.14077945 0.13973711 -0.023487305 0.06904809 -0.10845674 0.039536096 0.048997197
0.18961526 -0.13897783 -0.31611556 0.18747208 -0.025718134 0.042958345 -0.40132105 -0.7817908
-0.16950391 0.054439146 0.1672771 0.08501596 0.121294826 0.19218309 0.16419245 0.049126863
0.013192513 0.19693317 0.14988288 -0.00038275908
00000000: 9369 813c f4b0 fb3c 24ce 46be d79c 60be
00000010: 707d f93d 49fc e7bd f88e 7abe 4317 0ebf
00000020: a308 bdbe c347 2abe 4836 d7bd 14e2 adbd
00000030: 56d9 aebe bdd3 1ebf 9743 86bc c4a9 c3bd
00000040: 5dc1 803e 6d60 883c d15b b4be 7e36 8ebc
00000050: 8fde 90bd 6c98 5a3d a658 41bd 9a26 5cbe
00000060: 7c47 abbd 0d29 393d af63 993d dfba 0e3d
00000070: 2629 d13d d3ab c0bc dfa2 8d3c f242 1c3e
00000080: 36ac 51be c56c 933c 9e9e 1abd 156b 96bd
00000090: e8d4 e1bd dc85 73bf e5c3 443e a4e3 92bb
000000a0: 7f5c 09bd 684f e3bb 6f26 c8be 23c9 863c
000000b0: 4abb 77bd 03c6 99bc 48be 41bb 424a fabd
000000c0: 6084 2fbd 37e6 d9bd 5fe1 11be fc3c 6f3d
000000d0: 050f 573d bf37 893d 0d71 40bc 2f4a 5a3e
000000e0: cb7f 3a3e 1b97 b23e a04d 093f b821 fe3e
000000f0: 2044 9b3e 9c6b 443e 0778 b83f 18a1 003f
00000100: 6363 c53e 503d 003d 4fc4 a33d 29fa df3e
00000110: 6f32 6d3d 217e 8c3e a675 c53c b11d 5f3e
00000120: ea1b a6bb 7d28 103e 3f17 0f3e 7368 c0bc
00000130: 1669 8d3d 911e debd 9af0 213d 49b1 483d
00000140: 812a 423e 3450 0ebe e6d9 a1be aef8 3f3e
00000150: d6ae d2bc 17f5 2f3d f479 cdbe 7123 48bf
00000160: 6f92 2dbe 95fb 5e3d b04a 2b3e d91c ae3d
00000170: 6c69 f83d a5cb 443e 1122 283e 4039 493d
00000180: 6925 583c d9a8 493e e67a 193e 0ead c8b9

enc3.1.conv1.pointwise.weight f4 [1, 4, 1, 1]
0.8801708 -0.68082464 0.9243688 -0.7712051
00000000: e052 613f 864a 2ebf 6fa3 6c3f b36d 45bf

enc3.1.conv2.depthwise.weight f4 [1, 1, 5, 5]
-0.01883452 -0.013972857 -0.032261834 -0.11349743 0.022499448 0.040471092 -0.07583489 0.1381224
-0.11354863 0.07807396 -0.039274853 -0.21277222 0.81746763 0.08314382 -0.026940987 -0.03278154
-0.08177393 0.042623084 0.0015985809 -0.03228357 0.0067307684 0.022355283 0.04522884 -0.02981289
0.03300663
00000000: da4a 9abc 69ee 64bc fc24 04bd 5771 e8bd
00000010: c350 b83c 04c5 253d 534f 9bbd f56f 0d3e
00000020: 2f8c e8bd 3ee5 9f3d abde 20bd f6e0 59be
00000030: 8f45 513f 4f47 aa3d 58b3 dcbc f045 06bd
00000040: 1779 a7bd 8b95 2e3d 7987 d13a c73b 04bd
00000050: c78d dc3b 6d22 b73c e041 393d 293a f4bc
00000060: f631 073d

enc3.1.conv2.pointwise.weight f4 [4, 1, 1, 1]
-0.43366048 -0.08378439 -0.65118706 0.053725526
00000000: bf08 debe 2697 abbd 32b4 26bf 4c0f 5c3d

enc3.1.conv2.pointwise.bias f4 [4]
0.28958604 -1.1338427 0.03717499 -0.46996653
00000000: 9f44 943e c221 91bf cd44 183d 749f f0be

enc3.2.conv1.depthwise.weight f4 [4, 1, 5, 5]
-0.05141876 0.14513752 -0.2825632 0.064284675 -0.0026402392 -0.03880309 -0.017852083 0.15836309
0.055403925 -0.0683176 -0.25374797 -0.026976213 0.93799186 -0.36652082 -0.057283964 0.06260539
0.12327843 -0.21880616 0.31352177 0.037243847 -0.05455999 -0.019767258 0.05807059 -0.09047851
-0.023670208 -0.04693947 0.116369314 0.19196087 -0.07997869 -0.21088777 -0.15348637 0.3238842
0.47032896 0.6020781 -0.052472346 0.18809246 0.25074515 0.15748423 0.88698477 0.097612835
0.09132709 0.25192058 0.40103683 0.28461337 0.10277079 -0.06302831 0.08548861 0.16005112
0.0038770342 0.045410354 -0.264965 0.01599603 -0.24182178 -0.55173135 -0.12921144 -0.18697652
0.1553584 -0.020345768 -0.49866042 -0.09753185 -0.29462346 0.15940619 -0.33223644 -0.71653885
-0.22840366 -0.16168392 0.23889826 -0.374269 -0.47714847 -0.20905662 -0.034314442 0.14876495
0.015732206 -0.25115323 -0.060077965 -0.028253004 -0.07669463 0.108636156 0.01274172 0.027768934
-0.07389783 0.24822578 0.49914646 -0.18114193 0.0016933236 -0.05203338 0.14176251 0.704122
-0.29089665 -0.15526803 -0.10883785 0.07710972 0.10882647 -0.17069025 -0.027303776 -0.057366647
-0.073838264 -0.16234677 0.036888696 0.008683885
00000000: 7a9c 52bd ee9e 143e 20ac 90be afa7 833d
00000010: dd07 2dbb fdef 1ebd 883e 92bc ef29 223e
00000020: 3aef 623d 19ea 8bbd 41eb 81be 38fd dcbc
00000030: 3c20 703f 9ea8 bbbe 97a2 6abd 4137 803d
00000040: 6779 fc3d b90e 60be ed85 a03e 018d 183d
00000050: 4c7a 5fbd f2ee a1bc 6ddb 6d3d cc4c b9bd
00000060: 06e8 c1bc 9a43 40bd 0953 ee3d 6491 443e
00000070: decb a3bd f7f2 57be 882b 1dbe 26d4 a53e
00000080: f5ce f03e ca21 1a3f 3eed 56bd 4f9b 403e
00000090: ab61 803e 8c43 213e 6f11 633f 3de9 c73d
000000a0: b309 bb3d bcfb 803e b354 cd3e d8b8 913e
000000b0: 7e79 d23d fd14 81bd a714 af3d 71e4 233e
000000c0: d715 7e3b 3500 3a3d 7ea9 87be 1b0a 833c
000000d0: 21a0 77be 443e 0dbf 0150 04be c676 3fbe
000000e0: 4616 1f3e 2bac a6bc 6b50 ffbe c7be c7bd
000000f0: e3d8 96be 603b 233e e51a aabe 176f 37bf
00000100: a6e2 69be 7890 25be bfa1 743e 30a0 bfbe
00000110: ce4c f4be f012 56be 4d8d 0cbd d755 183e
00000120: d4e0 803c 2897 80be 5014 76bd d872 e7bc
00000130: 1312 9dbd a27c de3d a6c2 503c ad7b e33c
00000140: bf57 97bd e62e 7e3e 2090 ff3e 457d 39be
00000150: 83f2 dd3a f420 55bd 312a 113e 5741 343f
00000160: 68f0 94be 95fe 1ebe 61e6 debd b3eb 9d3d
00000170: 6ae0 de3d 6dc9 2ebe 2bac dfbc 4af9 6abd
00000180: 8438 97bd 3b3e 26be 9a18 173d db46 0e3c

enc3.2.conv1.pointwise.weight f4 [2, 4, 1, 1]
-0.88137406 0.34344113 0.62798697 0.61686593 -1.0051043 0.1262934 -0.7773691 0.70350105
00000000: bba1 61bf 84d7 af3e c1c3 203f edea 1d3f
00000010: 42a7 80bf 0f53 013e a901 47bf a518 343f

enc3.2.conv1.pointwise.bias f4 [2]
0.3258848 1.3716118
00000000: 5fda a63e fa90 af3f

enc3.2.conv2.depthwise.weight f4 [2, 1, 5, 5]
0.037167102 -0.012371766 0.014268896 0.033732656 0.013333884 -0.043335967 -0.022358267 0.17202
-0.021585174 -0.08547946 0.04678104 0.18289249 0.66317075 0.20758711 0.06552017 -0.04102553
-0.016831325 0.108331434 0.0033188257 -0.08140971 0.04571906 0.041174583 -0.0024607754 0.019976426
0.008315482 -0.08654046 -0.0054718135 0.0050746985 -0.0038199832 -0.060815476 -0.007523476 0.023481872
0.0017476644 0.0039359857 0.007688713 -0.014920434 -0.10016829 -0.5154881 -0.22092712 0.00806325
-0.00238309 0.15345204 -0.07723843 0.0026379079 0.029868018 -0.07608923 0.047568668 0.017407158
-0.00447807 -0.024953462
00000000: 883c 183d f3b2 4abc 16c8 693c 412b 0a3d
00000010: 5d76 5a3c 0e81 31bd af28 b7bc 0326 303e
00000020: 64d3 b0bc db0f afbd 7a9d 3f3d 2b48 3b3e
00000030: 8fc5 293f b791 543e 702f 863d 630a 28bd
00000040: d9e1 89bc dfdc dd3d a880 593b 22ba a6bd
00000050: e943 3b3d aea6 283d f644 21bb 9aa5 a33c
00000060: a93d 083c 203c b1bd e64c b3bb a849 a63b
00000070: af58 7abb a619 79bd 7e87 f6bb 0e5d c03c
00000080: e311 e53a 71f9 803b 99f1 fb3b d674 74bc
00000090: 0825 cdbd 07f7 03bf b83a 62be b91b 043c
000000a0: 9e2d 1cbb 8822 1d3e 2f2f 9ebd c0e0 2c3b
000000b0: c6ad f43c acd4 9bbd 5dd7 423d 7599 8e3c
000000c0: c6bc 92bb 346b ccbc

enc3.2.conv2.pointwise.weight f4 [4, 2, 1, 1]
0.23184873 0.14285424 0.26717284 -0.62451655 0.3913646 0.3126505 0.30914795 -0.017212296
00000000: c169 6d3e 6248 123e e1ca 883e 51e0 1fbf
00000010: f160 c83e ba13 a03e a448 9e3e cd00 8dbc

enc3.2.conv2.pointwise.bias f4 [4]
0.40230083 -0.34573966 -0.07688566 -0.45744333
00000000: 60fa cd3e ca04 b1be 3b76 9dbd 0336 eabe

enc3.3.conv1.depthwise.weight f4 [4, 1, 5, 5]
0.20559745 0.115876995 -0.6485989 0.22513379 0.23926085 -0.007984999 0.2165336 -0.25280795
-0.040336125 0.042487822 -0.07660435 -0.123797 0.5804128 0.34427825 -0.07881489 0.07411045
0.15211919 0.78205085 0.30298933 0.04069707 -0.10596009 0.075848594 0.37525195 0.014639884
0.05930343 -0.0606644 -0.010581598 0.048388723 -0.0018395362 -0.3291219 0.13608903 -0.07125789
0.041542117 0.034876727 0.025766699 -0.025173986 -0.28955746 -0.5044651 0.15629166 0.17846209
-0.10193194 -0.33038786 -0.44279063 -0.3942756 -0.36549288 -0.11184862 -0.32342225 0.052019928
-0.12919724 -0.18555348 0.057887957 -0.16415973 -0.112771004 0.05994011 0.1521675 0.06683773
0.21728441 0.37957624 0.59965235 0.18860869 0.24823745 0.4142852 0.5569569 0.77347344
0.23699313 0.08456506 0.28334084 0.44986546 0.67608905 0.316825 0.2146107 0.28379434
0.34963873 0.565943 0.4051442 -0.011122486 -0.093045674 0.13465475 0.28160998 0.1177969
-0.14864792 0.007614861 0.040344324 0.23943101 -0.036115907 0.14201424 0.29373387 0.24945824
0.25359935 0.17239386 -0.08071419 -0.23604515 -0.075444795 0.3072091 0.16162594 0.022340825
-0.21143137 0.24516895 0.30133927 0.0038089103
00000000: 2388 523e eb50 ed3d 940a 26bf 7989 663e
00000010: cc00 753e 83d3 02bc fcba 5d3e 0b70 81be
00000020: 7e37 25bd b607 2e3d bee2 9cbd 4889 fdbd
00000030: ef95 143f 3d45 b03e b369 a1bd 38c7 973d
00000040: 22c5 1b3e 7c34 483f 6b21 9b3e f9b1 263d
00000050: 9b01 d9bd 8256 9b3d 0621 c03e 20dc 6f3c
00000060: 27e8 723d 3c7b 78bd 705e 2dbc 4133 463d
00000070: 981c f1ba aa82 a8be ec5a 0b3e a8ef 91bd
00000080: 1128 2a3d e6da 0e3d af14 d33c ad39 cebc
00000090: e040 94be a024 01bf ec0a 203e c4be 363e
000000a0: b1c1 d0bd 9928 a9be 74b5 e2be 7ede c9be
000000b0: e221 bbbe e410 e5bd 9a97 a5be d912 553d
000000c0: 484c 04be bb01 3ebe ec1b 6d3d 7d19 28be
000000d0: 7cf4 e6bd c383 753d ccd1 1b3e 38e2 883d
000000e0: ce7f 5e3e d157 c23e d182 193f a322 413e
000000f0: f531 7e3e 311d d43e ba94 0e3f 5b02 463f
00000100: 54ae 723e 7230 ad3d 0d12 913e c454 e63e
00000110: 2c14 2d3f e336 a23e e8c2 5b3e 7e4d 913e
00000120: d903 b33e a4e1 103f 106f cf3e 163b 36bc
00000130: bb8e bebd efe2 093e 2f2f 903e 803f f13d
00000140: 2937 18be 1586 f93b 1740 253d 672d 753e
00000150: 46ee 13bd 2e6c 113e 4964 963e fb71 7f3e
00000160: c6d7 813e 0488 303e 7b4d a5bd d2b5 71be
00000170: cd82 9abd 834a 9d3e 4581 253e 1b04 b73c
00000180: 7781 58be 920d 7b3e 2449 9a3e e99e 793b

enc3.3.conv1.pointwise.weight f4 [1, 4, 1, 1]
0.6216553 0.19584095 -0.48154268 0.020599948
00000000: cd24 1f3f 888a 483e c38c f6be 39c1 a83c

enc3.3.conv2.depthwise.weight f4 [1, 1, 5, 5]
0.027653808 0.04961153 0.096936084 0.11286016 -0.0061305426 0.12151553 0.11866201 0.41168395
0.13703264 0.06745302 0.0043462324 0.00023832805 0.14129746 0.024574246 0.02577276 -0.0009517439
0.064896666 0.08430464 0.0782838 0.017617492 0.029133823 0.058745075 0.105605006 0.027562564
0.0015612374
00000000: 3d8a e23c 7635 4b3d 6d86 c63d 3a23 e73d
00000010: b8e2 c8bb 22dd f83d 1105 f33d 3dc8 d23e
00000020: 4952 0c3e cf24 8a3d d76a 8e3b b3e7 7939
00000030: 48b0 103e ee4f c93c 6521 d33c 747e 79ba
00000040: 8be8 843d e9a7 ac3d 4253 a03d 8f52 903c
00000050: 0eaa ee3c ad9e 703d 7047 d83d e3ca e13c
00000060: 6fa2 cc3a

enc3.3.conv2.pointwise.weight f4 [4, 1, 1, 1]
-0.21101335 -0.082570806 0.32782748 -0.009569653
00000000: e213 58be e21a a9bd 01d9 a73e 09ca 1cbc

enc3.3.conv2.pointwise.bias f4 [4]
-0.042577796 -0.44963953 -0.2165575 -0.5051047
00000000: 0e66 2ebd 2737 e6be 40c1 5dbe 8b4e 01bf

enc4.0.conv1.depthwise.weight f4 [4, 1, 5, 5]
0.46721455 0.18001534 -0.11560994 0.09050498 0.44841498 0.23297559 0.046162702 -0.15132202
-0.019943088 0.14262722 -0.03203021 -0.24941748 -0.37810484 -0.34697348 -0.0780021 0.14991999
-0.003257984 -0.27668792 -0.22311926 0.060796194 0.36420226 -0.18854576 -0.5565223 -0.20961633
0.304973 -0.068644606 0.34699473 -0.0591463 0.5622399 0.49296936 -0.5150708 0.5001511
0.019119717 0.37825754 -0.27415457 -0.4035875 0.10451978 0.024979176 0.2944517 0.009179897
-0.3276476 -0.015300146 0.23739932 0.5823258 0.4852913 -0.085739285 -0.018960489 -0.2588133
0.8254256 -0.08024993 0.086533345 0.1904536 0.17260045 0.279913 -0.04596864 0.091644906
0.021863354 0.3846275 0.55803514 0.41818345 0.17178343 -0.08121386 0.35666168 0.5799601
0.075695425 -0.09388347 -0.062587194 0.17080595 -0.156831 -0.4353444 -0.26935253 -0.12004287
-0.09647038 -0.3728222 -0.44542658 0.34336108 0.1641341 -0.10635486 -0.202207 0.14804745
0.34146196 0.367828 -0.0818981 -0.2674501 0.07295018 0.07189767 0.148232 -0.5415681
-0.19967613 0.108715355 -0.12612948 -0.12516448 -0.44493178 -0.19142254 0.0054515754 0.49177226
0.6883487 0.55481976 0.4836839 0.29121923
00000000: bf36 ef3e f155 383e e7c4 ecbd ad5a b93d
00000010: a696 e53e 2791 6e3e 1a15 3d3d 29f4 1abe
00000020: b05f a3bc df0c 123e 1c32 03bd 4c67 7fbe
00000030: f596 c1be 82a6 b1be 91bf 9fbd a084 193e
00000040: e783 55bb 0aaa 8dbe 6079 64be 6e05 793d
00000050: b878 ba3e 2412 41be 3f78 0ebf aaa5 56be
00000060: 6c25 9c3e 8b95 8cbd 4ba9 b13e 6443 72bd
00000070: f4ee 0f3f 7b66 fc3e aedb 03bf e709 003f
00000080: f4a0 9c3c f9aa c13e fd5d 8cbe 05a3 cebe
00000090: 770e d63d 21a1 cc3c 60c2 963e 4767 163c
000000a0: 6dc1 a7be 77ad 7abc cf18 733e 4e13 153f
000000b0: 1a78 f83e 1498 afbd 0753 9bbc 2d83 84be
000000c0: 184f 533f 135a a4bd 6538 b13d 4506 433e
000000d0: 2cbe 303e c250 8f3e 9d49 3cbd 53b0 bb3d
000000e0: c71a b33c e5ed c43e 64db 0e3f 241c d63e
000000f0: ffe7 2f3e 7453 a6bd 5c9c b63e 4478 143f
00000100: 3406 9b3d fa45 c0bd b72d 80bd c1e7 2e3e
00000110: 4e98 20be 76e5 debe 93e8 89be 09d9 f5bd
00000120: 4392 c5bd 8de2 bebe f40e e4be 06cd af3e
00000130: c512 283e 94d0 d9bd 5a0f 4fbe c099 173e
00000140: 1ad4 ae3e f453 bc3e 31ba a7bd 38ef 88be
00000150: e766 953d 163f 933d 21ca 173e 35a4 0abf
00000160: e677 4cbe 28a6 de3d 1628 01be 1e2b 00be
00000170: 19ce e3be 4504 44be 21a3 b23b 93c9 fb3e
00000180: 9f37 303f ab08 0e3f 6ba5 f73e b01a 953e

enc4.0.conv1.pointwise.weight f4 [1, 4, 1, 1]
-0.3625755 0.05334666 -0.69983196 0.19550866
00000000: 7fa3 b9be 0782 5a3d 3028 33bf 6c33 483e

enc4.0.conv2.depthwise.weight f4 [1, 1, 5, 5]
-0.029495917 -0.02480217 0.035146132 0.034721263 -0.07465839 0.08334404 0.053411875 0.07108444
0.045308866 -0.0022774688 -0.022511693 -0.23729487 -0.29866952 -0.41095638 -0.09653802 -0.049629405
0.012431911 0.22524315 0.1744399 0.026038295 -0.04127553 -0.061664753 0.1199524 0.079825565
-0.10713279
00000000: 6ca1 f1bc ec2d cbbc 64f5 0f3d e237 0e3d
00000010: 7fe6 98bd 48b0 aa3d 69c6 5a3d b894 913d
00000020: ca95 393d 9641 15bb 716a b8bc 6dfd 72be
00000030: 36eb 98be e068 d2be bab5 c5bd 3448 4bbd
00000040: 37af 4b3c 24a6 663e 60a0 323e 434e d53c
00000050: 8810 29bd 2e94 7cbd 9ba9 f53d 967b a33d
00000060: 7068 dbbd

enc4.0.conv2.pointwise.weight f4 [9, 1, 1, 1]
0.6888168 -0.07692528 -0.21657057 -0.82457334 -0.6626545 0.18966767 -0.86193454 0.0698864
-0.23498341
00000000: 4c56 303f 008b 9dbd adc4 5dbe 3d17 53bf
00000010: baa3 29bf 3e38 423e bea7 5cbf 9a20 8f3d
00000020: 7e9f 70be

enc4.0.conv2.pointwise.bias f4 [9]
-0.50074005 -0.52614474 0.21489283 0.2925313 0.41244194 0.024857864 0.11391582 0.07918727
-0.061991133
00000000: 8030 00bf 6cb1 06bf de0c 5c3e aac6 953e
00000010: 972b d33e b8a2 cb3c b34c e93d ef2c a23d
00000020: 6aea 7dbd

enc4.0.proj.depthwise.weight f4 [4, 1, 3, 3]
-0.11212442 -0.117028 -0.15791157 0.022780675 -0.06590936 -0.21619006 -0.11797691 -0.03134356
-0.12026875 0.03456762 0.045808952 -0.25564662 -0.10470914 0.001186696 -0.022708293 0.358725
0.5953512 0.58025354 0.08927427 0.1282132 -0.21759187 0.1630208 0.057905093 -0.36418742
0.25973865 0.2562367 -0.2969801 -0.05253203 0.057930432 0.10071514 -0.13361686 -0.051060643
-0.23988752 -0.26654488 -0.28757408 -0.2958632
00000000: 7da1 e5bd 60ac efbd 92b3 21be 8a9e ba3c
00000010: 7dfb 86bd ed60 5dbe e19d f1bd 1b62 00bd
00000020: 764f f6bd c796 0d3d 2ba2 3b3d 1de4 82be
00000030: bf71 d6bd e98a 9b3a be06 babc ceaa b73e
00000040: f068 183f 7f8b 143f 6ed5 b63d 524a 033e
00000050: 67d0 5ebe edee 263e e42d 6d3d c676 babe
00000060: 77fc 843e 7531 833e c70d 98be d32b 57bd
00000070: 7648 6d3d bd43 ce3d dcd2 08be f724 51bd
00000080: 13a5 75be 9278 88be e93c 93be 627b 97be

enc4.0.proj.pointwise.weight f4 [9, 4, 1, 1]
-0.5459111 0.5082445 -0.4064424 0.4711671 -0.5416098 -0.53224534 -0.47478217 -0.4551542
1.1761174 -0.41345137 1.1183647 0.20121798 0.10294528 1.0737969 0.9509852 0.71356565
0.07081573 0.25129572 -0.048004944 0.5748325 -0.21290812 -0.53693473 0.18789282 0.48483628
-0.10626723 -1.0943509 0.1554022 2.3961701 -0.47507802 -1.332176 1.520672 0.42482316
-0.41511086 0.008187536 1.1560194 -0.12863731
00000000: d4c0 0bbf 501c 023f 3819 d0be d03c f13e
00000010: f1a6 0abf 3b41 08bf a616 f3be f909 e9be
00000020: 048b 963f e6af d3be 9326 8f3f 160c 4e3e
00000030: fad4 d23d 2d72 893f c473 733f 3dac 363f
00000040: d607 913d d5a9 803e d5a0 44bd 3928 133f
00000050: 9604 5abe 8e74 09bf fa66 403e 763c f83e
00000060: a2a2 d9bd b113 8cbf c121 1f3e da5a 1940
00000070: 6d3d f3be be84 aabf 61a5 c23f 6c82 d93e
00000080: 6989 d4be 0425 063c 72f8 933f 80b9 03be

enc4.0.proj.pointwise.bias f4 [9]
-0.25511754 -0.6485503 0.05796481 0.13848041 0.21418579 -0.055764046 0.030649655 0.31211996
-0.02556785
00000000: c49e 82be 6407 26bf 826c 6d3d cfcd 0d3e
00000010: 8553 5b3e d768 64bd fc14 fb3c 30ce 9f3e
00000020: ab73 d1bc

enc4.1.conv1.depthwise.weight f4 [9, 1, 5, 5]
-0.14485794 -0.35142106 0.15274172 -0.34383935 0.16151053 -0.05031192 -0.31592894 -0.49027047
-0.03408649 -0.1475618 -0.3216485 -0.70436394 -0.46486363 -0.33903733 -0.14682116 -0.26396558
-0.4136678 -0.415701 -0.04828059 -0.13251898 -0.15398297 -0.26616725 -0.4134343 -0.25137195
0.10963991 -0.37911305 -0.030991074 -0.023585055 0.037151996 -0.0567862 -0.1316041 -0.27360293
-0.5904504 -0.21702011 -0.1666961 -0.11396831 -0.51727194 -0.7756605 0.08445623 -0.14437836
-0.3441974 -0.59070736 -0.25898486 0.4975468 -0.64199585 -0.13924786 -0.57951736 -0.5949839
-0.015931038 -0.25956008 0.15332599 0.0339189 -0.25030428 -0.68576175 -0.04565957 0.071171515
-0.19326425 -0.15588827 0.02901001 -0.41079074 0.24950892 0.08599015 0.53699064 0.3030648
0.06549149 -0.1401681 0.6393404 0.24806774 0.43918195 -0.4305712 -0.09623578 0.54648226
-0.19054225 0.40778315 -0.1861709 -0.1578984 -0.103099406 0.08943504 -0.03401729 0.1977581
-0.016154818 0.3603671 -0.2784309 -0.3174844 0.03403872 0.14356162 0.3328712 -0.30304128
-0.23729624 0.09249032 -0.06642234 -0.2777258 0.033504102 0.17679091 0.048412498 0.026934346
0.51916486 -0.10196458 0.27717862 0.2732271 -0.16772231 0.46219775 -0.02858406 0.1799051
-0.25118184 -0.08944055 -0.27894956 -0.21520056 -0.030468086 0.02473005 -0.20085226 -0.66347027
-0.4316614 0.09481843 -0.1833374 0.030559225 -0.020153191 -0.22429943 0.20198032 0.014943225
0.24490061 -0.08564384 -0.29730457 0.07183712 -0.19156967 -0.10837663 -0.198211 -0.14875577
-0.2823078 0.029385665 0.2921628 0.17091908 0.5694597 -0.036158852 0.50035256 -0.01843197
-0.50389004 0.54134476 -0.1774044 0.42893034 0.397031 0.45922762 0.6507298 -0.6621175
0.38959506 0.23377599 0.30985376 0.66805243 -0.053955693 0.30892608 -0.09050803 0.4438218
0.4920704 0.039825607 0.21153401 -0.39939758 -0.12574527 0.68564993 -0.18367074 -0.3565804
0.02046982 0.09409535 0.42073506 0.23253503 -0.1969909 0.5611085 0.23621967 0.8618344
0.38035157 0.42979172 -0.16910972 -0.14118733 0.29437608 0.13049853 -0.16805549 -0.16153865
0.04256631 -0.24109513 0.27520227 0.09397529 -0.057044767 -0.49371132 -0.55619717 -0.42136493
0.119810246 -0.20487137 -0.19548377 -0.18496874 0.02354396 -0.5025209 0.12707648 -0.252559
-0.14863296 -0.06996897 0.31981504 0.022143021 -0.14809743 0.026804227 -0.036116228 -0.01321876
0.29727608 0.11970415 -0.0010236815 0.2570642 -0.17415999 0.52926165 0.1512548 0.2139076
0.5081268 0.2984065 -0.034236044 -0.21259165 0.36767164 0.2791689 0.8459669 0.29202825
0.15998232 0.52902097 -0.48684186 0.7894336 0.267084 0.3161842 -0.19421048 0.10206873
-0.40093932
00000000: a455 14be 76ed b3be 5368 1c3e b60b b0be
00000010: 0463 253e df13 4ebd 70c1 a1be bb04 fbbe
00000020: 469e 0bbd 711a 17be 1daf a4be 3251 34bf
00000030: 9b02 eebe 4d96 adbe 4958 16be 7f26 87be
00000040: 44cc d3be c3d6 d4be dec1 45bd 0eb3 07be
00000050: b6ad 1dbe 1347 88be a9ad d3be d3b3 80be
00000060: e48a e03d 1b1b c2be fee0 fdbc 7235 c1bc
00000070: b12c 183d a598 68bd 3ac3 06be af15 8cbe
00000080: c227 17bf 853a 5ebe 62b2 2abe 3868 e9bd
00000090: ef6b 04bf b091 46bf 63f7 ac3d ecd7 13be
000000a0: a43a b0be 9938 17bf aa99 84be 74be fe3e
000000b0: d759 24bf fe96 0ebe 405b 14bf dd50 18bf
000000c0: cf81 82bc 0fe5 84be 7d01 1d3e 8bee 0a3d
000000d0: e227 80be 158e 2fbf 8705 3bbd 5fc2 913d
000000e0: 10e7 45be 2da1 1fbe 67a6 ed3c 2a53 d2be
000000f0: 447f 7f3e 9b1b b03d 3878 093f 4f2b 9b3e
00000100: 6720 863d 3a88 0fbe d0ab 233f 7805 7e3e
00000110: 75dc e03e d473 dcbe 4417 c5bd 43e6 0b3f
00000120: 821d 43be f4c8 d03e 96a3 3ebe 1eb0 21be
00000130: c825 d3bd b829 b73d b755 0bbd 1981 4a3e
00000140: 1c57 84bc 0982 b83e 7f8e 8ebe 518d a2be
00000150: 2f6c 0b3d d101 133e 186e aa3e 3a28 9bbe
00000160: c9fd 72be 916b bd3d 7008 88bd 1332 8ebe
00000170: 993b 093d ad08 353e 2f4c 463d 6ba5 dc3c
00000180: fde7 043f ced2 d0bd 5bea 8d3e 6ce4 8b3e
00000190: 66bf 2bbe 2fa5 ec3e 1e29 eabc 0b39 383e
000001a0: e89a 80be 9b2c b7bd 7ad2 8ebe 895d 5cbe
000001b0: 3598 f9bc ac96 ca3c 37ac 4dbe 30d9 29bf
000001c0: b902 ddbe 2a30 c23d cdbc 3bbe 5757 fa3c
000001d0: 4e18 a5bc c0ae 65be eed3 4e3e 6ed4 743c
000001e0: 3ac7 7a3e 0a66 afbd 4e38 98be 571f 933d
000001f0: d72a 44be 91f4 ddbd d3f7 4abe 6f53 18be
00000200: a68a 90be 35ba f03c 5d96 953e 6905 2f3e
00000210: 1cc8 113f 4e1b 14bd 1b17 003f a5fe 96bc
00000220: f0fe 00bf 9295 0a3f 80a9 35be c29c db3e
00000230: a647 cb3e e21f eb3e 3a96 263f 8880 29bf
00000240: 0179 c73e f962 6f3e 27a5 9e3e 7c05 2b3f
00000250: a500 5dbd 8f2b 9e3e 465c b9bd 9c3c e33e
00000260: a7f0 fb3e 2d20 233d 5f9c 583e d77d ccbe
00000270: 5ec3 00be c186 2f3f 2f14 3cbe b591 b6be
00000280: 53b0 a73c 10b5 c03d 966a d73e aa1d 6e3e
00000290: fcb7 49be cfa4 0f3f 92e3 713e 2ea1 5c3f
000002a0: 71bd c23e a90d dc3e 192b 2dbe 6993 10be
000002b0: 76b8 963e 68a1 053e bd16 2cbe 636a 25be
000002c0: 035a 2e3d a4e1 76be 50e7 8c3e 1e76 c03d
000002d0: c6a7 69bd bbc7 fcbe f062 0ebf 25bd d7be
000002e0: 135f f53d cdc9 51be e62c 48be 7268 3dbe
000002f0: 43df c03c 36a5 00bf 5620 023e 6a4f 81be
00000300: 3d33 18be e44b 8fbd ccbe a33e 4865 b53c
00000310: daa6 17be 8a94 db3c 9cee 13bd 7f93 58bc
00000320: 9234 983e 7327 f53d 0d2d 86ba eb9d 833e
00000330: ff56 32be b17d 073f 8ae2 1a3e 980a 5b3e
00000340: 9914 023f bdc8 983e 183b 0cbd a0b1 59be
00000350: 753f bc3e 3aef 8e3e 4991 583f ba84 953e
00000360: 68d2 233e eb6d 073f 5643 f9be 5218 4a3f
00000370: 3cbf 883e e5e2 a13e 1ddf 46be 6909 d13d
00000380: eb47 cdbe

enc4.1.conv1.pointwise.weight f4 [2, 9, 1, 1]
0.84159845 0.76727164 -0.53615785 -0.35018152 -0.119212076 -0.52778685 -0.30660272 -0.41437742
-0.9531437 0.6104278 0.8365744 0.45775023 0.25279546 -8.103907e-05 0.54497266 0.1206996
0.07969649 0.21791567
00000000: ff72 573f ea6b 443f a441 09bf fe4a b3be
00000010: 7625 f4bd 0a1d 07bf 08fb 9cbe 4729 d4be
00000020: 3a01 74bf ff44 1c3f bd29 563f 3d5e ea3e
00000030: 686e 813e 85f3 a9b8 5483 0b3f 5a31 f73d
00000040: ea37 a33d 4925 5f3e

enc4.1.conv1.pointwise.bias f4 [2]
0.25295982 0.7035847
00000000: f383 813e 201e 343f

enc4.1.conv2.depthwise.weight f4 [2, 1, 5, 5]
-0.24088535 0.1544348 -0.04319894 -0.034057427 -0.08207118 0.1566302 0.2014476 0.2988621
0.041920662 0.2456085 0.11096585 0.09102552 0.3145299 0.20117603 0.0061448747 -0.06742405
0.11725815 -0.16695462 0.046852186 0.13623238 0.019864518 0.021797068 -0.16950628 -0.06347526
0.049571335 -0.13135207 -0.22201099 -0.076477505 -0.16465637 -0.26639193 -0.059137903 -0.40350473
0.16490446 -0.29478303 -0.2975264 0.28170702 -0.0787723 0.34193707 -0.2358581 -0.13871151
0.0636261 -0.120489694 0.35189894 -0.20431305 -0.2182841 0.033618823 -0.093267344 0.20761682
0.0062899645 -0.06916424
00000000: a6aa 76be 2824 1e3e 5ff1 30bd cd7f 0bbd
00000010: ef14 a8bd ab63 203e 4848 4e3e 7404 993e
00000020: 00b5 2b3d cb80 7b3e 1042 e33d 966b ba3d
00000030: 100a a13e 1701 4e3e f25a c93b 9f15 8abd
00000040: 0a25 f03d 27f6 2abe 14e8 3f3d 8080 0b3e
00000050: eaba a23c c48f b23c 0e93 2dbe 51ff 81bd
00000060: 500b 4b3d 2881 06be d956 63be 3da0 9cbd
00000070: ae9b 28be 8664 88be 963a 72bd 2c98 cebe
00000080: b7dc 283e cded 96be 6155 98be e73b 903e
00000090: 5f53 a1bd 6012 af3e c984 71be 640a 0ebe
000000a0: 674e 823d 4dc3 f6bd 192c b43e 7137 51be
000000b0: de85 5fbe e4b3 093d f302 bfbd 8199 543e
000000c0: 0c1c ce3b fba5 8dbd

enc4.1.conv2.pointwise.weight f4 [9, 2, 1, 1]
-1.0072443 0.23269033 0.4372411 -0.7991554 0.1513294 0.17914197 0.13008672 0.09933755
0.3202662 0.30187774 0.5686079 -0.6514762 0.14721742 -0.05771456 -0.01019482 -0.23299989
0.2323315 -0.8537156
00000000: 62ed 80bf 6046 6e3e 11de df3e 7395 4cbf
00000010: 18f6 1a3e fe70 373e 7435 053e 7c71 cb3d
00000020: eef9 a33e b88f 9a3e 4a90 113f 25c7 26bf
00000030: 2ac0 163e 1a66 6cbd 2d08 27bc 8697 6ebe
00000040: 4fe8 6d3e 1b8d 5abf

enc4.1.conv2.pointwise.bias f4 [9]
-0.019151514 0.3182959 0.29000893 0.113276966 -0.42153198 -0.6195117 -0.5201671 0.14841017
-0.5513086
00000000: a3e3 9cbc aef7 a23e 0d7c 943e c1fd e73d
00000010: 0ad3 d7be 5298 1ebf ac29 05bf d6f8 173e
00000020: 8f22 0dbf

enc4.2.conv1.depthwise.weight f4 [9, 1, 5, 5]
-0.08257693 -0.73629856 -0.11112581 -0.20858552 0.22011712 -0.15607215 0.0052936715 0.58337015
0.52847713 -0.29037392 -0.062177427 0.08492771 0.2763876 0.40705696 0.03078759 -0.04267051
0.31012434 0.26100606 0.22335307 0.067429736 0.12591913 -0.1113292 0.25030616 0.48819408
0.13824365 -0.41796526 0.18633726 0.17348868 -0.027244732 -0.09151916 0.18866019 -0.015599127
-0.02042374 -0.10505386 -0.51316404 0.029225534 0.03278912 -0.17587316 0.04563999 0.19378212
0.087700225 0.14950162 -0.2944947 0.36362642 0.31851897 0.23253873 0.11808362 -0.02357893
0.022069298 -0.080990545 0.0071487613 0.036869615 0.059169214 -0.02138938 0.10883935 -0.20083466
0.12488836 0.3701491 -0.37573993 0.24319994 0.27439606 -0.57109994 -0.44309834 -0.28269184
-0.48108882 -0.6549395 -0.28416085 -0.4857486 -0.3453446 -0.16492605 0.038365453 -0.3196021
-0.098198034 -0.06632463 0.07736181 0.22389168 0.11417753 -0.06923618 -0.02202737 -0.15258755
0.26559806 0.06201234 -0.18836656 0.05293705 0.40354854 -0.024366595 -0.11319795 0.4900117
-0.06355059 0.090667784 0.07408502 0.15196557 -0.10036117 0.019590458 -0.034410797 0.15740374
-0.28043777 0.15925199 0.42747763 -0.1285632 -0.28057742 0.35257804 -0.71669227 0.4297435
0.18335678 0.16331005 0.3129952 -0.17662148 0.11027232 -0.10674791 -0.14244135 -0.25707668
-0.38926047 -0.78011554 -0.2305272 -0.28227243 0.38208473 0.12174531 0.28886878 -0.017205441
0.09249208 -0.34274828 0.3363667 0.33025888 0.05109753 -0.16294032 0.053572178 -0.09609809
0.32676476 -0.046251092 -0.0030235252 0.13252148 -0.11551122 -0.18379526 -0.16899478 -0.006309549
0.2646271 0.48076883 0.05888481 0.13137698 -0.31402183 0.02709903 0.2793043 0.22837172
0.06628238 -0.10419701 0.018164719 0.23439646 0.2458566 -0.1105204 0.16769832 -0.53370017
-0.101655476 0.58441937 0.55410016 0.4690924 -0.020281035 0.31455058 0.43654993 0.18155909
-0.32326287 -1.1171466 -0.70401365 -0.27301493 -0.4032489 0.06920258 -0.1564554 -0.4337072
-0.087346315 0.027256478 0.27405316 -0.47274557 0.02713055 0.5732985 0.16975653 0.034151033
-0.05290158 0.38006803 0.07274705 0.10186437 -0.075360775 -0.21817459 0.07649738 0.3193756
0.20361882 -0.02806604 0.05713792 0.4375555 0.044194404 0.15504524 -0.23930773 0.1750297
0.628699 0.48372257 -0.095202126 0.081526205 -0.1403884 0.17108004 -0.18293485 0.123446345
-0.09455783 -0.2135379 0.16157167 0.2642373 0.3302879 -0.29728067 -0.11491486 -0.14246039
-0.21457969 0.012769626 0.35341033 -0.19975814 -0.009269441 -0.8269684 -0.32018685 -0.4081671
-0.25059146 -0.17858978 0.18849425 -0.026561907 -0.11800441 0.32376555 0.30820876 -0.3497726
-0.29599434
00000000: 181e a9bd 107e 3cbf ee95 e3bd 7197 55be
00000010: 6266 613e 61d1 1fbe 8976 ad3b bf57 153f
00000020: 474a 073f e4ab 94be c2ad 7ebd 94ee ad3d
00000030: ad82 8d3e c569 d03e 4236 fc3c 46c7 2ebd
00000040: 9ec8 9e3e 96a2 853e abb6 643e 9a18 8a3d
00000050: f2f0 003e 9000 e4bd 2128 803e 93f4 f93e
00000060: be8f 0d3e 8bff d5be 32cf 3e3e 04a7 313e
00000070: 5830 dfbc 666e bbbd 2330 413e 7b93 7fbc
00000080: b04f a7bc 7a26 d7bd b85e 03bf 636a ef3c
00000090: e24d 063d 1818 34be 00f1 3a3d d26e 463e
000000a0: 2d9c b33d f416 193e 02c8 96be 3e2d ba3e
000000b0: eb14 a33e a21e 6e3e d3d5 f13d 9a28 c1bc
000000c0: acca b43c 5fde a5bd 2840 ea3b 9804 173d
000000d0: 6b5b 723d c838 afbc 2ae7 de3d 9aa7 4dbe
000000e0: 78c5 ff3d 2f84 bd3e fc60 c0be 6809 793e
000000f0: a47d 8c3e 9b33 12bf c9dd e2be fcbc 90be
00000100: 4651 f6be 1daa 27bf 887d 91be 0ab4 f8be
00000110: 02d1 b0be 60e2 28be 1825 1d3d e3a2 a3be
00000120: 0d1c c9bd 35d5 87bd de6f 9e3d dc43 653e
00000130: e9d5 e93d b3cb 8dbd be72 b4bc e93f 1cbe
00000140: 78fc 873e a700 7e3d 2ae3 40be 85d4 583d
00000150: ea9d ce3e 749c c7bc 54d4 e7bd d0e2 fa3e
00000160: d026 82bd 08b0 b93d e3b9 973d dd9c 1b3e
00000170: 288a cdbd 2b7c a03c 56f2 0cbd 722e 213e
00000180: 8a95 8fbe f412 233e 59de da3e 12a6 03be
00000190: d8a7 8fbe 1c85 b43e 2579 37bf 5707 dc3e
000001a0: e1c1 3b3e c03a 273e e840 a03e 43dc 34be
000001b0: 74d6 e13d a69e dabd 25dc 11be 8e9f 83be
000001c0: 264d c7be a7b5 47bf 530f 6cbe 0386 90be
000001d0: 9ca0 c33e 9b55 f93d 9ce6 933e 6df2 8cbc
000001e0: 7d6c bd3d b47c afbe 4238 ac3e b117 a93e
000001f0: a54b 513d d4d9 26be 806e 5b3d 13cf c4bd
00000200: b64d a73e c971 3dbd 5626 46bb b6b3 073e
00000210: 2691 ecbd d334 3cbe f80c 2dbe 55c0 cebb
00000220: 347d 873e 5527 f63e 3331 713d b087 063e
00000230: 78c7 a0be c9fe dd3c f900 8f3e 47da 693e
00000240: 0ebf 873d 3e65 d5bd 2dce 943c a005 703e
00000250: d5c1 7b3e 8558 e2bd 1cb9 2b3e 93a0 08bf
00000260: bf30 d0bd 829c 153f 82d9 0d3f e12c f03e
00000270: 6a24 a6bc c60c a13e 7983 df3e a0ea 393e
00000280: b682 a5be a9fe 8ebf 3d3a 34bf 9dc8 8bbe
00000290: a476 cebe 15ba 8d3d d835 20be df0e debe
000002a0: a0e2 b2bd fa48 df3c b250 8c3e b50b f2be
000002b0: e340 de3c b1c3 123f a8d4 2d3e f4e1 0b3d
000002c0: 54af 58bd 4798 c23e 68fc 943d 449e d03d
000002d0: c056 9abd 2969 5fbe a9aa 9c3d 3385 a33e
000002e0: 7481 503e c0ea e5bc 7409 6a3d 4607 e03e
000002f0: 3105 353d 2ec4 1e3e 160d 75be fc3a 333e
00000300: 6bf2 203f 7caa f73e 55f9 c2bd 36f7 a63d
00000310: fac1 0fbe 9b2f 2f3e 4653 3bbe 70d1 fc3d
00000320: 89a7 c1bd aea9 5abe 0b73 253e 1d4a 873e
00000330: 7f1b a93e 2c35 98be 7b58 ebbd 23e1 11be
00000340: c7ba 5bbe b237 513c 33f2 b43e 668d 4cbe
00000350: dade 17bc 33b4 53bf 88ef a3be 47fb d0be
00000360: 864d 80be 3de0 36be a304 413e 5b98 d9bc
00000370: 4cac f1bd 99c4 a53e 8acd 9d3e 6515 b3be
00000380: 928c 97be

enc4.2.conv1.pointwise.weight f4 [4, 9, 1, 1]
0.2073404 -0.14170915 0.11403538 0.08790626 -0.9527751 -0.08297531 0.8208035 0.15619487
0.7178737 -0.7655232 -0.25713867 -0.60618085 0.17573938 -0.7343869 -0.69235593 0.64087576
-0.19562621 -0.06205364 0.085780054 -0.14568752 -0.5144283 0.025105782 -0.589698 -0.29054976
0.649614 -0.031979017 0.077451974 -0.5800286 0.30193397 0.74674076 -0.10743503 0.09993322
0.35448372 0.75149584 -0.113640085 0.55658084
00000000: 0b51 543e 341c 11be 628b e93d 3208 b43d
00000010: 12e9 73bf f6ee a9bd 2e20 523f 8cf1 1f3e
00000020: 92c6 373f 54f9 43bf aea7 83be ab2e 1bbf
00000030: 06f5 333e c800 3cbf 3d3e 31bf 6f10 243f
00000040: 3d52 48be f52b 7ebd 74ad af3d 1c2f 15be
00000050: 93b1 03bf a4aa cd3c 73f6 16bf f0c2 94be
00000060: 1a4d 263f 6efc 02bd 249f 9e3d c17c 14bf
00000070: 1797 9a3e 672a 3f3f e606 dcbd caa9 cc3d
00000080: e47e b53e 0862 403f 22bc e8bd 157c 0e3f

enc4.2.conv1.pointwise.bias f4 [4]
0.06954271 0.5647105 -0.054371662 -0.2349619
00000000: 696c 8e3d de90 103f d2b4 5ebd da99 70be

enc4.2.conv2.depthwise.weight f4 [4, 1, 5, 5]
-0.2718845 -0.12043807 0.1985892 0.13579564 0.035482574 0.059847046 -0.019668374 0.2993804
0.2269869 0.17828985 0.13031596 -0.38097984 -0.2922984 0.15085208 -0.13601884 -0.12094914
-0.39310285 -0.09821631 0.16772883 0.051698823 -0.26170257 -0.5495076 -0.016212627 -0.09852733
-0.32172653 0.038163036 -0.006738933 -0.034417927 0.13753562 -0.08584492 -0.037286226 -0.10054766
-0.18339297 -0.14309275 0.064327985 -0.22087461 -0.34387004 -0.5420738 -0.10874335 -0.0034376394
0.14902182 -0.024084702 -0.06771609 0.016888063 0.1034124 0.0666166 0.0921292 0.0063422457
-0.124459386 0.037502274 0.21630748 0.13541763 0.0011555168 0.03879112 -0.1440024 -0.10802481
-0.06305308 0.2538026 -0.0215862 0.055220816 -0.01665693 -0.12411628 0.2130067 0.11882575
0.14980058 -0.10680118 -0.34794876 0.1940534 -0.23893261 -0.087604694 -0.057882994 -0.15852422
0.17588688 -0.11070607 0.04729773 -0.2206309 -0.3610893 0.018478874 -0.32549384 -0.15765649
-0.3034571 -0.116787046 -0.16087204 -0.0755207 -0.3306144 0.09927911 0.25921506 0.25001565
-0.073706366 -0.0071017533 0.07228154 -0.3189013 0.14116743 -0.49040663 -0.1588411 -0.0020240177
0.04704369 0.14345798 -0.056061722 -0.006097177
00000000: 7234 8bbe 3ca8 f6bd f85a 4b3e 030e 0b3e
00000010: 2d56 113d 2d22 753d 921f a1bc 6348 993e
00000020: 416f 683e 9d91 363e 8c71 053e ca0f c3be
00000030: 23a8 95be f878 1a3e 8648 0bbe 2fb4 f7bd
00000040: c744 c9be a225 c9bd 1bc1 2b3e 25c2 533d
00000050: e1fd 85be 88ac 0cbf 58d0 84bc b2c8 c9bd
00000060: 57b9 a4be d850 1c3d 44d2 dcbb d0f9 0cbd
00000070: 23d6 0c3e 76cf afbd 71b9 18bd eeeb cdbd
00000080: 5ecb 3bbe e886 12be 64be 833d f42c 62be
00000090: bc0f b0be 59c5 0abf d5b4 debd 054a 61bb
000000a0: 2d99 183e 484d c5bc bcae 8abd d658 8a3c
000000b0: e1c9 d33d 496e 883d 3cae bc3d 9dd2 cf3b
000000c0: 90e4 febd fc9b 193d b57f 5d3e ebaa 0a3e
000000d0: b674 973a 70e3 1e3d 5d75 13be 1d3c ddbd
000000e0: f921 81bd 6af2 813e 8bd5 b0bc 392f 623d
000000f0: 1d74 88bc ad30 febd 6e1e 5a3e ea5a f33d
00000100: 5365 193e 94ba dabd 5726 b2be efb5 463e
00000110: c0aa 74be 176a b3bd b816 6dbd 2c54 22be
00000120: b11b 343e ddb9 e2bd 44bb 413d 11ed 61be
00000130: b2e0 b8be 0261 973c 21a7 a6be b470 21be
00000140: bb5e 9bbe 0c2e efbd a4bb 24be 99aa 9abd
00000150: 4a46 a9be d952 cb3d d6b7 843e 0d02 803e
00000160: 5df3 96bd d3b5 e8bb 5808 943d 0847 a3be
00000170: 328e 103e 9416 fbbe 3ea7 22be 62a5 04bb
00000180: e2b0 403d a6e6 123e faa0 65bd d4ca c7bb

enc4.2.conv2.pointwise.weight f4 [9, 4, 1, 1]
-0.115080506 -0.5805665 0.54644597 0.49529135 -0.13367373 -0.5873101 0.17464994 0.04897865
-0.4678858 -0.3683075 -0.35060713 -0.33344686 0.12670259 -0.15084308 -0.11166608 0.1869975
0.25359726 0.07871228 -0.16474131 0.24000761 -0.7136193 0.24568616 -1.6928096 -0.8858297
0.2312456 0.24280734 0.15576664 0.11541263 -0.14393666 0.41137934 -0.4900885 -0.27791828
0.23044366 -0.25326094 0.2740638 -0.21649383
00000000: 54af ebbd 02a0 14bf e2e3 0b3f d496 fd3e
00000010: c4e1 08be f459 16bf 6fd7 323e d69d 483d
00000020: ba8e efbe cd92 bcbe c782 b3be 8cb9 aabe
00000030: 53be 013e 9c76 1abe 30b1 e4bd 467c 3f3e
00000040: 80d7 813e e733 a13d f2b1 28be 8ec4 753e
00000050: c1af 36bf 2795 7b3e fcad d8bf bcc5 62bf
00000060: a6cb 6c3e 7da2 783e 4a81 1f3e 755d ec3d
00000070: 2264 13be 50a0 d23e e1ec fabe 4e4b 8ebe
00000080: 6cf9 6b3e 6bab 81be 1752 8c3e 8fb0 5dbe

enc4.2.conv2.pointwise.bias f4 [9]
0.63536847 0.35072133 -0.08852728 -0.1084992 0.57446975 -0.1456069 0.3041154 -0.09480407
0.44459742
00000000: 82a7 223f bf91 b33e ca4d b5bd d434 debd
00000010: 7310 133f fa19 15be 04b5 9b3e a328 c2bd
00000020: 46a2 e33e
